models/checkpoints/bigram/basic_model.pth (torch, 49840 bytes, 3 tensors)

tok_embedding.weight f4 [93, 64]
-1.3678071 -0.56624025 -0.80502963 1.1396866 -1.8369004 -0.20338868 0.15580764 0.56992817
-0.3018966 0.13368909 -1.0388918 0.17659445 -0.923064 0.67410946 -0.2322905 0.33978996
-1.1655902 -0.6785478 0.2308001 -0.892902 -0.58747965 0.98357433 -0.92053175 -0.059694834
-0.22063519 0.5105251 1.2968462 -1.5993688 -1.2300432 -0.47620016 -0.6767261 -0.48404187
-0.9074291 -0.19301987 -0.24985836 0.6658821 -0.15620683 1.0234994 -0.11726964 0.30978438
0.28939044 0.05728179 0.3347109 1.7856053 1.1682984 0.28135628 -0.33027142 -0.41525128
-0.80919945 -1.0190147 -0.9616531 1.1660919 0.34263313 0.685697 -0.47388893 1.1984226
0.23013617 -0.314044 -0.072383784 -0.12592466 -0.50430954 0.17119344 1.3308197 -1.2026969
-0.49360138 -1.8637463 0.37591255 -0.40679017 -0.16856614 -0.577273 0.33424994 -0.5454968
1.5243478 -0.009380759 0.09020125 1.9622188 0.4492139 0.856916 -0.41010058 0.65859514
0.16764991 -0.5429254 -0.49768034 -0.9139376 -0.57197225 0.85915905 0.743517 0.5679182
-0.23581684 0.7483521 0.539705 -0.8041498 -0.17831345 -0.17303829 0.52241147 -0.31209505
-0.65064436 0.25162262 -0.35459724 0.48158017 0.41432267 -0.04428613 -1.4609861 0.2714832
0.41156977 0.72260666 -1.2448004 1.4165668 0.124092326 0.31389704 0.12019551 1.7102461
-0.31776926 -1.5787882 -0.22687657 0.24450603 -0.54818666 -0.8540571 -1.5579982 2.135836
0.91168344 1.1007525 0.35429984 1.5558138 -1.571221 0.09660989 0.79963315 1.1601499
-0.9098617 0.67769045 -1.0146934 0.6171874 -0.8256328 0.01834936 0.67286134 0.59675807
-2.468052 0.46717408 -1.0012267 0.75811094 0.18577123 -0.13585187 -1.3792253 -1.0164111
-0.8327989 0.16874728 -0.83966506 -1.009691 -0.84116286 -0.6670718 -0.9088066 -0.19543727
1.1142548 0.743292 0.065584905 -1.4913707 -0.26227048 0.80703515 -0.5669205 0.21167198
0.2268892 -1.6422489 -0.49901792 -0.95765126 0.5121958 0.2910339 -0.18638521 0.25579384
-0.35751545 0.10872169 -2.536827 0.2748697 -0.49938524 1.0833256 1.0204223 0.7106183
-0.104216374 0.6018012 0.12079791 1.8498647 0.663464 -0.45326847 -2.4140375 -0.7074119
-1.0941015 -0.46904597 1.8206592 0.03255605 1.4082816 -0.34863663 1.710072 -0.4337711
0.5776362 0.8560892 0.6697165 0.5875825 0.26341823 -0.33168128 -1.4986278 -0.1698103
1.1655034 -0.729247 -1.2760967 0.8538446 0.9857209 0.55156314 -1.4293505 2.5255294
0.82981634 -0.22040144 -1.5400028 -0.070903264 1.710492 0.37345314 0.034012865 -2.0100257
1.1473614 1.256218 0.22260687 0.8078002 0.50389546 -0.41829365 0.8292338 0.7415775
1.5144851 0.5581535 -0.9577543 -0.9831928 -0.6541782 -0.24990025 -0.13052872 -0.5565749
-0.44280502 0.54904586 -0.48550656 1.2381829 -0.48627657 0.62796426 -0.43937355 1.171319
-1.5964609 0.61711 1.2216135 -0.39124373 0.7490052 0.5231666 -1.1384103 0.7355889
1.4866167 0.055099774 -0.51352817 0.11101794 -0.61687845 -0.42807147 0.8223447 -0.41116807
00000000: 4e14 afbf 1ff5 10bf 6c16 4ebf 40e1 913f
00000010: 8d1f ebbf 1f45 50be 0a8c 1f3e d0e6 113f
00000020: 3192 9abe cbe5 083e 68fa 84bf 2dd5 343e
00000030: ec4d 6cbf 7092 2c3f 90dd 6dbe f3f8 ad3e
00000040: 0f32 95bf 4fb5 2dbf dd56 6c3e 3a95 64bf
00000050: 1165 16bf 87cb 7b3f f8a7 6bbf 9282 74bd
00000060: 31ee 61be c6b1 023f 0eff a53f 1eb8 ccbf
00000070: 0e72 9dbf 82d0 f3be ec3d 2dbf 56d4 f7be
00000080: 464d 68bf 00a7 45be dfda 7fbe 4077 2a3f
00000090: aff4 1fbe 0702 833f 112b f0bd 0f9c 9e3e
000000a0: fc2a 943e 4fa0 6a3d 3a5f ab3e b78e e43f
000000b0: cd8a 953f ee0d 903e 5619 a9be d19b d4be
000000c0: b227 4fbf 136f 82bf e62e 76bf 8042 953f
000000d0: 9c6d af3e d789 2f3f 92a1 f2be e965 993f
000000e0: d1a8 6b3e 60ca a0be f33d 94bd 65f2 00be
000000f0: 6e1a 01bf 554d 2f3e 4d58 aa3f f9f1 99bf
00000100: 52b9 fcbe 3d8f eebf 9c77 c03e cd46 d0be
00000110: 9a9c 2cbe 2ac8 13bf cf22 ab3e aea5 0bbf
00000120: d41d c33f c1b1 19bc 6fbb b83d fc29 fb3f
00000130: 5dff e53e d95e 5b3f b4f8 d1be b199 283f
00000140: 6bac 2b3e 29fd 0abf f5cf febe d1f7 69bf
00000150: c66c 12bf d9f1 5b3f 2157 3e3f 1663 113f
00000160: f879 71be 0194 3f3f 1b2a 0a3f c3dc 4dbf
00000170: cd97 36be f330 31be c2bc 053f ecca 9fbe
00000180: a190 26bf aed4 803e c58d b5be ad91 f63e
00000190: 1a22 d43e 6065 35bd 9801 bbbf d9ff 8a3e
000001a0: 46b9 d23e c0fc 383f 9f55 9fbf 1052 b53f
000001b0: 1e24 fe3d 1db7 a03e 1029 f63d 58e9 da3f
000001c0: a7b2 a2be bb15 cabf 5552 68be ca5f 7a3e
000001d0: f655 0cbf 7ca3 5abf 7c6c c7bf 89b1 0840
000001e0: 1664 693f 75e5 8c3f ca66 b53e e824 c73f
000001f0: c51d c9bf 68db c53d c2b4 4c3f cb7f 943f
00000200: b2ec 68bf 1f7d 2d3f 79e1 81bf feff 1d3f
00000210: ac5c 53bf 6651 963c a440 2c3f 23c5 183f
00000220: 90f4 1dc0 7131 ef3e 3228 80bf 8f13 423f
00000230: d03a 3e3e c11c 0bbe 748a b0bf c219 82bf
00000240: 4f32 55bf 16cc 2c3e 4af4 56bf 8e3d 81bf
00000250: 7356 57bf 38c5 2abf 8da7 68bf b520 48be
00000260: e79f 8e3f 6248 3e3f 6151 863d 3ce5 bebf
00000270: 5148 86be db99 4e3f b421 11bf 8ac0 583e
00000280: a455 683e 3635 d2bf 477f ffbe a228 75bf
00000290: 441f 033f 6502 953e c4db 3ebe 69f7 823e
000002a0: 440c b7be 7aa9 de3d 605b 22c0 b9bb 8c3e
000002b0: 6caf ffbe 6aaa 8a3f 339d 823f 15eb 353f
000002c0: 656f d5bd a50f 1a3f e564 f73d 5ec8 ec3f
000002d0: c7d8 293f ce12 e8be 977f 1ac0 f218 35bf
000002e0: 850b 8cbf cb26 f0be 5c0b e93f 7e59 053d
000002f0: 9242 b43f 8080 b2be a4e3 da3f 3f17 debe
00000300: f7df 133f a928 5b3f 8a72 2b3f cf6b 163f
00000310: c1de 863e 21d2 a9be 09d3 bfbf c0e2 2dbe
00000320: 372f 953f eeaf 3abf 2357 a3bf 8f95 5a3f
00000330: 3458 7c3f 3e33 0d3f f5f4 b6bf 46a2 2140
00000340: d86e 543f eab0 61be d01e c5bf bb35 91bd
00000350: 67f1 da3f 4035 bf3e 1351 0b3d 43a4 00c0
00000360: bddc 923f c0cb a03f 0ef3 633e fecb 4e3f
00000370: 4bff 003f 962a d6be ab48 543f 06d8 3d3f
00000380: a6da c13f 26e3 0e3f 632f 75bf 86b2 7bbf
00000390: 3978 27bf dae5 7fbe 52a9 05be b17b 0ebf
000003a0: 57b7 e2be 458e 0c3f 5194 f8be c77c 9e3f
000003b0: 3ef9 f8be 44c2 203f 92f5 e0be c8ed 953f
000003c0: d558 ccbf ecfa 1d3f d55d 9c3f 1951 c8be
000003d0: cebe 3f3f 3fee 053f 6eb7 91bf 8e4f 3c3f
000003e0: 7549 be3f 4db0 613d 9576 03bf 605d e33d
000003f0: bfeb 1dbf 2f2c dbbe 2f85 523f 9f84 d2be

linear_layer.weight f4 [93, 64]
-0.16561016 -0.17392144 0.010155175 -0.08324289 -0.2970615 -0.13414067 -0.4253379 0.2183083
-0.0122448625 -0.42853814 -0.04236165 -0.057177808 0.20024754 -0.7360222 -0.0067416215 -0.07963822
0.34752855 0.28048068 -0.28227323 -0.17315826 0.36038575 -0.42040622 0.25248918 0.072885826
0.56836134 0.30728433 -0.24257916 0.12759645 -0.24146003 0.12975419 0.4371898 0.24901064
-0.013551914 0.025834158 0.33993375 0.06780234 -0.045933377 0.34144923 0.23944323 0.017162193
-0.034092773 0.2590502 -0.13388601 -0.3954796 0.1894756 0.37695736 -0.030055964 0.057665076
0.3205405 -0.30754125 -0.104498036 -0.1815904 0.4568834 -0.066380866 0.017945204 -0.3807927
-0.5015791 -0.21663775 0.26293746 -0.53406984 -0.036918074 0.12441497 -0.47506836 0.3208041
-0.016792534 -0.24451329 0.23309034 -0.45202523 -0.18922374 -0.14512862 -0.60053974 0.40103334
0.1295092 -0.11446886 0.05291975 -0.029083287 0.34829703 -0.39022458 -0.12247264 0.07818217
0.45640323 0.17603345 -0.05845755 -0.039015595 0.11119969 -0.28186405 0.6419727 0.19764738
-0.20184337 0.2268557 -0.029310564 0.14255477 0.010532522 0.008979838 0.42598677 0.24749057
0.1448635 -0.030755103 0.04051656 0.24815698 0.2185888 0.093952976 -0.19879146 0.16875115
0.0968023 0.2423285 -0.5328906 -0.3337605 0.041296195 0.17840576 0.17738871 0.30055213
0.19186966 -0.566713 -0.24858023 -0.7243942 -0.18710966 -0.45782083 -0.08002619 0.046620335
0.06109223 -0.09228386 0.14313824 -0.1919887 -0.055466067 0.05901494 0.40984336 0.45845264
0.92759305 -0.26563406 0.30803365 -0.5865077 1.5466403 0.021922436 -1.4252831 -0.77029574
-1.5991827 1.2125484 1.2001833 -0.8535482 0.4579944 -0.049749404 0.66855305 0.9472991
0.0072733266 0.15153153 1.3832804 1.5892214 -1.1253943 0.32271358 -0.21657123 -0.26556638
-1.3989584 -1.7930291 -0.39032945 1.3518437 1.0717671 0.27088386 -0.6758054 0.64083594
1.004528 -0.66782457 0.2006193 -0.9344914 1.1328189 0.89433354 0.5624429 -0.36895725
0.9799794 -0.8255321 0.44110882 0.29434386 -0.73178816 -1.7022455 1.010287 -0.26586795
-1.4185147 0.9473921 0.9505794 -1.6560613 -0.8072989 -0.4333493 1.1345013 -0.06113436
-0.15629111 -0.40597716 -0.18507594 1.522168 0.24042377 0.32709667 0.6685656 -0.8807828
1.1752185 -0.34662825 0.27571362 -0.4809845 1.6081306 -0.009962271 -1.3466775 -0.6340774
-1.8680797 1.2350829 1.2801441 -0.9874514 0.4796868 -0.11244545 0.69155335 0.9093144
0.1485437 -0.06742651 1.2130985 1.7402935 -1.0952474 0.39784092 -0.07763327 -0.37678695
-1.3798233 -1.7047114 -0.43390217 1.201648 1.0524776 0.12303045 -0.66736734 0.61869633
1.1158977 -0.6417525 0.1521458 -0.97518337 1.1144507 0.8279897 0.52628106 -0.46840915
1.0150492 -0.7908193 0.52076536 0.33978853 -0.7063057 -1.5229195 1.1323401 -0.24679275
-1.4176656 0.9357148 0.95977914 -1.7538279 -0.63327813 -0.49036542 1.1109499 0.09744695
-0.00874024 -0.47308612 -0.20152006 1.4560865 0.23162633 0.2920151 0.6442784 -0.87849724
00000000: b695 29be 7618 32be e461 263c 407b aabd
00000010: 7218 98be 2c5c 09be e4c5 d9be 368c 5f3e
00000020: ad9e 48bc 5a69 dbbe 6983 2dbd 4733 6abd
00000030: b10d 4d3e f36b 3cbf d2e8 dcbb 5d19 a3bd
00000040: 43ef b13e 2a9b 8f3e 1e86 90be 6650 31be
00000050: 7b84 b83e 7c3f d7be 4346 813e 2a45 953d
00000060: 2180 113f 5f54 9d3e ac66 78be a5a8 023e
00000070: 4c41 77be 48de 043e 57d7 df3e a5fc 7e3e
00000080: d908 5ebc 28a2 d33c cc0b ae3e f4db 8a3d
00000090: a324 3cbd 6fd2 ae3e 9b30 753e ba97 8c3c
000000a0: dda4 0bbd 3aa2 843e 6a19 09be 4d7c cabe
000000b0: e405 423e 8e00 c13e ed37 f6bc 3732 6c3d
000000c0: e21d a43e 0c76 9dbe 1103 d6bd d5f2 39be
000000d0: 9fec e93e b1f2 87bd d201 933c 43f7 c2be
000000e0: 7d67 00bf 49d6 5dbe bd9f 863e cdb8 08bf
000000f0: 6837 17bd 47cd fe3d 293c f3be 6f40 a43e
00000100: 7f90 89bc b161 7abe 3caf 6e3e da6f e7be
00000110: dec3 41be 999c 14be f9bc 19bf 3e54 cd3e
00000120: 0f9e 043e a66e eabd 61c2 583d 1340 eebc
00000130: fd53 b23e 84cb c7be efd2 fabd f91d a03d
00000140: afad e93e 1d42 343e 2f71 6fbd d1ce 1fbd
00000150: aabc e33d 7c50 90be 5358 243f 1364 4a3e
00000160: 07b0 4ebe dc4c 683e b51c f0bc e1f9 113e
00000170: 9990 2c3c 2c20 133c f01a da3e 2b6e 7d3e
00000180: 1957 143e 20f2 fbbc b1f4 253d dd1c 7e3e
00000190: bed5 5f3e 6b6a c03d fd8f 4bbe 1acd 2c3e
000001a0: 4940 c63d f624 783e 856b 08bf a8e2 aabe
000001b0: 3326 293d 00b0 363e 63a5 353e f8e1 993e
000001c0: 7b79 443e 1a14 11bf d18b 7ebe e671 39bf
000001d0: ad99 3fbe 7e67 eabe c5e4 a3bd f7f4 3e3d
000001e0: d93b 7a3d 52ff bcbd d592 123e b098 44be
000001f0: 6330 63bd a6b9 713d fdd6 d13e 4eba ea3e
00000200: bd76 6d3f 3001 88be 96b6 9d3e 5e25 16bf
00000210: 4ff8 c53f ae96 b33c ad6f b6bf 1a32 45bf
00000220: 05b2 ccbf c934 9b3f 9b9f 993f 2382 5abf
00000230: 3e7e ea3e 08c6 4bbd 4b26 2b3f 3282 723f
00000240: 1655 ee3b 152b 1b3e 550f b13f 9b6b cb3f
00000250: ec0c 90bf b73a a53e d9c4 5dbe 51f8 87be
00000260: 1211 b3bf fa81 e5bf 43d9 c7be 3709 ad3f
00000270: aa2f 893f 4ab1 8a3e 9501 2dbf d30d 243f
00000280: 6094 803f 8df6 2abf 256f 4d3e d43a 6fbf
00000290: 3600 913f 0bf3 643f 42fc 0f3f f7e7 bcbe
000002a0: eedf 7a3f 1256 53bf 04d9 e13e 3db4 963e
000002b0: 7856 3bbf 2ee3 d9bf 1651 813f d81f 88be
000002c0: e491 b5bf 4a88 723f 2c59 733f d1f9 d3bf
000002d0: 24ab 4ebf f6df ddbe 5737 913f 0668 7abd
000002e0: c70a 20be 3ddc cfbe 8c84 3dbe 67d6 c23f
000002f0: a631 763e 3779 a73e 1d27 2b3f fb7a 61bf
00000300: 8f6d 963f 4279 b1be 562a 8d3e 9a43 f6be
00000310: 39d7 cd3f cb38 23bc ee5f acbf e652 22bf
00000320: 3c1d efbf 3217 9e3f c3db a33f 9dc9 7cbf
00000330: 8299 f53e cd49 e6bd a409 313f d4c8 683f
00000340: d71b 183e e916 8abd d046 9b3f f0c1 de3f
00000350: 1131 8cbf ceb1 cb3e 31fe 9ebd 38ea c0be
00000360: 0d9e b0bf fc33 dabf 6d28 debe 9acf 993f
00000370: 96b7 863f 63f7 fb3d 96d8 2abf e262 1e3f
00000380: bcd5 8e3f e449 24bf 1ccc 1b3e 9ea5 79bf
00000390: 52a6 8e3f 22f7 533f 5bba 063f 53d3 efbe
000003a0: 22ed 813f 2273 4abf e150 053f c3f8 ad3e
000003b0: 73d0 34bf 07ef c2bf 85f0 903f 3db7 7cbe
000003c0: 1176 b5bf 018b 6f3f 16b4 753f 6f7d e0bf
000003d0: 841e 22bf 2d11 fbbe 9b33 8e3f 4492 c73d
000003e0: 3933 0fbc 5838 f2be 465b 4ebe 0b61 ba3f
000003f0: 742f 6d3e 0183 953e 6eef 243f 32e5 60bf

linear_layer.bias f4 [93]
0.47648945 0.009731539 -2.0104163 -1.910634 -2.1973348 -0.73270625 -1.9654704 -2.0874016
-1.8750995 -2.128795 -2.033767 -2.097631 -0.11388509 -0.45509723 -0.32805154 -0.55757844
-0.19852224 -0.46394598 -0.5281441 -0.56809235 0.14626737 -0.7115234 -0.42148933 -0.21768191
-0.35337758 -0.22738221 -0.0780411 -0.44446784 -0.6497701 -0.23041973 -0.22953464 -0.25250912
-0.20901011 -0.6109857 -0.24501003 -0.5307285 -0.3945057 -0.5436399 0.6094284 -0.2381716
0.06486067 0.10253371 0.3731146 0.042491265 -0.25821412 0.084404536 0.3979061 -0.6478716
-0.23938942 0.38473025 0.035341848 0.1948687 0.4641045 -0.18631054 -0.46160898 0.4035865
0.25173956 0.3893352 0.4420016 -0.19311199 -0.05228512 -0.4588416 0.14869167 -0.54484326
-0.5056695 -2.0300868 -1.9518812 -1.1999913 -2.1705716 -0.8788715 -0.21197452 -1.9673054
-2.0132792 -2.0414276 -1.9067688 -0.14112343 -0.3809556 -0.4262632 -2.1457214 0.4874467
-0.6501691 -0.5984029 -2.0087268 -2.008211 -2.0272295 -1.9434832 -2.033898 -2.1950598
-2.0055814 -1.8742087 -2.101747 -1.9308611 -2.1182053
00000000: 6df6 f33e 0871 1f3c a9aa 00c0 a88f f4bf
00000010: 22a1 0cc0 a392 3bbf 8994 fbbf fd97 05c0
00000020: 4303 f0bf 2d3e 08c0 3d29 02c0 963f 06c0
00000030: 963c e9bd 8102 e9be 5ff6 a7be 76bd 0ebf
00000040: 6a49 4bbe 548a edbe 7434 07bf 806e 11bf
00000050: 1dc7 153e 6626 36bf 73cd d7be 02e8 5ebe
00000060: e8ed b4be e2d6 68be 03d4 9fbd 4a91 e3be
00000070: 5557 26bf 26f3 6bbe 210b 6bbe e048 81be
00000080: bf06 56be 8f69 1cbf e9e3 7abe d3dd 07bf
00000090: a7fc c9be fc2b 0bbf 8003 1c3f 42e3 73be
000000a0: acd5 843d 32fd d13d e008 bf3e 520b 2e3d
000000b0: a434 84be 49dc ac3d 59ba cb3e eada 25bf
000000c0: 8022 75be 5dfb c43e 9dc2 103d a98b 473e
000000d0: 1b9f ed3e 31c8 3ebe 0358 ecbe e4a2 ce3e
000000e0: 02e4 803e f156 c73e 094e e23e 26bf 45be
000000f0: ec28 56bd 49ed eabe a142 183e d97a 0bbf
00000100: 8e73 01bf f1ec 01c0 3ed7 f9bf 5199 99bf
00000110: a5ea 0ac0 b9fd 60bf d90f 59be aad0 fbbf
00000120: 91d9 00c0 c0a6 02c0 0011 f4bf a982 10be
00000130: 9d0c c3be 2c3f dabe 8053 09c0 9d92 f93e
00000140: 7b71 26bf ef30 19bf fb8e 00c0 8786 00c0
00000150: 21be 01c0 0fc4 f8bf 632b 02c0 dc7b 0cc0
00000160: 725b 00c0 12e6 efbf 0683 06c0 7526 f7bf
00000170: ad90 07c0
