models/checkpoints/bigram/interview_model.pth (torch, 42408 bytes, 8 tensors)

tok_embedding.weight f4 [93, 32]
0.91888756 -1.165616 0.04787499 -0.757109 -0.4349919 -2.0742407 0.3521315 1.4385849
0.7429797 -0.9995141 1.054001 -0.87433815 -2.3662121 1.7787056 1.758559 0.8494206
0.46781868 1.2835275 -0.10795398 1.798644 -1.6045665 0.52776647 1.9893135 -3.0749965
2.278106 2.271159 0.22381862 -0.2656907 -0.46539944 -0.19814953 0.2560838 -1.1941341
-2.9842584 -0.86351615 -2.137313 -0.43689477 0.74974644 2.497723 -0.39488602 0.35009888
-1.523963 0.0050771916 -0.10172418 0.33633438 1.5761737 -2.0899894 3.7779236 -1.123673
3.709017 -1.3896328 -0.46172374 -1.8197185 0.5951085 0.67103755 0.8491519 -1.3080693
0.4875052 2.9845712 0.930166 -1.7080054 -0.34064198 -1.7542394 -0.99498516 -0.14765154
0.600213 -1.4549619 2.16782 1.3577808 0.8778163 -1.0439107 -1.1014273 -1.3314592
-0.07891678 0.44619566 0.7652642 0.33223692 -0.79755723 0.515964 1.8559896 -0.45513555
1.4036379 -2.1999395 0.10937522 0.010968901 -0.96835095 -0.23292062 0.9979941 -0.38698804
-0.44922945 1.7923652 -0.6347173 -0.75208616 -0.22880188 1.4544806 -0.6980312 -0.7355963
1.4657546 -0.5850528 -0.34009063 -0.24916618 1.9835523 0.057680994 0.03329532 -0.5328327
-0.10637237 0.83901083 1.0413061 0.13123547 2.1555295 -0.35715643 0.49639 -0.9438001
0.9706434 0.077391274 0.5627306 -1.8261528 -1.5932925 -0.51688105 -1.2278022 0.6826605
-0.84105563 0.74609315 -0.3138931 -1.012038 -1.1135006 0.072748244 -2.0468276 -0.19050618
0.77866864 0.99622834 0.9793588 0.18277267 -0.77635 -0.45748556 0.43346208 1.5855397
0.14659701 -0.3017593 -0.104612805 -0.20044178 -1.2870641 1.3537664 -0.062261894 -0.5761523
0.37204748 -0.5364373 0.44043323 0.024690732 -0.60930496 1.2892377 1.0370462 0.1141994
-0.9086029 0.2563174 -0.80168253 -0.071851075 -0.5115644 -1.1608036 0.14060292 0.5901328
-0.3254476 -1.0155177 2.0458648 -1.1563436 0.36736023 0.15129194 -1.0283322 0.78031737
-1.3835378 0.23336135 -2.0223846 -0.045468323 0.54906994 2.2958825 -1.1954217 2.3042576
0.11254161 -0.9977552 0.105415665 1.1933019 0.18112653 0.09279655 -1.1023382 -0.5531141
1.0039812 -0.65417993 0.1239438 0.99824464 0.6075887 -0.7847036 1.5782629 0.50505835
0.67602456 -0.22428378 1.6770992 -0.13106659 -0.015543488 0.04366321 -0.61969864 1.3882551
1.6970807 0.16720907 -0.31862754 0.7352694 -0.10922579 -0.32074314 -1.3190495 0.68814254
0.7634365 1.0307902 -0.9730587 -0.7863908 -0.5941148 0.9547819 0.6465829 -0.7910445
-1.0788506 1.35475 1.293389 1.7425759 -0.3974961 -0.9179611 -0.28600723 -0.7810888
0.49820623 -0.47196698 -0.17481293 0.061962597 -0.31236354 0.2750039 0.8406996 0.2876397
-0.6746772 -1.9610381 -1.2549009 0.5135348 -0.0637687 -1.9384524 1.1808311 -0.29016468
1.3585408 -1.1875262 -0.042204455 -0.609845 1.0881509 0.5495496 0.23909526 -1.2774514
0.56584 0.04858348 1.140505 -0.33074552 0.0681832 -1.6721959 -0.6373882 1.0374463
00000000: 373c 6b3f e832 95bf 9118 443d e5d1 41bf
00000010: 42b7 debe 5cc0 04c0 944a b43e 8d23 b83f
00000020: eb33 3e3f 28e0 7fbf 81e9 863f a0d4 5fbf
00000030: 0570 17c0 a0ac e33f 7618 e13f a173 593f
00000040: ee85 ef3e a14a a43f fa16 ddbd f739 e63f
00000050: 6f62 cdbf b41b 073f d3a1 fe3f becc 44c0
00000060: 7dcc 1140 ab5a 1140 b530 653e 9d08 88be
00000070: d648 eebe b6e7 4abe 6a1d 833e 63d9 98bf
00000080: 17fe 3ec0 650f 5dbf bcc9 08c0 acb0 dfbe
00000090: 62ef 3f3f b2da 1f40 802e cabe 2940 b33e
000000a0: 3811 c3bf 925e a63b c454 d0bd 0534 ac3e
000000b0: 0fc0 c93f 63c2 05c0 80c9 7140 84d4 8fbf
000000c0: 8960 6d40 7ddf b1bf 0e67 ecbe 89ec e8bf
000000d0: 0859 183f 1ec9 2b3f 0562 593f d16e a7bf
000000e0: 489a f93e 3703 3f40 5c1f 6e3f ec9f dabf
000000f0: a068 aebe eb8a e0bf 59b7 7ebf f731 17be
00000100: 8fa7 193f 313c babf 90bd 0a40 c3cb ad3f
00000110: 92b8 603f de9e 85bf 92fb 8cbf 416d aabf
00000120: 1f9f a1bd c273 e43e 5be8 433f f51a aa3e
00000130: b62c 4cbf 3716 043f 1191 ed3f 8707 e9be
00000140: 68aa b33f cfcb 0cc0 1e00 e03d e8b6 333c
00000150: d9e5 77bf be82 6ebe 8b7c 7f3f 4c23 c6be
00000160: 6701 e6be 396c e53f d57c 22bf b888 40bf
00000170: 0a4b 6abe 6c2c ba3f 2cb2 32bf 0a50 3cbf
00000180: d99d bb3f 05c6 15bf 5c20 aebe 6b25 7fbe
00000190: 0be5 fd3f e842 6c3d ac60 083d b967 08bf
000001a0: c2d9 d9bd 6ac9 563f 8549 853f 9762 063e
000001b0: 32f4 0940 35dd b6be d526 fe3e e29c 71bf
000001c0: 167c 783f 517f 9e3d 1d0f 103f 60bf e9bf
000001d0: 02f1 cbbf 5152 04bf 9f28 9dbf d7c2 2e3f
000001e0: 6c4f 57bf f6ff 3e3f 99b6 a0be 768a 81bf
000001f0: 3087 8ebf 08fd 943d 39ff 02c0 0d14 43be
00000200: d456 473f d208 7f3f 42b7 7a3f c228 3b3e
00000210: e0be 46bf 8c3b eabe beee dd3e f7f2 ca3f
00000220: 871d 163e 3280 9abe 3d3f d6bd 9c40 4dbe
00000230: 84be a4bf 3848 ad3f 5406 7fbd b87e 13bf
00000240: 027d be3e f453 09bf 7780 e13e 3844 ca3c
00000250: 69fb 1bbf be05 a53f eebd 843f 60e1 e93d
00000260: 339a 68bf 093c 833e 113b 4dbf a826 93bd
00000270: e2f5 02bf 3695 94bf 36fa 0f3e f112 173f
00000280: 11a1 a6be 7cfc 81bf 73ef 0240 1103 94bf
00000290: a416 bc3e 46ec 1a3e 64a0 83bf e1c2 473f
000002a0: c417 b1bf 47f6 6e3e c06e 01c0 fe3c 3abd
000002b0: d98f 0c3f bdef 1240 9403 99bf f578 1340
000002c0: 377c e63d e36c 7fbf 2be4 d73d 1ebe 983f
000002d0: 3c79 393e 1e0c be3d 6b19 8dbf e398 0dbf
000002e0: 7582 803f 5678 27bf 3fd6 fd3d f68c 7f3f
000002f0: ef8a 1b3f 56e2 48bf 8504 ca3f 814b 013f
00000300: f20f 2d3f a6aa 65be 30ab d63f 5236 06be
00000310: 1daa 7ebc 32d8 323d 92a4 1ebf 58b2 b13f
00000320: f139 d93f db38 2b3e 2623 a3be 9e3a 3c3f
00000330: c5b1 dfbd 7238 a4be 9dd6 a8bf 1c2a 303f
00000340: 9370 433f eff0 833f 601a 79bf e850 49bf
00000350: e817 18bf 966c 743f 7586 253f e481 4abf
00000360: c717 8abf 7368 ad3f c58d a53f ba0c df3f
00000370: 9c84 cbbe 80ff 6abf 8a6f 92be 70f5 47bf
00000380: e314 ff3e a8a5 f1be 2902 33be 7ecc 7d3d
00000390: 1dee 9fbe 50cd 8c3e 1738 573f 8345 933e
000003a0: a5b7 2cbf 4c03 fbbf 98a0 a0bf 0477 033f
000003b0: 2a99 82bd 351f f8bf 7925 973f 7790 94be
000003c0: aae4 ad3f dc00 98bf 94de 2cbd cd1e 1cbf
000003d0: 8748 8b3f 48af 0c3f 63d5 743e 8783 a3bf
000003e0: e4da 103f 79ff 463d 11fc 913f 7a57 a9be
000003f0: a2a3 8b3d 840a d6bf e02b 23bf 0acb 843f

pos_embedding.weight f4 [16, 32]
0.46417907 -1.1620849 0.7021977 -0.5688215 -1.3364009 0.5079115 1.9697564 1.2080976
-1.397458 0.8229493 -0.7622334 -1.0740775 -1.3998209 -1.6990694 -0.070954315 1.3529017
0.6816501 -1.1341919 1.687206 0.76903135 1.714266 -0.95723045 -2.1427205 0.63463545
0.4650644 0.10501559 0.31989026 -0.52587306 0.1206483 -0.6267796 1.2394016 -1.4333936
-1.4136329 -0.074526034 0.38055095 -2.8695507 0.73814714 1.2184912 1.4550923 1.807733
0.28134087 -0.18746461 -0.8871822 -0.8987159 0.54121155 -0.09255124 0.31675467 0.32961783
0.30008355 0.416807 0.46654737 0.26377997 0.65130204 0.280779 -0.0032727164 0.9356177
-0.35268435 -0.38950676 0.3340268 -0.5287543 1.1763453 1.7474647 0.73950976 -0.97119296
-0.14706197 -0.7997329 0.23606186 0.28619462 -0.026287906 1.1379248 -0.6153067 1.7775187
-1.0415312 2.1908262 -0.5393125 2.2149708 0.43842533 0.4056993 -1.1620722 -0.3317032
1.6352942 -0.5615749 1.1156006 1.0550767 -1.0419897 -1.641403 -0.090779714 -0.6341789
-0.80374205 1.2907747 -0.7349349 -0.56052524 0.23658241 0.5289858 0.6270245 0.19821617
-1.0737443 0.7317421 -1.8753285 -2.2724836 -0.30276033 0.8127473 2.343646 0.460808
-0.3748914 -0.18540248 -0.19614935 -1.5005015 0.80036753 0.49786064 -0.57912993 -0.10663895
-1.7160032 0.81423295 0.96333176 -0.5552569 -0.25578767 1.232396 -1.0484515 0.8549925
-0.19492592 2.69899 0.83744496 1.2363929 1.1528624 1.045346 1.1138468 -0.14925124
-0.4062953 0.20657201 0.80130136 -0.22795084 -0.34383503 0.6856222 0.5586216 0.878598
0.1175664 1.5402447 0.930247 0.014690324 0.3924272 0.81549126 1.2842076 -2.2086608
0.1516435 -0.42623338 0.5490509 -0.5800472 -0.99026066 -2.0949337 0.9383929 -0.54949623
0.5370481 -0.56899005 0.37102583 0.7366266 -0.3307836 -0.56012094 0.48018843 0.51188076
0.4830257 1.6546602 1.809813 -0.73096365 -0.50168914 -0.17181413 -0.9926469 0.3674287
0.22114208 1.8506087 -1.1382772 -0.031771824 0.12950487 -1.0520341 0.8424333 -0.081399105
-0.19500615 1.2846414 -1.987776 -0.58302844 -0.97933894 -0.72447264 0.38727656 -0.42144316
0.23085988 0.6918662 0.3373939 0.1378153 -0.086789146 0.36362898 0.4100371 -1.5077097
0.6355478 1.2361741 0.572172 -1.1569836 -0.08031147 0.33232692 0.620529 0.026111254
0.2608643 0.88287765 0.75308734 -1.6131603 -0.6368383 0.3999618 1.7370266 0.78979486
1.4813477 0.16212343 -0.53826356 -0.8854744 -0.16495484 1.7298483 0.014575627 0.9898113
-0.11819308 -0.8894504 0.47937262 0.77409613 0.19171089 1.1809472 -0.07768723 0.666894
0.23837039 0.30549017 -0.0035197388 -0.74640256 0.7139457 0.25503257 -0.2754159 -0.15353575
0.16069648 -2.1174688 0.6392358 -0.9869495 -1.0870099 -1.0873413 -0.15637416 0.70112926
2.06026 0.41129124 -0.5862939 0.92449886 -2.6946015 -0.95397705 -0.81814045 0.794803
-1.0685352 -0.70291024 0.62413746 -0.6108486 -0.44746467 0.6369366 -0.42956677 0.7799361
00000000: e1a8 ed3e 33bf 94bf 3ac3 333f 499e 11bf
00000010: 2f0f abbf 7d06 023f fa20 fc3f f1a2 9a3f
00000020: e7df b2bf ceac 523f ba21 43bf 5f7b 89bf
00000030: 552d b3bf 1b7b d9bf 7f50 91bd e22b ad3f
00000040: 9f80 2e3f 332d 91bf 5ef6 d73f 3ddf 443f
00000050: 116d db3f 0e0d 75bf 5522 09c0 7877 223f
00000060: ec1c ee3e 6a12 d73d a8c8 a33e 9e9f 06bf
00000070: 7516 f73d a174 20bf b6a4 9e3f 7179 b7bf
00000080: ecf1 b4bf 1ba1 98bd 93d7 c23e b8a6 37c0
00000090: 36f7 3c3f 85f7 9b3f 7740 ba3f cc63 e73f
000000a0: e90b 903e b9f6 3fbe 5f1e 63bf 3f12 66bf
000000b0: d78c 0a3f 818b bdbd ab2d a23e abc3 a83e
000000c0: 8da4 993e ba67 d53e 4cdf ee3e 2b0e 873e
000000d0: bbbb 263f 44c2 8f3e 127b 56bb a484 6f3f
000000e0: 0b93 b4be 6e6d c7be 9005 ab3e 715c 07bf
000000f0: 7c92 963f ecac df3f 8350 3d3f 1aa0 78bf
00000100: 6a97 16be 4cbb 4cbf 33ba 713e 1a88 923e
00000110: bc59 d7bc 85a7 913f bd84 1dbf bc85 e33f
00000120: e550 85bf 7f36 0c40 6210 0abf 15c2 0d40
00000130: 4979 e03e d2b7 cf3e c8be 94bf 00d5 a9be
00000140: 5251 d13f 5fc3 0fbf 00cc 8e3f c10c 873f
00000150: eb5f 85bf 7e19 d2bf b7ea b9bd 8c59 22bf
00000160: 0ac2 4dbf 1b38 a53f b224 3cbf 957e 0fbf
00000170: a942 723e 9d6b 073f ad84 203f 2ef9 4a3e
00000180: 7470 89bf 7353 3b3f c40a f0bf 5f70 11c0
00000190: 6703 9bbe 3510 503f 4cfe 1540 07ef eb3e
000001a0: c4f1 bfbe 26da 3dbe 60db 48be 6f10 c0bf
000001b0: e3e4 4c3f 97e7 fe3e dc41 14bf 8665 dabd
000001c0: fea5 dbbf 9271 503f e99c 763f 5125 0ebf
000001d0: 9af6 82be 27bf 9d3f a933 86bf cae0 5a3f
000001e0: a99a 47be 41bc 2c40 cb62 563f 1f42 9e3f
000001f0: ff90 933f e6cd 853f 8892 8e3f 51d5 18be
00000200: f005 d0be 9d87 533e 1622 4d3f f26b 69be
00000210: 250b b0be f084 2f3f d301 0f3f cceb 603f
00000220: a7c6 f03d bd26 c53f ab24 6e3f afaf 703c
00000230: 38ec c83e 09c4 503f ea60 a43f b35a 0dc0
00000240: 6f48 1b3e 433b dabe 9a8e 0c3f f97d 14bf
00000250: b981 7dbf 6513 06c0 843a 703f c9ab 0cbf
00000260: fc7b 093f 55a9 11bf 19f7 bd3e 9093 3c3f
00000270: 785c a9be 1664 0fbf 42db f53e 9e0a 033f
00000280: 254f f73e e8cb d33f f4a7 e73f 6f20 3bbf
00000290: b36e 00bf 0bf0 2fbe 1b1e 7ebf 9d1f bc3e
000002a0: 1273 623e bfe0 ec3f 11b3 91bf 2c23 02bd
000002b0: ed9c 043e 0ea9 86bf b5a9 573f 93b4 a6bd
000002c0: b1af 47be 216f a43f 726f febf 5a41 15bf
000002d0: f5b5 7abf 0a77 39bf 1d49 c63e 66c7 d7be
000002e0: 8866 6c3e 251e 313f e5be ac3e 741f 0d3e
000002f0: 82be b1bd 942d ba3e 62f0 d13e a2fc c0bf
00000300: 43b3 223f f43a 9e3f dd79 123f 0a18 94bf
00000310: 577a a4bd c126 aa3e fdda 1e3f 45e7 d53c
00000320: 0190 853e 4504 623f 55ca 403f 097c cebf
00000330: d607 23bf cbc7 cc3e e356 de3f ff2f 4a3f
00000340: cd9c bd3f af03 263e a4cb 09bf 73ae 62bf
00000350: ece9 28be ab6b dd3f 9cce 6e3c 4664 7d3f
00000360: 370f f2bd 05b3 63bf 5470 f53e 2a2b 463f
00000370: dc4f 443e 4729 973f 7c1a 9fbd 91b9 2a3f
00000380: 5e17 743e 3569 9c3e 6bab 66bb 3d14 3fbf
00000390: 25c5 363f a193 823e 5003 8dbe 7a38 1dbe
000003a0: 9e8d 243e 9c84 07c0 f5a4 233f b9a8 7cbf
000003b0: 2423 8bbf 002e 8bbf 8c20 20be 357d 333f
000003c0: 4ddb 0340 c494 d23e 5b17 16bf f5ab 6c3f
000003d0: 5a74 2cc0 d737 74bf a771 51bf 3678 4b3f
000003e0: c3c5 88bf edf1 33bf 79c7 1f3f 9360 1cbf
000003f0: 171a e5be 470e 233f 2df0 dbbe e4a9 473f

attention_head.mask f4 [16, 16]
1.0 0.0 0.0 0.0 0.0 0.0 0.0 0.0
0.0 0.0 0.0 0.0 0.0 0.0 0.0 0.0
1.0 1.0 0.0 0.0 0.0 0.0 0.0 0.0
0.0 0.0 0.0 0.0 0.0 0.0 0.0 0.0
1.0 1.0 1.0 0.0 0.0 0.0 0.0 0.0
0.0 0.0 0.0 0.0 0.0 0.0 0.0 0.0
1.0 1.0 1.0 1.0 0.0 0.0 0.0 0.0
0.0 0.0 0.0 0.0 0.0 0.0 0.0 0.0
1.0 1.0 1.0 1.0 1.0 0.0 0.0 0.0
0.0 0.0 0.0 0.0 0.0 0.0 0.0 0.0
1.0 1.0 1.0 1.0 1.0 1.0 0.0 0.0
0.0 0.0 0.0 0.0 0.0 0.0 0.0 0.0
1.0 1.0 1.0 1.0 1.0 1.0 1.0 0.0
0.0 0.0 0.0 0.0 0.0 0.0 0.0 0.0
1.0 1.0 1.0 1.0 1.0 1.0 1.0 1.0
0.0 0.0 0.0 0.0 0.0 0.0 0.0 0.0
1.0 1.0 1.0 1.0 1.0 1.0 1.0 1.0
1.0 0.0 0.0 0.0 0.0 0.0 0.0 0.0
1.0 1.0 1.0 1.0 1.0 1.0 1.0 1.0
1.0 1.0 0.0 0.0 0.0 0.0 0.0 0.0
1.0 1.0 1.0 1.0 1.0 1.0 1.0 1.0
1.0 1.0 1.0 0.0 0.0 0.0 0.0 0.0
1.0 1.0 1.0 1.0 1.0 1.0 1.0 1.0
1.0 1.0 1.0 1.0 0.0 0.0 0.0 0.0
1.0 1.0 1.0 1.0 1.0 1.0 1.0 1.0
1.0 1.0 1.0 1.0 1.0 0.0 0.0 0.0
1.0 1.0 1.0 1.0 1.0 1.0 1.0 1.0
1.0 1.0 1.0 1.0 1.0 1.0 0.0 0.0
1.0 1.0 1.0 1.0 1.0 1.0 1.0 1.0
1.0 1.0 1.0 1.0 1.0 1.0 1.0 0.0
1.0 1.0 1.0 1.0 1.0 1.0 1.0 1.0
1.0 1.0 1.0 1.0 1.0 1.0 1.0 1.0
00000000: 0000 803f 0000 0000 0000 0000 0000 0000
00000010: 0000 0000 0000 0000 0000 0000 0000 0000
00000020: 0000 0000 0000 0000 0000 0000 0000 0000
00000030: 0000 0000 0000 0000 0000 0000 0000 0000
00000040: 0000 803f 0000 803f 0000 0000 0000 0000
00000050: 0000 0000 0000 0000 0000 0000 0000 0000
00000060: 0000 0000 0000 0000 0000 0000 0000 0000
00000070: 0000 0000 0000 0000 0000 0000 0000 0000
00000080: 0000 803f 0000 803f 0000 803f 0000 0000
00000090: 0000 0000 0000 0000 0000 0000 0000 0000
000000a0: 0000 0000 0000 0000 0000 0000 0000 0000
000000b0: 0000 0000 0000 0000 0000 0000 0000 0000
000000c0: 0000 803f 0000 803f 0000 803f 0000 803f
000000d0: 0000 0000 0000 0000 0000 0000 0000 0000
000000e0: 0000 0000 0000 0000 0000 0000 0000 0000
000000f0: 0000 0000 0000 0000 0000 0000 0000 0000
00000100: 0000 803f 0000 803f 0000 803f 0000 803f
00000110: 0000 803f 0000 0000 0000 0000 0000 0000
00000120: 0000 0000 0000 0000 0000 0000 0000 0000
00000130: 0000 0000 0000 0000 0000 0000 0000 0000
00000140: 0000 803f 0000 803f 0000 803f 0000 803f
00000150: 0000 803f 0000 803f 0000 0000 0000 0000
00000160: 0000 0000 0000 0000 0000 0000 0000 0000
00000170: 0000 0000 0000 0000 0000 0000 0000 0000
00000180: 0000 803f 0000 803f 0000 803f 0000 803f
00000190: 0000 803f 0000 803f 0000 803f 0000 0000
000001a0: 0000 0000 0000 0000 0000 0000 0000 0000
000001b0: 0000 0000 0000 0000 0000 0000 0000 0000
000001c0: 0000 803f 0000 803f 0000 803f 0000 803f
000001d0: 0000 803f 0000 803f 0000 803f 0000 803f
000001e0: 0000 0000 0000 0000 0000 0000 0000 0000
000001f0: 0000 0000 0000 0000 0000 0000 0000 0000
00000200: 0000 803f 0000 803f 0000 803f 0000 803f
00000210: 0000 803f 0000 803f 0000 803f 0000 803f
00000220: 0000 803f 0000 0000 0000 0000 0000 0000
00000230: 0000 0000 0000 0000 0000 0000 0000 0000
00000240: 0000 803f 0000 803f 0000 803f 0000 803f
00000250: 0000 803f 0000 803f 0000 803f 0000 803f
00000260: 0000 803f 0000 803f 0000 0000 0000 0000
00000270: 0000 0000 0000 0000 0000 0000 0000 0000
00000280: 0000 803f 0000 803f 0000 803f 0000 803f
00000290: 0000 803f 0000 803f 0000 803f 0000 803f
000002a0: 0000 803f 0000 803f 0000 803f 0000 0000
000002b0: 0000 0000 0000 0000 0000 0000 0000 0000
000002c0: 0000 803f 0000 803f 0000 803f 0000 803f
000002d0: 0000 803f 0000 803f 0000 803f 0000 803f
000002e0: 0000 803f 0000 803f 0000 803f 0000 803f
000002f0: 0000 0000 0000 0000 0000 0000 0000 0000
00000300: 0000 803f 0000 803f 0000 803f 0000 803f
00000310: 0000 803f 0000 803f 0000 803f 0000 803f
00000320: 0000 803f 0000 803f 0000 803f 0000 803f
00000330: 0000 803f 0000 0000 0000 0000 0000 0000
00000340: 0000 803f 0000 803f 0000 803f 0000 803f
00000350: 0000 803f 0000 803f 0000 803f 0000 803f
00000360: 0000 803f 0000 803f 0000 803f 0000 803f
00000370: 0000 803f 0000 803f 0000 0000 0000 0000
00000380: 0000 803f 0000 803f 0000 803f 0000 803f
00000390: 0000 803f 0000 803f 0000 803f 0000 803f
000003a0: 0000 803f 0000 803f 0000 803f 0000 803f
000003b0: 0000 803f 0000 803f 0000 803f 0000 0000
000003c0: 0000 803f 0000 803f 0000 803f 0000 803f
000003d0: 0000 803f 0000 803f 0000 803f 0000 803f
000003e0: 0000 803f 0000 803f 0000 803f 0000 803f
000003f0: 0000 803f 0000 803f 0000 803f 0000 803f

attention_head.query.weight f4 [32, 32]
-0.13363604 0.13747945 -0.49173093 0.006813852 0.1448646 -0.381084 -0.20675549 -0.024985187
-0.044670664 -0.09923337 -0.14228067 0.35955632 -0.07393496 0.17482999 -0.20358439 -0.1409096
-0.26668438 0.03505499 0.03116797 -0.124289095 0.13670427 -0.1886406 0.27422747 -0.04227521
-0.29405576 -0.14820144 -0.5542293 0.09186097 0.20170063 0.008019957 0.04186181 0.036963593
-0.007353658 0.16774781 -0.24730724 -0.09083465 -0.10740373 0.076305285 0.23290798 -0.33573
-0.18639143 0.09592237 -0.104863316 0.11616687 0.055219553 0.05117078 0.06168221 -0.08465128
0.044666804 0.13684645 -0.19945581 0.115762495 -0.3028761 -0.07705663 0.14212126 0.16034329
0.121742025 -0.39422396 -0.18745945 0.05968309 -0.020966161 0.03634332 -0.010082169 -0.117399186
0.17221573 -0.065061726 0.51735365 -0.06803115 -0.17893262 -0.0066046105 0.2590876 0.30618417
0.20660067 0.2655893 0.094203204 -0.4606906 -0.009521157 -0.104997985 -0.24054262 -0.29487187
0.047569048 -0.2900216 0.10001799 0.14226529 0.09256232 0.012422667 -0.5216904 0.29958692
-0.1531155 0.095311835 0.045236133 0.29145077 -0.18661667 -0.36666313 -0.33909965 -0.22561371
-0.041905377 -0.05696389 -0.1523253 0.29234707 0.046947226 0.109859526 -0.19941133 0.01898922
0.24099483 -0.07043031 0.106538 -0.032124273 -0.0023328902 0.0471019 -0.110231586 0.009208144
-0.004081582 -0.14896779 -0.07570013 -0.28729612 0.071433924 0.107790805 0.33271796 0.090423174
0.24371316 0.08297186 0.23362608 0.09169712 0.17593104 0.053944495 -0.058157593 0.19319601
0.08362434 -0.3088115 -0.08046862 0.09621815 0.009822018 -0.2373187 -0.03464594 -0.09308593
-0.12528431 0.26845944 0.17317642 -0.22293872 0.31456286 0.068432726 0.008243064 -0.10417218
-0.043480273 0.24828933 0.07747235 0.12613371 -0.1976554 0.21001737 0.074738234 -0.13477267
-0.21475978 -0.116630726 0.11004821 -0.23463938 0.023415966 0.05923328 -0.4184148 -0.0556107
-0.05756945 -0.17868552 -0.07828292 0.07748595 -0.14558318 -0.35598847 -0.20574297 0.3126418
0.17572296 0.00031841616 0.020434257 -0.054220665 0.0031197672 -0.37427822 0.052591436 0.091496676
0.21818343 0.28378505 0.16807622 -0.17898072 -0.013210939 0.15278552 0.0166209 -0.13102756
0.021739587 0.086411685 0.215288 -0.057540786 0.0925313 -0.09236021 0.08897436 -0.02132152
0.3604433 -0.31828907 0.050705668 -0.24543548 -0.11533147 0.25697 -0.21542947 0.23485845
-0.08971558 0.2442604 0.16258416 -0.32790506 0.17490843 0.1854043 0.05902824 -0.5350904
-0.095118865 0.120788924 -0.15450847 0.33865225 -0.2575362 0.27654025 -0.1836588 0.35225073
-0.21267186 0.14506213 0.19822316 -0.16265394 -0.101832464 -0.015741989 -0.29445603 -0.19472119
-0.2962258 0.45779684 -0.009215446 -0.08118338 0.07729909 0.11603948 0.029073162 -0.3246585
0.24492733 0.09737283 -0.19230463 0.13515197 -0.13055257 0.14445807 0.04491099 0.30494866
0.055325914 -0.28845024 -0.08952729 -0.04578387 -0.02778924 -0.033904925 0.1785294 -0.08560446
-0.20012023 0.100379355 0.112981424 0.28924677 -0.07582451 0.048718147 0.23881467 -0.062434614
00000000: e3d7 08be 6ac7 0c3e 28c4 fbbe bc46 df3b
00000010: 6357 143e 711d c3be b6b7 53be bcad ccbc
00000020: 96f8 36bd dd3a cbbd 06b2 11be c417 b83e
00000030: 366b 97bd a206 333e 6d78 50be 9b4a 10be
00000040: db8a 88be d295 0f3d f853 ff3c 488b febd
00000050: 34fc 0b3e 002b 41be 8b67 8c3e c528 2dbd
00000060: 7a8e 96be 1ec2 17be f9e1 0dbf 9b21 bc3d
00000070: 9c8a 4e3e 2366 033c 4a77 2b3d 2367 173d
00000080: f4f6 f0bb 15c6 2b3e 1c3e 7dbe 8407 babd
00000090: 7df6 dbbd f245 9c3d 6e7f 6e3e cde4 abbe
000000a0: 65dd 3ebe f372 c43d 94c2 d6bd e5e8 ed3d
000000b0: e62d 623d 7498 513d 7ca6 7c3d a65d adbd
000000c0: 8af4 363d 7a21 0c3e 253e 4cbe e314 ed3d
000000d0: 9412 9bbe decf 9dbd 3c88 113e 0831 243e
000000e0: e253 f93d b9d7 c9be 5ff5 3fbe 4176 743d
000000f0: 3ac1 abbc bcdc 143d af2f 25bc fc6e f0bd
00000100: 5259 303e 153f 85bd 4a71 043f ea53 8bbd
00000110: 1d3a 37be 7d6b d8bb 21a7 843e 2cc4 9c3e
00000120: 208f 533e 52fb 873e 9ced c03d a3df ebbe
00000130: a0fe 1bbc 2f09 d7bd ce50 76be 72f9 96be
00000140: c3d7 423d b67d 94be 3bd6 cc3d fead 113e
00000150: 5091 bd3d 7188 4b3c 818d 05bf 7563 993e
00000160: 4fca 1cbe da32 c33d 8649 393d 0939 953e
00000170: 7118 3fbe 45bb bbbe 789e adbe 4807 67be
00000180: f9a4 2bbd f852 69bd 2afb 1bbe 84ae 953e
00000190: bc4b 403d 08fe e03d 7c32 4cbe 488f 9b3c
000001a0: 59c7 763e c43d 90bd 9830 da3d be94 03bd
000001b0: 67e3 18bb eced 403d 19c1 e1bd c1dd 163c
000001c0: cbbe 85bb 038b 18be ab08 9bbd 7a18 93be
000001d0: f34b 923d 6dc1 dc3d 025a aa3e c92f b93d
000001e0: f18f 793e 27ed a93d ad3b 6f3e b3cb bb3d
000001f0: 4427 343e e7f4 5c3d a836 6ebd 2dd5 453e
00000200: 3d43 ab3d 8a1c 9ebe bbcc a4bd 050e c53d
00000210: 88ec 203c ac03 73be e7e8 0dbd d6a3 bebd
00000220: 884a 00be 8473 893e 2955 313e 0c4a 64be
00000230: 620e a13e 7526 8c3d eb0d 073c 3958 d5bd
00000240: 5f18 32bd 8f3f 7e3e d3a9 9e3d 3229 013e
00000250: 2d66 4abe cb0e 573e 5c10 993d d901 0abe
00000260: fde9 5bbe 17dc eebd f560 e13d 4e45 70be
00000270: d7d2 bf3c 999e 723d 773a d6be 0cc8 63bd
00000280: f2cd 6bbd 56f9 36be cc52 a0bd f4b0 9e3d
00000290: c213 15be 1f44 b6be 49ae 52be 9612 a03e
000002a0: b8f0 333e 18f1 a639 be65 a73c 7d16 5ebd
000002b0: 0275 4c3b 65a1 bfbe 1e6a 573d 9c62 bb3d
000002c0: 7a6b 5f3e 464c 913e 2c1c 2c3e b946 37be
000002d0: b272 58bc cf73 1c3e 8e28 883c 172c 06be
000002e0: 3817 b23c 9cf8 b03d 7574 5c3e e3af 6bbd
000002f0: 0d81 bd3d 5a27 bdbd 3038 b63d 78aa aebc
00000300: 068c b83e c9f6 a2be bfb0 4f3d 7053 7bbe
00000310: e832 ecbd 9291 833e 8b99 5cbe bc7e 703e
00000320: cdbc b7bd 661f 7a3e 767c 263e 2ce3 a7be
00000330: 321b 333e a0da 3d3e 99c7 713d affb 08bf
00000340: aecd c2bd 2f60 f73d 7837 1ebe d463 ad3e
00000350: c9db 83be af96 8d3e 0d11 3cbe 355a b43e
00000360: a7c6 59be 2b8b 143e 03fb 4a3e c18e 26be
00000370: 8a8d d0bd 58f5 80bc f1c2 96be fe64 47be
00000380: e8aa 97be 5964 ea3e 62fc 16bc 7943 a6bd
00000390: fc4e 9e3d 1ba6 ed3d d72a ee3c a439 a6be
000003a0: 3bce 7a3e 686b c73d 81eb 44be 4765 0a3e
000003b0: 93af 05be d1ec 133e 96f4 373d 3b22 9c3e
000003c0: 6d9d 623d c0af 93be 155a b7bd de87 3bbd
000003d0: 43a6 e3bc e4df 0abd 69d0 363e 6451 afbd
000003e0: 51ec 4cbe b193 cd3d ce62 e73d 2718 943e
000003f0: e149 9bbd ae8c 473d d58b 743e 70bb 7fbd

attention_head.key.weight f4 [32, 32]
-0.09756049 0.035448834 -0.1693451 -0.27549672 0.12217624 0.07840068 0.14975777 0.4762612
-0.06532869 0.19607465 -0.13599297 0.16399273 -0.104472004 0.24449363 -0.059026767 0.26411602
-0.32978398 0.22682993 0.38081995 0.27402985 0.021635447 -0.17960413 0.09460014 0.05011997
-0.16284297 -0.2251077 -0.24957508 0.01826418 -0.08411987 -0.07005462 0.14299157 0.04721949
-0.0073736287 0.18009262 -0.3590655 -0.14357607 -0.41669124 0.11007478 -0.036789443 0.11842838
-0.28537136 0.21318288 -0.16749728 -0.052369595 0.16899487 -0.16955651 0.028440388 0.1576797
0.12999243 -0.046931766 0.31581882 -0.23752211 -0.06165684 -0.010956942 -0.053333357 -0.018715318
-0.11195389 -0.2416175 0.011012899 0.2546187 -0.20362142 -0.1375698 -0.04444104 -0.1540838
0.4321429 0.052250203 0.09973152 0.2173935 0.33042836 -0.3171546 0.054968644 -0.30679232
0.2041217 -0.27563187 0.27342206 -0.1304978 0.18090361 0.111938514 -0.55939883 -0.32298422
0.14607452 -0.11379205 -0.15791547 0.010352846 0.33483985 0.005890097 -0.026277473 -0.010854597
-0.012949426 0.30125788 0.048578102 0.15027809 -0.19837601 -0.088669226 -0.23652181 -0.22208814
0.09772151 -0.05509888 -0.09351965 -0.28940699 -0.14764257 0.18569604 0.11719258 0.12722766
-0.09238875 0.09251774 0.006899474 0.29778442 -0.06880735 -0.0955439 0.19579037 0.064161934
-0.04197211 -0.22144805 -0.07776104 0.24524832 -0.22224613 0.122433774 -0.08876917 0.03653603
0.056229457 0.22914888 -0.031371366 -0.08095642 0.15033068 -0.047799826 0.033122826 -0.0764134
-0.12822579 -0.14027305 0.041033726 -0.29002482 -0.037916627 0.26158026 0.0024124172 -0.46050683
0.17784017 0.37853447 0.23919772 -0.11130383 0.117019504 -0.19163252 -0.32847512 0.08110878
0.013487604 -0.048480053 0.18224065 0.008724189 -0.08398341 0.15047121 -0.07332083 0.06489732
-0.032253325 -0.09971436 0.11421918 -0.5202817 -0.3261162 -0.020910267 -0.10708389 -0.11725335
0.047239993 -0.14956425 0.069842055 0.28997695 -0.08638186 -0.23823561 0.032229684 -0.010197167
0.0962968 0.06591064 0.11438383 -0.015794942 -0.21185015 -0.024891809 0.13570721 0.061813533
-0.06721697 -0.084986456 0.035888903 -0.08493557 -0.08191066 0.18852128 0.039314073 0.0373575
-0.052048616 0.029302558 0.22411947 -0.5112518 -0.014700767 0.051536836 0.5482462 0.19417875
0.15416144 0.2229128 0.4720204 -0.036603328 -0.11149315 0.30172995 -0.29329556 -0.55115056
0.09134486 0.062105764 0.31476346 -0.12876971 0.25465316 0.37716544 -0.61631274 -0.09104241
0.0026830805 -0.3444384 -0.13723098 -0.2832562 -0.016252253 0.18927692 0.37630692 0.11094019
-0.015196507 0.20568284 0.04375785 -0.12952171 -0.16514641 -0.17505386 0.115481794 -0.10592761
-0.056035005 0.21058355 -0.24193923 0.19422898 0.031224936 0.038807806 -0.018606858 0.094614774
0.026085775 0.25273776 -0.050795928 0.2417359 -0.062120702 0.042946577 0.4234512 -0.09376819
-0.05777926 0.0774729 -0.2837852 0.04887593 0.111053996 -0.24362533 -0.50853056 -0.20893729
0.046286106 -0.13252498 0.010774083 0.18450166 0.15680814 -0.07014763 -0.33270887 0.026502457
00000000: cbcd c7bd cc32 113d cd68 2dbe e80d 8dbe
00000010: 8937 fa3d 8990 a03d 1a5a 193e 82d8 f33e
00000020: 0ccb 85bd cbc7 483e be41 0bbe b6ed 273e
00000030: 6bf5 d5bd 8a5c 7a3e 0dc6 71bd 373a 873e
00000040: 72d9 a8be 1b46 683e d5fa c23e a44d 8c3e
00000050: d23c b13c 25ea 37be b8bd c13d 994a 4d3d
00000060: 4fc0 26be a282 66be 9c90 7fbe c39e 953c
00000070: 0a47 acbd cc78 8fbd 626c 123e 3969 413d
00000080: 7b9e f1bb 336a 383e 6fd7 b7be 9b05 13be
00000090: 8e58 d5be e36e e13d 87b0 16bd 948a f23d
000000a0: 321c 92be 9d4c 5a3e 6884 2bbe 8081 56bd
000000b0: fe0c 2d3e 39a0 2dbe d1fb e83c ca76 213e
000000c0: bc1c 053e 863b 40bd 01b3 a13e ff38 73be
000000d0: e28b 7cbd bf84 33bc 1474 5abd de50 99bc
000000e0: 1548 e5bd 946a 77be 726f 343c 625d 823e
000000f0: 2282 50be 19df 0cbe cf07 36bd 25c8 1dbe
00000100: d641 dd3e 4f04 563d 0a40 cc3d 679c 5e3e
00000110: e82d a93e 1662 a2be cd26 613d e213 9dbe
00000120: 4705 513e 9f1f 8dbe fafd 8b3e 37a1 05be
00000130: cc3e 393e 0540 e53d c334 0fbf 305e a5be
00000140: 8f94 153e ce0b e9bd 98b4 21be fc9e 293c
00000150: 2170 ab3e b701 c13b db43 d7bc 7bd7 31bc
00000160: d429 54bc 793e 9a3e d5f9 463d 80e2 193e
00000170: 1523 4bbe 3698 b5bd c632 72be 136b 63be
00000180: 3722 c83d 5daf 61bd 3b87 bfbd 272d 94be
00000190: 9d2f 17be 1a27 3e3e aa02 f03d f847 023e
000001a0: 5036 bdbd f179 bd3d fc14 e23b 3377 983e
000001b0: deea 8cbd 85ac c3bd 457d 483e 5567 833d
000001c0: f2ea 2bbd 47c3 62be 2e41 9fbd 6022 7b3e
000001d0: 7d94 63be 8fbe fa3d 9ccc b5bd cea6 153d
000001e0: dc50 663d 01a6 6a3e 437f 00bd 7bcc a5bd
000001f0: 49f0 193e c0c9 43bd cdab 073d a17e 9cbd
00000200: 9f4d 03be bda3 0fbe fb12 283d 227e 94be
00000210: 774e 1bbd d9ed 853e a519 1e3b 8dc7 ebbe
00000220: bc1b 363e 45cf c13e 3ff0 743e 43f3 e3bd
00000230: eca7 ef3d 513b 44be e42d a8be 5c1c a63d
00000240: 1dfb 5c3c 0593 46bd 4b9d 3a3e e7ef 0e3c
00000250: 7eff abbd 2015 1a3e 3b29 96bd e3e8 843d
00000260: 101c 04bd 0b37 ccbd bfeb e93d 2e31 05bf
00000270: b4f8 a6be 024c abbc cc4e dbbd 8622 f0bd
00000280: b97e 413d 5f27 19be 5a09 8f3d dc77 943e
00000290: f9e8 b0bd 09f4 73be 4603 043d 0512 27bc
000002a0: 4237 c53d 28fc 863d 1242 ea3d 6564 81bc
000002b0: 3fef 58be e8e9 cbbc d5f6 0a3e 3030 7d3d
000002c0: 0da9 89bd 610d aebd 3e00 133d b3f2 adbd
000002d0: c7c0 a7bd b90b 413e cb07 213d 2e04 193d
000002e0: ee30 55bd eb0b f03c 937f 653e 66e1 02bf
000002f0: 7cdb 70bc 4a18 533d dd59 0c3f cbd6 463e
00000300: 7fdc 1d3e 4143 643e a8ac f13e 5fed 15bd
00000310: 8556 e4bd 597c 9a3e d62a 96be 3418 0dbf
00000320: 0413 bb3d 9d62 7e3d ad28 a13e 35dc 03be
00000330: e661 823e d41b c13e acc6 1dbf 7174 babd
00000340: 9fd6 2f3b 3b5a b0be 4786 0cbe f506 91be
00000350: 7223 85bc cfd1 413e 4dab c03e 9c34 e33d
00000360: c5fa 78bc 869e 523e 6e3b 333d 57a1 04be
00000370: 241c 29be 5241 33be b881 ec3d 93f0 d8bd
00000380: f684 65bd 37a3 573e ebbe 77be f6e3 463e
00000390: 70cb ff3c eff4 1e3d 696d 98bc 64c5 c13d
000003a0: d6b1 d53c d866 813e 640f 50bd 9e89 773e
000003b0: 4772 7ebd c0e8 2f3d 98ce d83e 8909 c0bd
000003c0: f2a9 6cbd 1daa 9e3d 4b4c 91be 2132 483d
000003d0: 4770 e33d eb78 79be 0f2f 02bf a8f3 55be
000003e0: 8096 3d3d a1b4 07be c885 303c 01ee 3c3e
000003f0: 5092 203e 90a9 8fbd d158 aabe ae1b d93c

attention_head.value.weight f4 [32, 32]
-0.16978553 0.28986493 -0.05842402 -0.0918849 -0.29906747 0.4787139 -0.30723011 -0.44615352
-0.010703178 0.08066254 -0.2656152 0.0964626 0.022443004 -0.17950293 -0.103792 -0.62986714
-0.25384405 -0.11448769 -0.10237358 -0.18391609 0.13147382 0.046635285 -0.66849494 0.17645463
-0.40420523 -0.55102324 -0.38130406 -0.106278576 0.51673424 -0.26033044 -0.31993657 0.2950517
0.09330041 0.28704658 -0.07414417 0.14246958 -0.33071738 0.37551722 -0.052477453 0.11898035
0.4522775 0.28899077 0.015428431 -0.28692526 -0.043253575 0.11043836 0.10494769 0.069178484
0.050590727 -0.06936031 -0.044401426 0.20078105 0.31132656 -0.17079055 -0.16635188 0.2696219
-0.40023747 0.30218422 -0.019692428 -0.5130221 -0.46081167 -0.14621541 0.77655196 0.055013366
-0.25779432 0.27394012 -0.41659525 0.35625887 0.048699275 -0.09329324 -0.16157606 0.09709751
-0.17155886 -0.113047615 -0.25573647 0.043937407 0.3053952 0.092665076 -0.024970504 -0.13657708
0.36055705 0.3111046 -0.09036463 -0.0725645 0.10624685 -0.07150608 -0.28515634 -0.15304264
0.056045096 -0.29527712 0.12292849 -0.08925651 0.7071315 -0.3862276 -0.29022506 0.075428575
-0.43457183 0.29836848 -0.25071353 0.13400207 -0.13635115 -0.15971503 0.197789 -0.32801464
0.09295222 -0.23138726 -0.104249716 0.58547336 -0.046032302 -0.053663135 0.39935896 0.00432776
0.34041175 -0.10934537 0.095798366 -0.4071211 -0.25677082 0.20646884 0.26633248 0.012924485
0.30887124 0.2711519 -0.06245408 -0.43915233 0.48103392 0.069796406 -0.161242 -0.16527805
-0.24923387 -0.31588286 -0.11824962 -0.20317377 -0.37318406 -0.48513427 -0.23674116 0.018673
-0.009342442 -0.007574405 0.03742894 0.13989241 -0.28792733 0.1824279 0.07176118 0.042010102
0.106176525 0.6729196 0.3355913 -0.048400182 0.03743334 0.10655711 0.37583303 0.22557409
-0.06683542 0.13886297 -0.0555821 -0.2108671 -0.01937595 -0.5287942 -0.54348254 -0.29472092
0.44933933 -0.30591464 0.659972 0.14582685 -0.2838831 0.065964326 0.3694984 -0.2861515
0.30154952 -0.2022596 -0.4940594 -0.29248992 -0.15343802 0.67984843 -0.5730815 -0.01271468
-0.3067714 -0.046489842 -0.058801882 0.32486212 0.05571972 -0.16332217 0.14720534 -0.11502004
-0.24730815 -0.1896411 0.07935293 0.37347317 0.21696247 0.25385267 -0.45871887 -0.045275364
-0.36122918 0.18445303 -0.2735446 0.30238852 -0.53075516 -0.02825736 -0.010655547 -0.43477997
-0.21537453 -0.11671875 -0.26125845 -0.057042923 -0.028948309 0.7667658 0.20306966 -0.06506039
0.12746537 0.3453853 0.107849844 0.4994085 -0.030903235 0.15992385 0.32776004 0.31762192
-0.075198114 -0.28577092 0.12476836 -0.3314115 -0.35716432 -0.26303592 0.07731261 -0.4551599
-0.2470134 0.18450418 -0.4588244 0.1728071 0.12469086 0.54313636 0.51133573 -0.07490298
-0.3830231 0.076477535 -0.3697155 -0.029077673 0.26445526 0.045704473 0.40869978 0.3882595
0.5255138 -0.106694065 -0.676236 0.23969585 -0.1189696 -0.16844833 -0.050851543 -0.26859203
0.17294984 -0.013610267 0.099457316 0.12626661 0.6413063 -0.7150299 -0.10852399 -0.1400746
00000000: 42dc 2dbe 2d69 943e 064e 6fbd 272e bcbd
00000010: 5f1f 99be fd19 f53e 444d 9dbe 3c6e e4be
00000020: 625c 2fbc 6732 a53d b7fe 87be 2f8e c53d
00000030: 64da b73c 9ecf 37be e690 d4bd f93e 21bf
00000040: d9f7 81be 8678 eabd 3da9 d1bd 8054 3cbe
00000050: 13a1 063e a404 3f3d 7c22 2bbf 86b0 343e
00000060: fdf3 cebe dc0f 0dbf 493a c3be 95a8 d9bd
00000070: b248 043f 084a 85be bace a3be 0411 973e
00000080: 4914 bf3d c5f7 923e e6d8 97bd 8ce3 113e
00000090: ca53 a9be cb43 c03e 99f2 56bd f8ab f33d
000000a0: eb90 e73e 99f6 933e 88c7 7c3c dee7 92be
000000b0: a92a 31bd 822d e23d d1ee d63d 73ad 8d3d
000000c0: 3938 4f3d c70c 8ebd 45de 35bd 8c99 4d3e
000000d0: 3266 9f3e b8e3 2ebe 2658 2abe e20b 8a3e
000000e0: edeb ccbe e4b7 9a3e 0452 a1bc 6b55 03bf
000000f0: 82ef ebbe 7eb9 15be 1ccc 463f b255 613d
00000100: 9efd 83be e141 8c3e f94b d5be 9067 b63e
00000110: e478 473d 8710 bfbd 3274 25be 0fdb c63d
00000120: 20ad 2fbe 8285 e7bd e4ef 82be b6f7 333d
00000130: c25c 9c3e 30c7 bd3d f18e ccbc ddda 0bbe
00000140: ef9a b83e 1a49 9f3e 1711 b9bd b29c 94bd
00000150: f397 d93d c871 92bd 0300 92be 36b7 1cbe
00000160: 8b8f 653d 902e 97be efc1 fb3d 1ecc b6bd
00000170: 9206 353f a0bf c5be 6198 94be 4c7a 9a3d
00000180: 3380 debe c1c3 983e 865d 80be d737 093e
00000190: a39f 0bbe 568c 23be 3389 4a3e 89f1 a7be
000001a0: bc5d be3d c8f0 6cbe e080 d5bd 95e1 153f
000001b0: 5e8c 3cbd e0cd 5bbd c778 cc3e e2cf 8d3b
000001c0: 734a ae3e 77f0 dfbd ef31 c43d 2d72 d0be
000001d0: 7777 83be 916c 533e bb5c 883e 38c1 533c
000001e0: 5f24 9e3e 6cd4 8a3e d9cf 7fbd 93d8 e0be
000001f0: 144a f63e 6bf1 8e3d 9f1c 25be a63e 29be
00000200: 2a37 7fbe 66bb a1be db2c f2bd c90c 50be
00000210: fb11 bfbe 8563 f8be 466c 72be 1ff8 983c
00000220: 0b11 19bc b732 f8bb 174f 193d f53f 0f3e
00000230: 366b 93be 61ce 3a3e 87f7 923d c912 2c3d
00000240: 1473 d93d 7544 2c3f 9fd2 ab3e 453f 46bd
00000250: b453 193d 9d3a da3d 306d c03e e5fc 663e
00000260: 02e1 88bd 1832 0e3e 0eaa 63bd 8ced 57be
00000270: 50ba 9ebc 0f5f 07bf ac21 0bbf a9e5 96be
00000280: ce0f e63e d8a0 9cbe edf3 283f a253 153e
00000290: 2059 91be 4e18 873d e52e bd3e 7382 92be
000002a0: b364 9a3e 241d 4fbe 5bf5 fcbe 3dc1 95be
000002b0: db1e 1dbe 8c0a 2e3f 78b5 12bf 3c51 50bc
000002c0: 2411 9dbe 226c 3ebd 3eda 70bd 5454 a63e
000002d0: 5c3a 643d ed3d 27be ffbc 163e a08f ebbd
000002e0: 593e 7dbe 4731 42be ca83 a23d e037 bf3e
000002f0: 692b 5e3e faf8 813e 33dd eabe a972 39bd
00000300: 08f3 b8be 41e1 3c3e 0a0e 8cbe abd2 9a3e
00000310: 92df 07bf fb7b e7bc 9a94 2ebc 7b9b debe
00000320: 248b 5cbe 3d0a efbd abc3 85be d7a5 69bd
00000330: 0125 edbc c34a 443f 7ef1 4f3e 623e 85bd
00000340: 4886 023e 58d6 b03e 61e0 dc3d 79b2 ff3e
00000350: c828 fdbc 14c3 233e 2ad0 a73e 579f a23e
00000360: 7801 9abd 9150 92be 8e86 ff3d c5ae a9be
00000370: 3ede b6be a5ac 86be 1356 9e3d b80a e9be
00000380: 15f1 7cbe aaee 3c3e 08eb eabe 58f4 303e
00000390: ec5d ff3d fc0a 0b3f e6e6 023f bc66 99bd
000003a0: 9b1b c4be 41a0 9c3d 5a4b bdbe 4d34 eebc
000003b0: ae66 873e 9d34 3b3d 1941 d13e f3c9 c63e
000003c0: 1388 063f 6b82 dabd cd1d 2dbf d472 753e
000003d0: 55a6 f3bd b87d 2cbe b549 50bd e584 89be
000003e0: c319 313e 99fd 5ebc 47b0 cb3d 094c 013e
000003f0: a62c 243f 330c 37bf d341 debd b76f 0fbe

linear_layer.weight f4 [93, 32]
0.41521227 0.19921017 -0.025768438 -0.21446617 -0.3099424 0.076674685 -0.19884002 -0.048032705
-0.88569623 0.088789985 0.5219186 -0.004053631 -0.14842984 -0.1282078 0.31739 0.6735438
0.46107787 0.029546874 0.34991807 -0.09637818 -0.434629 -0.07655116 0.20137809 -0.50799906
0.20129523 0.4162726 0.13056679 -0.32302913 -0.03821301 -0.51596165 -0.07440368 0.3748742
0.6163516 0.09062966 0.42807397 -0.16241081 -0.18108974 -0.3358106 0.027791668 0.4711728
-0.36412603 -0.36998633 0.30320185 0.34349543 0.44469225 -0.2770378 0.18718484 -0.04814746
-0.08230608 -0.22299446 -0.08474076 -0.6646152 -0.6326453 0.11630736 0.4102969 -0.24777645
-0.31623712 -0.16576096 0.025564868 0.35255733 -0.5174954 -0.052616693 -0.16980761 -0.013337517
0.19927628 -0.20108518 0.4007985 0.25252205 0.22074641 0.28753304 0.31936148 -0.04739846
0.0038404965 -0.22614326 0.4195809 0.25907123 0.28069216 0.59709215 -0.20988712 0.036750216
-0.23912476 -0.015843907 -0.13553177 -0.3965758 -0.3459612 -0.23475198 0.047853645 -0.1418227
-0.08048626 -0.38601768 -0.27472156 0.16103832 -0.06813534 0.19980305 -0.06368694 -0.27046454
0.3850332 -0.16936651 0.18121918 0.3810123 0.3101619 0.1495015 0.012196789 -0.06427069
0.1718536 -0.19742064 0.21993098 0.5125855 0.32587063 0.6397235 -0.32841998 0.16055143
-0.12833354 -0.2507137 -0.1957939 -0.2541693 -0.39135072 -0.3817494 0.2108852 -0.1951311
-0.030684825 -0.33692452 -0.5275563 0.09534495 -0.07594361 0.41197705 0.04148996 -0.1613341
0.10924341 -0.09092504 0.31538156 0.25766346 0.11413651 0.1217779 0.07302398 -0.0608833
0.07662414 -0.22617593 0.34423414 0.4631286 0.30851552 0.7047573 -0.13765112 0.26101947
-0.26927474 -0.14343625 -0.2804863 -0.37018287 -0.14744768 -0.25098693 0.29385835 -0.35288736
-0.19610989 -0.21049736 -0.42189807 0.08893453 -0.07700815 0.2810932 0.047869477 -0.43476397
0.43766195 -0.34606254 0.17348121 0.19755699 0.3934037 0.105568916 0.22827369 -0.041354157
0.047739703 -0.16016817 0.28116238 0.44236836 0.34502414 0.75453746 -0.36025977 0.16548291
-0.22814624 -0.050269958 -0.25222847 -0.24463958 -0.28775233 -0.31215128 0.27766606 -0.20498219
-0.09144526 -0.47030517 -0.37008682 0.050580643 -0.028688857 0.23109818 0.07277819 -0.38868842
0.21535218 -0.021863556 0.45839626 0.35226816 0.3637828 0.090831034 0.030230327 -0.15543555
0.09023872 -0.3438167 0.31565604 0.43528494 0.18138762 0.38991317 -0.37250063 0.027620154
-0.21294762 -0.17767455 -0.04179978 -0.44680834 -0.2674838 -0.25640327 0.016188024 -0.17329784
-0.119618766 -0.16463162 -0.24681117 0.18207456 -0.13178582 0.20493086 -0.020723943 -0.13695595
0.28072864 -0.13103764 0.3543794 0.38221666 0.119249925 0.2474614 0.23325035 -0.076964766
-0.026271502 -0.17997956 0.47369826 0.21673012 0.3671492 0.63552284 -0.36723202 0.1664358
-0.26901883 -0.21881443 -0.264765 -0.3025841 -0.2998709 -0.44797474 0.09121539 -0.07557714
-0.26999387 -0.41654506 -0.26843333 0.32592764 0.055181406 0.32044753 -0.033308223 -0.250112
00000000: b496 d43e c0fd 4b3e 5518 d3bc 059d 5bbe
00000010: c5b0 9ebe 9e07 9d3d b89c 4bbe f1bd 44bd
00000020: fdbc 62bf 86d7 b53d 759c 053f 52d4 84bb
00000030: fefd 17be e848 03be f180 a23e 5e6d 2c3f
00000040: 6612 ec3e 490c f23c 7628 b33e ec61 c5bd
00000050: b187 debe dbc6 9cbd 0f36 4e3e 3a0c 02bf
00000060: 5620 4e3e af21 d53e 4db3 053e 1364 a5be
00000070: 3f85 1cbd 1016 04bf f560 98bd 83ef bf3e
00000080: 38c9 1d3f 0b9c b93d 832c db3e 054f 26be
00000090: 976f 39be 5eef abbe 5aab e33c 903d f13e
000000a0: ba6e babe d96e bdbe 463d 9b3e a2de af3e
000000b0: b4ae e33e e6d7 8dbe 62ad 3f3e 4536 45bd
000000c0: 1790 a8bd a958 64be 908c adbd 3924 2abf
000000d0: 0bf5 21bf 8e32 ee3d 6f12 d23e 1cb9 7dbe
000000e0: d5e9 a1be 3ebd 29be 6a6d d13c 6582 b43e
000000f0: 947a 04bf 9a84 57bd 0ce2 2dbe 9a85 5abc
00000100: 150f 4c3e 46e9 4dbe 7635 cd3e 924a 813e
00000110: 590b 623e 8837 933e 5983 a33e e324 42bd
00000120: d7b0 7b3b 1992 67be 4fd3 d63e fca4 843e
00000130: e2b6 8f3e 08db 183f a6ec 56be 6587 163d
00000140: 1fdd 74be 15cb 81bc d7c8 0abe fc0b cbbe
00000150: d421 b1be d362 70be 2f02 443d f839 11be
00000160: fbd5 a4bd 1ca4 c5be 4ea8 8cbe 3be7 243e
00000170: 8b8a 8bbd 2c99 4c3e 4c6e 82bd 547a 8abe
00000180: 1223 c53e 6a6e 2dbe 8591 393e 0b14 c33e
00000190: 8acd 9e3e ec16 193e 0ad5 473c 5aa0 83bd
000001a0: 64fa 2f3e a328 4abe 9635 613e ce38 033f
000001b0: 84d8 a63e ebc4 233f aa26 a8be 9867 243e
000001c0: de69 03be 8c5d 80be 327e 48be 7a22 82be
000001d0: 1f5f c8be a874 c3be 4af2 573e 72d0 47be
000001e0: be5e fbbc 5f81 acbe ee0d 07bf 3744 c33d
000001f0: 5388 9bbd a8ee d23e 60f1 293d c434 25be
00000200: 02bb df3d e836 babd b179 a13e 77ec 833e
00000210: 67c0 e93d b166 f93d 998d 953d c460 79bd
00000220: 1eed 9c3d aa9a 67be 753f b03e 311f ed3e
00000230: bff5 9d3e f96a 343f 6af4 0cbe 58a4 853e
00000240: 61de 89be f4e0 12be e69b 8fbe 9c88 bdbe
00000250: 86fc 16be 5c81 80be 9a74 963e a7ad b4be
00000260: 08d1 48be 9f8c 57be 0603 d8be 4f23 b63d
00000270: 73b6 9dbd 73eb 8f3e c912 443d 6299 debe
00000280: 3a15 e03e 1c2f b1be 0fa5 313e 614c 4a3e
00000290: 366c c93e 8434 d83d 94c0 693e fa62 29bd
000002a0: b58a 433d 2003 24be 84f4 8f3e 1b7e e23e
000002b0: 01a7 b03e 5e29 413f f873 b8be 5a74 293e
000002c0: 2b9f 69be dfe7 4dbd 1724 81be cc82 7abe
000002d0: 4654 93be 4bd2 9fbe 3f2a 8e3e dae6 51be
000002e0: a747 bbbd d7cb f0be 057c bdbe a62d 4f3d
000002f0: e504 ebbc 00a5 6c3e bb0c 953d 2b02 c7be
00000300: 4885 5c3e 331b b3bc eab2 ea3e 7e5c b43e
00000310: bd41 ba3e 9f05 ba3d 97a5 f73c 7f2a 1fbe
00000320: 14cf b83d be08 b0be ab9d a13e abdd de3e
00000330: adbd 393e b3a2 c73e 67b8 bebe a943 e23c
00000340: f10e 5abe 51f0 35be 3f36 2bbd 10c4 e4be
00000350: a3f3 88be 4a47 83be bf9c 843c fd74 31be
00000360: affa f4bd 3195 28be 11bc 7cbe c171 3a3e
00000370: ddf2 06be 65d9 513e 42c5 a9bc 2e3e 0cbe
00000380: aabb 8f3e bb2e 06be 3771 b53e e7b1 c33e
00000390: 4e39 f43d 8566 7d3e 2ed9 6e3e b49f 9dbd
000003a0: 5537 d7bc 904c 38be 9488 f23e 80ee 5d3e
000003b0: fbfa bb3e a0b1 223f d605 bcbe 256e 2a3e
000003c0: d6bc 89be e410 60be 478f 87be 4eec 9abe
000003d0: ae88 99be f25c e5be 22cf ba3d 30c8 9abd
000003e0: a33c 8abe 6545 d5be 1870 89be fddf a63e
000003f0: e605 623d b311 a43e 346e 08bd ae0e 80be

linear_layer.bias f4 [93]
-0.050753653 -0.0547241 -0.014754316 -0.20007627 -0.19308415 -0.14936976 -0.05512748 -0.12641129
-0.07968317 -0.17599854 -0.2294744 -0.12223498 -0.12975457 -0.21522115 0.05196649 -0.12325546
-0.14914575 -0.068755664 -0.26992577 -0.037265044 0.2555143 -0.26449332 -0.06649051 -0.024503795
-0.23770544 -0.26468095 -0.03730833 0.03591 -0.049878675 -0.16414881 -0.09595381 0.15180603
0.09772785 -0.114644065 0.087123424 -0.0644007 0.026091358 -0.29217696 -0.16537464 0.15958127
0.0344081 0.008253197 0.42876974 -0.030157479 0.15903959 0.22398512 0.005273468 -0.3882038
0.054891072 0.13677612 0.31615007 0.38521588 -0.048085053 0.11635416 -0.37175804 -0.3758878
-0.016798712 -0.14733486 -0.10291489 -0.16591051 -0.006151274 -0.25223798 -0.15394254 0.0021724708
-0.19168666 -0.28954798 -0.1701102 -0.29551136 -0.2836062 -0.31789955 0.25880027 -0.29599726
-0.2058486 -0.25432444 0.07180494 0.47131512 -0.0288315 -0.15383834 -0.06101789 -0.31461945
-0.10563642 -0.5367417 -0.12296022 0.020663496 -0.17801726 -0.09760762 -0.26597336 -0.073572695
-0.28932825 -0.017914217 -0.06963625 -0.19455685 -0.2810782
00000000: 10e3 4fbd 6126 60bd 16bc 71bc cbe0 4cbe
00000010: dab7 45be 63f4 18be 5acd 61bd f671 01be
00000020: ee30 a3bd f638 34be 56fb 6abe 5556 fabd
00000030: 62de 04be ef62 5cbe d0da 543d 5c6d fcbd
00000040: aab9 18be c5cf 8cbd b633 8abe 3ba3 18bd
00000050: c5d2 823e ab6b 87be 2d2c 88bd 2fbc c8bc
00000060: 0e69 73be 4384 87be 9fd0 18bd 5d16 133d
00000070: 954d 4cbd a016 28be 6e83 c4bd 0a73 1b3e
00000080: 8a25 c83d 82ca eabd c46d b23d 84e4 83bd
00000090: 8bbd d53c 3898 95be f857 29be 4669 233e
000000a0: 82ef 0c3d 6b38 073c b587 db3e d10c f7bc
000000b0: 46db 223e 5b5c 653e 0ecd ac3b a6c2 c6be
000000c0: 76d5 603d 0a0f 0c3e 6cde a13e 043b c53e
000000d0: d5f4 44bd 174b ee3d 1257 bebe 5e74 c0be
000000e0: 749d 89bc f3de 16be 0bc5 d2bd 72e4 29be
000000f0: a090 c9bb 5625 81be 1da3 1dbe 0360 0e3b
00000100: 8249 44be a23f 94be 5e31 2ebe 444d 97be
00000110: d534 91be bbc3 a2be 7881 843e f48c 97be
00000120: fac9 52be d036 82be 780e 933d 3750 f13e
00000130: 0a30 ecbc cc87 1dbe e5ed 79bd cd15 a1be
00000140: e857 d8bd e767 09bf 91d2 fbbd 7e46 a93c
00000150: 284a 36be 81e6 c7bd a92d 88be 48ad 96bd
00000160: d522 94be d6c0 92bc 739d 8ebd e939 47be
00000170: 7be9 8fbe
