models/checkpoints/bigram/model.pth (torch, 25862 bytes, 3 tensors)

tok_embedding.weight f4 [93, 32]
0	0x3d0caa28	0.03434196
1	0xbc5be7f5	-0.013422002
2	0xbdaf04f5	-0.08545867
3	0x3b28eb39	0.002577497
4	0x3c8da78e	0.01729181
5	0x3c7241bd	0.014786181
6	0xbc0984d4	-0.008393485
7	0x3d155191	0.03645474
8	0xbd1f066e	-0.03882449
9	0xbd8c483d	-0.06849716
10	0xbd230fbd	-0.03980993
11	0xbc14e38d	-0.009087455
12	0x3c20913e	0.009800253
13	0x3c938450	0.018007427
14	0x3fcd1170	1.6020947
15	0x3cc34f1f	0.023841439
16	0x3d38ae40	0.045088053
17	0xbce49523	-0.027903145
18	0x3d0e384f	0.03472167
19	0x3bc4054a	0.005982076
20	0x3e5746ef	0.21023153
21	0x3c46ffb5	0.012145926
22	0x3cb7a9af	0.022419779
23	0xbd249e0b	-0.040189784
24	0xbd136105	-0.035981197
25	0xbd23c30f	-0.039980944
26	0x3d23e600	0.040014267
27	0xbaab704a	-0.0013079729
28	0xbd4440d4	-0.047913387
29	0x3c8a50a0	0.016884148
30	0x3c809fbd	0.01570117
31	0xbc9acc36	-0.018896203
32	0xbba54cf2	-0.005044573
33	0xba0d151a	-0.00053818675
34	0xbbedcce4	-0.007257091
35	0xbcbc81d8	-0.023011133
36	0x3b9f3db5	0.004859651
37	0x3c7cdde3	0.015433761
38	0x3d5b6ac8	0.05356863
39	0xbbc5533e	-0.006021886
40	0x3c54f8ec	0.012998801
41	0x3b2164ed	0.0024626807
42	0x3be13a64	0.006873416
43	0x3b7a4728	0.0038189385
44	0xbbd47569	-0.006483723
45	0x3d1c40f6	0.03814789
46	0xbdecfb9f	-0.115714304
47	0x408463c4	4.1371784
48	0x3b88a25c	0.0041697454
49	0xb90c7e3d	-0.00013398468
50	0x3cfefef4	0.03112743
51	0xbb02f01a	-0.0019979537
52	0xba3319bb	-0.0006832142
53	0x3bbbb0a3	0.005727844
54	0x3ccfa4e6	0.025347184
55	0x3c82f73c	0.015987031
56	0x39e7a9b0	0.0004418618
57	0x3c97aa01	0.018513681
58	0x3bdea5b6	0.0067946566
59	0x3c877504	0.01653529
60	0xbc8cae70	-0.017173022
61	0xbbee14d0	-0.0072656646
62	0x3c011cb3	0.007880378
63	0x3c706027	0.014671362
64	0xbdb9c7bc	-0.090712994
65	0x3f0b4741	0.544056
66	0x3ed58e1c	0.41709983
67	0x3fa18cae	1.2621057
68	0x3fdc1e14	1.7196679
69	0xbed2800e	-0.41113323
70	0xbed266eb	-0.41094145
71	0x3fb2ea74	1.39778
72	0xbfa775c4	-1.3082814
73	0x3ebdac63	0.37045583
74	0x3f49aa9e	0.78775966
75	0xc014ad8f	-2.3230932
76	0x3f762733	0.96153563
77	0xbe309328	-0.17243636
78	0xbf1136c2	-0.5672418
79	0x3eea5f50	0.45775843
80	0x3f61f8bb	0.8827016
81	0x3f2cc19b	0.6748292
82	0x3ca1e8b9	0.019764291
83	0xbea1cd73	-0.31602058
84	0x401902f3	2.390805
85	0x40168af9	2.3522322
86	0x3eef182b	0.46698126
87	0x3e9800b7	0.29688045
88	0x3f93e64d	1.1554657
89	0xbf05b084	-0.52222466
90	0x3ed320e7	0.4123604
91	0x3f91d82f	1.1394099
92	0xbf2cffb9	-0.675777
93	0xbfdd4488	-1.7286539
94	0xbe0484d1	-0.1294129
95	0xbf1ce4a0	-0.61286354
96	0xbf94dce7	-1.1629914
97	0x3f69d6df	0.9134349
98	0xbf7dedb5	-0.9919084
99	0x3f361c03	0.7113649
100	0x3e4805aa	0.1953341
101	0xbf8ba718	-1.0910368
102	0x3e8ae204	0.2712556
103	0xbf67774b	-0.904164
104	0x3f62eece	0.8864564
105	0x3f51aaed	0.8190144
106	0x3fa11a31	1.2586118
107	0xbf65f835	-0.8983186
108	0x3e31fd7b	0.17381851
109	0xbf639df7	-0.8891291
110	0xbefb4b90	-0.49081087
111	0xbeeb0a87	-0.4590647
112	0x3f886195	1.065478
113	0x3e07d58f	0.1326506
114	0x3f131a18	0.5746169
115	0xbe2f96c9	-0.17147364
116	0xbdaf168a	-0.08549221
117	0xc0156793	-2.3344467
118	0x3e46cd11	0.19414164
119	0x3fc6402b	1.5488333
120	0x3ef31d78	0.4748342
121	0xbe77e96e	-0.2421014
122	0x3f66c960	0.90151024
123	0x3d079dd8	0.033109516
124	0xbda19fce	-0.078918085
125	0xbd48d1f3	-0.04902835
126	0x3f6b7f17	0.919908
127	0x3fa0d776	1.2565753
128	0xbe9757e0	-0.2955923
129	0xbf02bb9f	-0.5106754
130	0x3f26f279	0.65213734
131	0xbf5b7469	-0.857245
132	0xbfa7cddc	-1.3109698
133	0xbd9a99f6	-0.07548897
134	0x3dcc582c	0.09977755
135	0xbe05b04e	-0.13055536
136	0x3fc9fed7	1.5780896
137	0xbe58b812	-0.21163967
138	0xbf81a1bf	-1.0127486
139	0xbfa0574b	-1.252664
140	0xbf0055eb	-0.501311
141	0xbf2978e2	-0.6620008
142	0x3f9e8069	1.2382938
143	0xbf306b11	-0.6891337
144	0x3eb6714f	0.35633323
145	0xbeaaa2fa	-0.33327466
146	0x3ebfa2f8	0.37429023
147	0xbf461c77	-0.77387184
148	0x3f81ed73	1.0150589
149	0xbec48eec	-0.3839029
150	0xbf54d625	-0.8313926
151	0xbe55ffea	-0.20898405
152	0x3f1d81cc	0.6152618
153	0xbf9454f3	-1.1588424
154	0xc0175779	-2.364714
155	0x3f593d00	0.84858704
156	0xbde81784	-0.1133261
157	0x400b83e9	2.1799262
158	0xbf545afe	-0.82951343
159	0xbf4ffcff	-0.81245416
160	0x3f918978	1.1370077
161	0x3fb4f316	1.4136684
162	0xbf4627d6	-0.77404535
163	0xbf95c9fc	-1.1702266
164	0xbd81eaa9	-0.06343586
165	0xbf223cef	-0.6337423
166	0x3f22df43	0.6362192
167	0xbebeba91	-0.37251714
168	0x3f750aca	0.9571959
169	0x3fe1f113	1.7651695
170	0x3e77b654	0.24190646
171	0x3fd8d473	1.6939834
172	0xbfb5a6c7	-1.4191521
173	0xbeb92352	-0.3615976
174	0xbe57e4f1	-0.21083428
175	0xbebf22c4	-0.37331212
176	0x3f369203	0.71316546
177	0x3f43acb9	0.7643543
178	0xbecfa389	-0.40554455
179	0xbf893794	-1.0720086
180	0x3e36388b	0.17795007
181	0x3d015be2	0.031581767
182	0xbed3a4c8	-0.41336656
183	0x3e8909f9	0.2676542
184	0x3f71478c	0.94249797
185	0xbe88dbeb	-0.26730284
186	0x3f5924e9	0.84821945
187	0xbf4a4b5a	-0.7902123
188	0x3f2d6b6a	0.67742026
189	0x3fc9516a	1.5727971
190	0x3f0ad668	0.5423341
191	0xc00d542f	-2.2082632
192	0x3f57604d	0.8413132
193	0x3f47c75b	0.7803857
194	0x3d13bbe0	0.036067843
195	0x3f52ca56	0.8233999
196	0xbf8a1a6c	-1.0789313
197	0xc00b3474	-2.1750765
198	0x3e5c4078	0.21508968
199	0xbf0d05f1	-0.5508719
200	0xbf02df2f	-0.511218
201	0xbe7bad7a	-0.24577895
202	0xbfd2d4e9	-1.6471225
203	0xbfe0f8de	-1.7575948
204	0xbcc61434	-0.024179555
205	0xbe98f5ad	-0.29874936
206	0xbfb45c86	-1.4090736
207	0xbef9b4de	-0.48770803
208	0xbf8a3efb	-1.080047
209	0x3e97dba0	0.29659748
210	0x3ed7dfb4	0.4216286
211	0x3f1be895	0.60901767
212	0x3dcf4933	0.101213835
213	0xc0044bd9	-2.0671294
214	0x3e158926	0.14603099
215	0x3eca7ecb	0.3954986
216	0x3fb16e97	1.3861874
217	0xc004e60a	-2.0765405
218	0x3f19d5b0	0.60091686
219	0x3f643409	0.891419
220	0x3ef18044	0.4716817
221	0x3f8b8844	1.090096
222	0xbff0775f	-1.8786429
223	0x3f96697a	1.1750939
224	0x3e92a4a4	0.28641236
225	0x3f368923	0.71303004
226	0xbfb2fe9c	-1.3983951
227	0x3fa01117	1.2505215
228	0xbc6819e9	-0.014166334
229	0xbe3055aa	-0.17220178
230	0x3f324fbb	0.6965291
231	0x3d32cf28	0.04365459
232	0xbfe380d5	-1.7773691
233	0x3da2da9b	0.07951852
234	0xbf36b186	-0.7136463
235	0x3f8b1a1b	1.0867342
236	0x3f244aaf	0.6417646
237	0x3f8cfc06	1.1014411
238	0xbf35b0b5	-0.7097276
239	0x3e2579a8	0.1615969
240	0x3ef0f004	0.47058117
241	0xbf139739	-0.5765262
242	0x3f182fef	0.5944814
243	0x3ece908a	0.4034465
244	0x3d3caaff	0.046061512
245	0x3f1145b5	0.5674699
246	0xc000dc87	-2.01346
247	0xbf0cb4e5	-0.54963523
248	0x3f352069	0.7075258
249	0x3ec58fd6	0.385863
250	0x3f14c7ca	0.58117354
251	0x3e2b53cb	0.16731183
252	0xbed57c23	-0.4169627
253	0x3fa383e2	1.2774622
254	0xbe09dd17	-0.13463245
255	0x3f0d5ccd	0.5521973

linear_layer.weight f4 [93, 32]
0	0x3f020266	0.5078491
1	0x3e5763a1	0.21034099
2	0x3d9ef937	0.07762378
3	0xbdd46510	-0.10370839
4	0xbbf06bfe	-0.0073370924
5	0xbdbe37be	-0.09287976
6	0xbe154970	-0.14578795
7	0xbdb1dd67	-0.08684807
8	0xbce74a45	-0.028233657
9	0x3f36ca54	0.7140248
10	0xbd410409	-0.04712299
11	0xbd9af493	-0.0756618
12	0x3e5b691d	0.21426816
13	0xbd30e4a4	-0.0431868
14	0xc0467007	-3.1005876
15	0xbfd80547	-1.687661
16	0xbea73e4d	-0.3266472
17	0x3e519dc2	0.20470336
18	0xbd763c00	-0.060115814
19	0xbe08b2df	-0.13349484
20	0xbeeb3e44	-0.45945942
21	0xbe04ff64	-0.12988049
22	0xbd08525c	-0.03328167
23	0xbda004dc	-0.07813427
24	0xbd8ad836	-0.0677952
25	0x3e3dbbec	0.18528718
26	0xbcf606c4	-0.030032523
27	0xbcc6c7d0	-0.0242652
28	0xbe19feac	-0.15038556
29	0xbe2f1323	-0.17097144
30	0x3dfb7ff7	0.12280267
31	0xbc508b6b	-0.012728552
32	0x3ef51b09	0.4787219
33	0x3e09e8fe	0.13467786
34	0x3dbc0c30	0.09182012
35	0xbdc9e228	-0.09857589
36	0x3a8f7e68	0.0010947706
37	0xbe200c01	-0.15629579
38	0xbe1bd657	-0.15218483
39	0xbca11869	-0.01966496
40	0x3d2bb933	0.041924667
41	0x3ee83e35	0.4535996
42	0xbc995ea4	-0.018721886
43	0xbd6a9d68	-0.05727902
44	0x3e542182	0.20715907
45	0xbad858bf	-0.0016505941
46	0xc049cbce	-3.1530643
47	0x4028bf06	2.6366591
48	0xbe973903	-0.29535684
49	0x3e163784	0.14669615
50	0xbd6a5350	-0.05720836
51	0xbdf5535a	-0.11978789
52	0xbe81d33a	-0.25356466
53	0xbe2c23fb	-0.168106
54	0x3d33cddb	0.04389749
55	0xbda1dbfd	-0.079032876
56	0xbd2522c8	-0.040316373
57	0xbf74be0f	-0.95602506
58	0x3d0888fd	0.033333767
59	0x3d55186b	0.05202524
60	0xbe19f13a	-0.15033427
61	0xbe275e14	-0.16344482
62	0x3e1c29bb	0.15250294
63	0xbc0e600d	-0.0086898925
64	0x40669e44	3.6034098
65	0xbf55ce04	-0.8351748
66	0xc0d50117	-6.656383
67	0x4089c89e	4.3057394
68	0x40987484	4.764223
69	0x402cdd45	2.7010052
70	0xbe436923	-0.19083075
71	0xc011e6fe	-2.2797236
72	0xbeb0a3ea	-0.34500057
73	0xc012c486	-2.2932448
74	0x3f9e6e63	1.2377437
75	0xc03c0ddb	-2.9383457
76	0xc066a043	-3.6035316
77	0xc02619d3	-2.5953262
78	0xc03832c5	-2.8780987
79	0xc08d5f0e	-4.4178534
80	0x40f80a25	7.7512383
81	0xc0e25278	-7.072567
82	0x3fb2ed23	1.3978618
83	0x3fed1684	1.8522496
84	0x40f4e100	7.652466
85	0xbdd5f9a3	-0.10448005
86	0xc0aeff4c	-5.468664
87	0xbebde3dc	-0.37087905
88	0x3ee12770	0.439754
89	0xbf3983d6	-0.7246679
90	0xbf1bda00	-0.60879517
91	0xc0642de3	-3.5653007
92	0x3f5b513a	0.85670817
93	0xbfc4a653	-1.5363258
94	0xbfd76c06	-1.6829841
95	0xc0882f68	-4.255787
96	0x406f0036	3.7343879
97	0xbfe45cbb	-1.7840799
98	0xc09704f3	-4.719354
99	0x4032e4de	2.795219
100	0x4085840a	4.172368
101	0x400d3956	2.2066245
102	0xbe3cd65e	-0.1844115
103	0xbf88679d	-1.065662
104	0xbf426dd2	-0.7594882
105	0xbfd468ad	-1.6594445
106	0x40524eb1	3.286053
107	0xc03656e2	-2.849053
108	0xc05c226b	-3.4396007
109	0xbfabaf94	-1.3412957
110	0xc02a25f6	-2.658567
111	0xc07481e8	-3.8204288
112	0x40cff261	6.4983373
113	0xc0cb8282	-6.359681
114	0x3fe15fa7	1.7607316
115	0x4028963f	2.6341703
116	0x40c22327	6.066791
117	0x3dad34a6	0.084573075
118	0xc0e95f34	-7.2928715
119	0xbed845f2	-0.42240864
120	0x3f8244be	1.0177228
121	0xbf5d6557	-0.8648276
122	0xbe2c7e09	-0.16844954
123	0xbfaeef82	-1.3666842
124	0x3f8ff227	1.1245774
125	0xbfd9c705	-1.7013861
126	0xbf80693d	-1.0032116
127	0xc084d48a	-4.1509447
128	0x40895913	4.2921233
129	0xbf75e25c	-0.9604852
130	0xc095686f	-4.6689982
131	0x4042835f	3.0392683
132	0x40868387	4.2035556
133	0x4009a714	2.1508226
134	0xbeb969d6	-0.3621356
135	0xbfd65d20	-1.674717
136	0xbfb731fc	-1.4312129
137	0xc0055b13	-2.0836837
138	0x4055fc9c	3.343543
139	0xc065a2a7	-3.5880525
140	0xc04a33cd	-3.1594117
141	0xbfe4b3ea	-1.7867405
142	0xc02ce3f3	-2.701413
143	0xc08e3c60	-4.44487
144	0x40d64c5d	6.6968217
145	0xc0caa430	-6.3325424
146	0x3fc4f974	1.5388627
147	0x3fba63b3	1.4561676
148	0x40bf09d6	5.9699507
149	0x3c983609	0.018580453
150	0xc0b4defb	-5.6522193
151	0xbe8758f8	-0.26435065
152	0x3fd64f82	1.6743014
153	0xbf57be01	-0.842743
154	0xbedc4f25	-0.43029132
155	0xbfb9d2d5	-1.4517466
156	0x3fb9f40a	1.45276
157	0xbfdb986c	-1.715589
158	0xbfde8926	-1.7385604
159	0xc09c53ec	-4.8852444
160	0x403c7198	2.9444332
161	0xbf4b84d6	-0.79499567
162	0xc0cc805b	-6.3906684
163	0x40294e02	2.6453862
164	0x40853446	4.162631
165	0x400ec003	2.2304695
166	0x3f334243	0.7002298
167	0xbfab834a	-1.3399441
168	0xbec39672	-0.38200718
169	0xbfc24d86	-1.5179908
170	0x4029cac4	2.6530008
171	0xbfe92224	-1.8213544
172	0xc06ee3b7	-3.7326486
173	0xc015b4e0	-2.3391647
174	0xc02f0a37	-2.7349985
175	0xc067be4f	-3.6209905
176	0x40e3ca0b	7.1184134
177	0xc0fc5fff	-7.8867183
178	0x3fd3b0aa	1.6538289
179	0x405ebb17	3.480169
180	0x40dc0c00	6.876465
181	0xbd899df6	-0.06719582
182	0xc090be06	-4.523196
183	0xbf3dfed8	-0.74216986
184	0x3fc73e18	1.5565825
185	0xbf247919	-0.6424728
186	0xbdecc051	-0.11560119
187	0xc04b2f44	-3.1747599
188	0x3fe095ff	1.7545775
189	0xc02ccd57	-2.700033
190	0xbf483142	-0.7820016
191	0xc06ac75a	-3.6684175
192	0x404e3bda	3.222403
193	0xbf7edd4d	-0.9955643
194	0xc0cec544	-6.4615803
195	0x404e1512	3.220036
196	0x4085f780	4.1864624
197	0x3ff92e8e	1.9467332
198	0x3f19ed42	0.6012765
199	0xc012684f	-2.2876165
200	0xbf1b6946	-0.6070751
201	0xbfd29a07	-1.6453255
202	0x40068a66	2.1021972
203	0xbff9ada6	-1.9506118
204	0xc0712a86	-3.7682204
205	0xc00393a7	-2.055887
206	0xc032e5f0	-2.7952843
207	0xc07e3b49	-3.9723685
208	0x40e3e3c9	7.121556
209	0xc0df9b7a	-6.987729
210	0x3fd842f2	1.689543
211	0x402b3c37	2.6755502
212	0x40e705b4	7.219446
213	0xbe4ffea6	-0.20311984
214	0xc09cf2cc	-4.9046383
215	0xbf000ee3	-0.50022715
216	0x3fb64fdc	1.4243121
217	0xbf113967	-0.56728214
218	0xbf8d6504	-1.1046453
219	0xc0172fcd	-2.3622925
220	0x3f991fd2	1.1962836
221	0xbfec154d	-1.8444
222	0xbf6eaca7	-0.93232197
223	0xc07073af	-3.7570608
224	0x40495cb6	3.1462836
225	0xbfbcd5b0	-1.4752712
226	0xc0cc2f48	-6.3807716
227	0x4059a5e9	3.4007514
228	0x408fc518	4.4928093
229	0x40136907	2.3032854
230	0x3e1e93e0	0.15486097
231	0xbfee5c03	-1.862183
232	0xbf581d03	-0.8441927
233	0xbfe811f4	-1.8130479
234	0x3fec1bb9	1.844596
235	0xc02b99bb	-2.681258
236	0xc068e429	-3.6389258
237	0xc011d645	-2.278703
238	0xc035e5be	-2.8421474
239	0xc08de86a	-4.434621
240	0x40e08805	7.016604
241	0xc0eb1840	-7.34671
242	0x3fc8d087	1.5688637
243	0x3ff8bace	1.9432008
244	0x40e472df	7.1390224
245	0xbdc973df	-0.09836554
246	0xc0d80a90	-6.7512894
247	0xbf14db48	-0.58147097
248	0x400bd032	2.1845822
249	0xbf529a0f	-0.82266325
250	0xbf82d69c	-1.0221744
251	0xc01c065e	-2.4378886
252	0x3f968f28	1.1762438
253	0xbff98050	-1.9492283
254	0xbf831f28	-1.0243883
255	0xc0607bac	-3.5075483

linear_layer.bias f4 [93]
0	0x4009529a	2.1456666
1	0xc0ceb693	-6.459787
2	0xc1816bd4	-16.17765
3	0xc183a129	-16.453691
4	0xc18260c8	-16.297256
5	0xc183b790	-16.46463
6	0xc182f1c4	-16.36805
7	0xc1828a65	-16.317575
8	0xc181bb58	-16.216476
9	0xc183f289	-16.493425
10	0xc182ea04	-16.364265
11	0xc18463f3	-16.548803
12	0xc043487e	-3.0512996
13	0xc062636b	-3.537318
14	0xc0706ed8	-3.7567654
15	0xc047f3bb	-3.1242511
16	0xc0a3a175	-5.113459
17	0xc0519aef	-3.2750814
18	0xc03edac5	-2.9821026
19	0xc02ec4b8	-2.7307568
20	0xc0259d59	-2.5877287
21	0xc0517ac7	-3.2731187
22	0xc0588d54	-3.383626
23	0xc03ae56c	-2.9202528
24	0xc04b6e25	-3.1785977
25	0xc0426906	-3.0376601
26	0xc0417498	-3.0227413
27	0xc08f4c3a	-4.478055
28	0xc1841364	-16.509468
29	0xc064bf9d	-3.5741951
30	0xc03b906d	-2.93069
31	0xc019263a	-2.3929582
32	0xc035983e	-2.8374171
33	0xc0f1e36c	-7.5590115
34	0xc02deecb	-2.7176998
35	0xc1840fa4	-16.507637
36	0xc04c586c	-3.1928968
37	0xc05713ff	-3.3605955
38	0x3feb4b71	1.8382398
39	0x3f821bb4	1.0164704
40	0x3f6be4fe	0.9214629
41	0x3f85e679	1.046096
42	0x3fe33bcc	1.7752624
43	0x3e7464d8	0.23866594
44	0x3f1380d1	0.57618433
45	0x3dd8431c	0.10559675
46	0x3fdf628a	1.7451947
47	0xc05ec433	-3.480725
48	0xbe20113b	-0.15631573
49	0x3f6d096a	0.9259249
50	0x3ede37ef	0.4340205
51	0x3f846f0f	1.0346392
52	0x3fc46cb3	1.5345672
53	0x3f12f775	0.5740884
54	0xc05400ea	-3.3125558
55	0x3fb4f317	1.4136685
56	0x3ff3d281	1.9048616
57	0x402db2fa	2.7140489
58	0x3e0bc374	0.13648778
59	0xbf7ff8a0	-0.99988747
60	0x3f0882d7	0.53324646
61	0xc06d36eb	-3.706477
62	0x3fa43bc4	1.2830739
63	0xc0bea5aa	-5.9577227
64	0xc04d24fe	-3.2053828
65	0xc182c21a	-16.344776
66	0xc1841b3a	-16.513294
67	0xc1845e75	-16.546122
68	0xc18134fb	-16.15087
69	0xc1839411	-16.447298
70	0xbf8b810d	-1.0898758
71	0xc183c48d	-16.470972
72	0xc182cf77	-16.351301
73	0xc183e817	-16.488325
74	0xc0f77fcb	-7.7343497
75	0xbf178f8f	-0.5920343
76	0xc063f8bf	-3.5620573
77	0xbea56493	-0.32303295
78	0xc183f8bd	-16.496454
79	0xc03c2e1b	-2.940314
80	0xc183c909	-16.473162
81	0xc010cb52	-2.2624097
82	0xc183c09f	-16.469053
83	0xc1837aec	-16.43502
84	0xc1819896	-16.199505
85	0xc183becd	-16.468164
86	0xc180b3d7	-16.087812
87	0xc1832984	-16.395271
88	0xc18421af	-16.516447
89	0xc1834177	-16.406965
90	0xc184be76	-16.592999
91	0xc1840ed3	-16.507238
92	0xc183d324	-16.478096
