models/checkpoints/bigram/shakespeare_model.pth (torch, 112296 bytes, 8 tensors)

tok_embedding.weight f4 [93, 64]
-1.4340137 -0.93345267 -1.073383 1.6652911 -2.1196356 -0.19587179 -0.09932622 0.61448175
-0.98245275 0.08261018 -1.0809289 -0.04425324 -0.90360945 0.63269144 -0.21085262 0.665728
-1.144744 -0.9751084 0.57930076 -1.1577001 -0.99538845 1.3605998 -1.2469095 -0.10306252
-0.47548297 0.5231558 1.8034134 -1.7490795 -1.4687223 -0.7100685 -0.8767769 -0.39580765
-0.9165138 -0.41212738 -0.5761802 0.79143584 0.14612369 1.9610219 -0.021418024 0.33016703
0.37789485 -0.21752287 0.4622572 2.1163878 1.6243889 0.100236356 -0.36380097 -0.27922618
-1.304044 -1.2662594 -1.1140394 1.1270008 0.66694224 0.6900184 -0.5031004 1.5385449
0.03850188 -0.712355 0.1518279 0.045372054 -0.81279975 0.152978 1.8660564 -1.5650873
-0.6968573 -2.7409973 0.71839195 -0.578797 -0.35235706 -0.52874917 0.7169632 -0.6888523
1.3885792 0.05460328 0.3509821 2.0288768 0.44611904 0.8463536 -0.53131574 0.7474138
0.47518107 -0.73280275 -0.75233084 -1.6305674 -0.6075334 1.3498834 1.1726817 0.41902298
-0.24059868 1.2540925 0.40009502 -0.59864587 -0.56609654 0.047868382 1.1206146 -0.5960721
-1.1345248 0.5914392 -0.6379266 0.36728027 0.5555825 0.72147334 -1.3220326 0.18843684
0.7743482 0.8991162 -1.3464472 1.2330828 -0.08616276 0.6618481 0.27673283 2.0199811
-0.26659706 -1.96608 -0.36382186 0.36187938 -0.7984511 -0.9759554 -1.8177772 2.110223
0.52505517 1.497406 0.62979543 1.8558558 -1.697411 0.50295395 0.52347755 1.6836644
-0.9098617 0.67769045 -1.0146934 0.6171874 -0.8256328 0.01834936 0.67286134 0.59675807
-2.468052 0.46717408 -1.0012267 0.75811094 0.18577123 -0.13585187 -1.3792253 -1.0164111
-0.8327989 0.16874728 -0.83966506 -1.009691 -0.84116286 -0.6670718 -0.9088066 -0.19543727
1.1142548 0.743292 0.065584905 -1.4913707 -0.26227048 0.80703515 -0.5669205 0.21167198
0.2268892 -1.6422489 -0.49901792 -0.95765126 0.5121958 0.2910339 -0.18638521 0.25579384
-0.35751545 0.10872169 -2.536827 0.2748697 -0.49938524 1.0833256 1.0204223 0.7106183
-0.104216374 0.6018012 0.12079791 1.8498647 0.663464 -0.45326847 -2.4140375 -0.7074119
-1.0941015 -0.46904597 1.8206592 0.03255605 1.4082816 -0.34863663 1.710072 -0.4337711
0.5776362 0.8560892 0.6697165 0.5875825 0.26341823 -0.33168128 -1.4986278 -0.1698103
1.1655034 -0.729247 -1.2760967 0.8538446 0.9857209 0.55156314 -1.4293505 2.5255294
0.82981634 -0.22040144 -1.5400028 -0.070903264 1.710492 0.37345314 0.034012865 -2.0100257
1.1473614 1.256218 0.22260687 0.8078002 0.50389546 -0.41829365 0.8292338 0.7415775
1.5144851 0.5581535 -0.9577543 -0.9831928 -0.6541782 -0.24990025 -0.13052872 -0.5565749
-0.44280502 0.54904586 -0.48550656 1.2381829 -0.48627657 0.62796426 -0.43937355 1.171319
-1.5964609 0.61711 1.2216135 -0.39124373 0.7490052 0.5231666 -1.1384103 0.7355889
1.4866167 0.055099774 -0.51352817 0.11101794 -0.61687845 -0.42807147 0.8223447 -0.41116807
00000000: c38d b7bf c1f6 6ebf 9d64 89bf 4228 d53f
00000010: 1ca8 07c0 9d92 48be 8c6b cbbd ad4e 1d3f
00000020: 0682 7bbf 872f a93d e15b 8abf e342 35bd
00000030: f352 67bf 11f8 213f c0e9 57be 266d 2a3f
00000040: f986 92bf b4a0 79bf 0e4d 143f 842f 94bf
00000050: c7d1 7ebf 2228 ae3f bb9a 9fbf 7112 d3bd
00000060: 8172 f3be 8aed 053f 40d6 e63f d6e1 dfbf
00000070: 18ff bbbf 0dc7 35bf 7374 60bf 4da7 cabe
00000080: a6a0 6abf 5c02 d3be 8c80 13bf 8a9b 4a3f
00000090: 73a1 153e c402 fb3f da74 afbc a70b a93e
000000a0: 6f7b c13e 51be 5ebe faac ec3e e672 0740
000000b0: faeb cf3f b848 cd3d 1f44 babe bcf6 8ebe
000000c0: eaea a6bf ca14 a2bf d898 8ebf 9041 903f
000000d0: babc 2a3f 0ca5 303f 30cb 00bf 0aef c43f
000000e0: 26b4 1d3d e65c 36bf c678 1b3e 0cd8 393d
000000f0: a513 50bf 44a6 1c3e f0da ee3f c854 c8bf
00000100: 3d65 32bf 806c 2fc0 89e8 373f 0a2c 14bf
00000110: 2568 b4be 1b5c 07bf e68a 373f a058 30bf
00000120: f7bc b13f b0a7 5f3d edb3 b33e 1ed9 0140
00000130: b769 e43e a1aa 583f 4f04 08bf 8356 3f3f
00000140: ef4a f33e f698 3bbf c198 40bf 6fb6 d0bf
00000150: 4f87 1bbf fbc8 ac3f 6f1a 963f 2e8a d63e
00000160: 805f 76be 1a86 a03f 41d9 cc3e db40 19bf
00000170: b4eb 10bf a311 443d 4d70 8f3f 2e98 18bf
00000180: 1c38 91bf 8f68 173f 284f 23bf 290c bc3e
00000190: a83a 0e3f 7ab2 383f 5d38 a9bf 96f5 403e
000001a0: af3b 463f 7b2c 663f 6258 acbf a8d5 9d3f
000001b0: 1a76 b0bd e16e 293f edaf 8d3e 5f47 0140
000001c0: 697f 88be 82a8 fbbf dc46 babe 4148 b93e
000001d0: 4b67 4cbf 37d8 79bf ecac e8bf e50d 0740
000001e0: 046a 063f 00ab bf3f 463a 213f af8c ed3f
000001f0: c344 d9bf 97c1 003f a002 063f 5182 d73f
00000200: b2ec 68bf 1f7d 2d3f 79e1 81bf feff 1d3f
00000210: ac5c 53bf 6651 963c a440 2c3f 23c5 183f
00000220: 90f4 1dc0 7131 ef3e 3228 80bf 8f13 423f
00000230: d03a 3e3e c11c 0bbe 748a b0bf c219 82bf
00000240: 4f32 55bf 16cc 2c3e 4af4 56bf 8e3d 81bf
00000250: 7356 57bf 38c5 2abf 8da7 68bf b520 48be
00000260: e79f 8e3f 6248 3e3f 6151 863d 3ce5 bebf
00000270: 5148 86be db99 4e3f b421 11bf 8ac0 583e
00000280: a455 683e 3635 d2bf 477f ffbe a228 75bf
00000290: 441f 033f 6502 953e c4db 3ebe 69f7 823e
000002a0: 440c b7be 7aa9 de3d 605b 22c0 b9bb 8c3e
000002b0: 6caf ffbe 6aaa 8a3f 339d 823f 15eb 353f
000002c0: 656f d5bd a50f 1a3f e564 f73d 5ec8 ec3f
000002d0: c7d8 293f ce12 e8be 977f 1ac0 f218 35bf
000002e0: 850b 8cbf cb26 f0be 5c0b e93f 7e59 053d
000002f0: 9242 b43f 8080 b2be a4e3 da3f 3f17 debe
00000300: f7df 133f a928 5b3f 8a72 2b3f cf6b 163f
00000310: c1de 863e 21d2 a9be 09d3 bfbf c0e2 2dbe
00000320: 372f 953f eeaf 3abf 2357 a3bf 8f95 5a3f
00000330: 3458 7c3f 3e33 0d3f f5f4 b6bf 46a2 2140
00000340: d86e 543f eab0 61be d01e c5bf bb35 91bd
00000350: 67f1 da3f 4035 bf3e 1351 0b3d 43a4 00c0
00000360: bddc 923f c0cb a03f 0ef3 633e fecb 4e3f
00000370: 4bff 003f 962a d6be ab48 543f 06d8 3d3f
00000380: a6da c13f 26e3 0e3f 632f 75bf 86b2 7bbf
00000390: 3978 27bf dae5 7fbe 52a9 05be b17b 0ebf
000003a0: 57b7 e2be 458e 0c3f 5194 f8be c77c 9e3f
000003b0: 3ef9 f8be 44c2 203f 92f5 e0be c8ed 953f
000003c0: d558 ccbf ecfa 1d3f d55d 9c3f 1951 c8be
000003d0: cebe 3f3f 3fee 053f 6eb7 91bf 8e4f 3c3f
000003e0: 7549 be3f 4db0 613d 9576 03bf 605d e33d
000003f0: bfeb 1dbf 2f2c dbbe 2f85 523f 9f84 d2be

pos_embedding.weight f4 [32, 64]
-1.58368 -1.1989799 -1.4764899 -0.7438901 -1.7806283 0.9326867 0.30082646 1.6664602
-0.8562042 0.04052858 0.86735624 -0.36218765 0.548113 0.44890743 0.5836776 0.18438488
0.1456592 -1.0787603 -1.7467726 -0.64074415 0.68805426 0.63448477 0.5155816 0.5538491
0.63152814 0.78093123 -0.23197775 -0.6716048 0.7020857 0.38547808 1.8500721 -2.0432518
0.5983396 -0.34330493 -1.5233994 -0.95169836 0.10382407 0.46053112 -1.295142 0.6271351
-0.0066460157 -0.8639864 0.10087392 0.29704183 -0.9050198 0.9676149 1.5266945 -1.2713794
0.23771183 1.7938175 0.49021667 -0.13087581 0.38642073 -0.1162869 -0.79496753 -0.3263997
2.3794787 -1.1054755 -2.5351753 0.1690983 0.4610611 -1.3750267 -0.048812877 0.36884004
1.0182177 -0.6395729 0.07954083 -0.24031124 -0.36545902 -0.35909465 0.3805054 1.4825817
0.07945935 0.087243296 -1.4129206 0.33940315 0.13013424 -0.5529081 -0.06604967 2.29043
0.7252598 -0.97636014 -0.4634563 -0.739493 -0.64234334 0.6623488 -1.180804 0.33968258
1.4968531 1.6001419 0.45325187 -1.518565 0.20947573 -1.283245 1.0257759 -1.1553981
0.040207822 -0.708739 -0.9006031 1.0109265 1.7618619 0.79255205 1.3183486 -0.60712165
0.5091566 -0.38312554 2.1482353 1.0528014 -1.5698535 0.39344218 -0.6902546 0.6980393
1.6158931 1.8516227 -0.9684043 -0.50984436 0.6436581 0.19103473 0.09164046 -0.90896577
0.09859882 0.853627 0.1297839 -1.5567156 -0.57593054 -0.7435726 -2.0412552 0.1123241
-1.3131928 -0.5901504 -1.4458457 -1.4560888 0.37149635 -0.4549251 -0.26304203 0.4657296
0.47210222 -1.2194991 -0.592368 1.2549115 -1.5200975 0.58839285 -0.5165051 0.56668705
0.7488285 1.8377825 -0.8844836 -1.2356311 -0.18204539 -0.26679513 -0.07753814 -1.2040613
0.65406024 -0.29124135 -0.5504953 1.1064285 -0.89312977 -1.146086 0.09956411 -0.3695785
-0.46107274 0.6679496 -1.9745822 0.9889893 1.1415257 -0.3685828 -1.0405213 -0.1965977
-0.21704577 0.75674146 -0.6143529 0.17873888 -0.89737827 -1.6117083 -0.29487762 -0.020053945
1.5014482 0.6381161 -0.3335294 0.19089831 0.14826132 -0.40544817 -0.9101571 -1.394457
-0.5359562 0.7258514 1.5400385 -1.0958927 0.082122386 0.4199657 -1.3368897 -1.2389407
-0.8968459 -0.9041196 1.0418768 -0.5153298 0.1706162 1.1152629 -0.17508018 0.5677623
-0.29463995 -0.6302174 -3.012424 0.9475521 -0.07605787 -0.85057676 0.8088348 0.9494508
-0.26072383 -0.1403568 -0.77756304 -1.4900525 0.0041215317 1.3888428 1.4617237 0.02526135
-0.051690266 1.5843991 1.1427907 0.2647609 0.6602292 1.4835234 0.49660775 -1.4786943
0.36306542 0.47090152 -0.049479365 -1.2943084 0.2859272 0.3761908 0.12989937 -1.1213869
0.410419 0.40186852 -0.8563316 -0.23582603 -0.6391669 1.0062296 1.5817622 1.118496
1.7881823 0.7662835 0.7192905 -1.5070024 -0.11458178 1.6083536 0.5031355 -0.72091365
-2.1928515 1.9801883 -0.009889999 1.023864 -0.29927552 -1.1138363 0.8394486 -0.281652
00000000: 07b6 cabf 2c78 99bf 9ffd bcbf 956f 3ebf
00000010: a1eb e3bf 8ec4 6e3f ed05 9a3e 914e d53f
00000020: 3330 5bbf 4c01 263d 0f0b 5e3f a970 b9be
00000030: 2251 0c3f 32d7 e53e e56b 153f 64cf 3c3e
00000040: af27 153e d114 8abf 3f96 dfbf cf07 24bf
00000050: 5324 303f 986d 223f 28fd 033f 0ec9 0d3f
00000060: d4ab 213f 1ceb 473f 938b 6dbe 4bee 2bbf
00000070: e3bb 333f 625d c53e 2acf ec3f a3c4 02c0
00000080: c92c 193f aac5 afbe c0fe c2bf 81a2 73bf
00000090: b7a1 d43d bcca eb3e 37c7 a5bf ed8b 203f
000000a0: d2c6 d9bb 362e 5dbf fc96 ce3d de15 983e
000000b0: 61af 67bf 9cb5 773f ba6a c33f 8fbc a2bf
000000c0: bb6a 733e d09b e53f aefd fa3e 4f04 06be
000000d0: f0d8 c53e d427 eebd fe82 4bbf dd1d a7be
000000e0: 6149 1840 3980 8dbf 5040 22c0 1b28 2d3e
000000f0: 3310 ec3e e000 b0bf 03f0 47bd 9ad8 bc3e
00000100: f554 823f 0dbb 23bf 4de6 a23d 2614 76be
00000110: 721d bbbe 41db b7be 9bd1 c23e 3dc5 bd3f
00000120: 95bb a23d 9dac b23d 95da b4bf 40c6 ad3e
00000130: e941 053e 638b 0dbf 0d45 87bd 6896 1240
00000140: a0aa 393f bdf2 79bf 254a edbe 6a4f 3dbf
00000150: 9d70 24bf b18f 293f 9624 97bf e0ea ad3e
00000160: e298 bf3f 73d1 cc3f a110 e83e 5760 c2bf
00000170: ce80 563e 5f41 a4bf a04c 833f 16e4 93bf
00000180: f5b0 243d eb6f 35bf ed8d 66bf 0a66 813f
00000190: b184 e13f b1e4 4a3f a6bf a83f 536c 1bbf
000001a0: 1658 023f 0829 c4be b07c 0940 32c2 863f
000001b0: f6f0 c8bf 4171 c93e 87b4 30bf b4b2 323f
000001c0: 96d5 ce3f f901 ed3f 58e9 77bf 2985 02bf
000001d0: c7c6 243f 9c9e 433e fead bb3d fbb1 68bf
000001e0: 2eee c93d 4d87 5a3f 12e6 043e 7542 c7bf
000001f0: 2f70 13bf c65a 3ebf eda3 02c0 2e0a e63d
00000200: b416 a8bf 1914 17bf 7911 b9bf 1e61 babf
00000210: c534 be3e f1eb e8be 72ad 86be 1c74 ee3e
00000220: 62b7 f13e 8c18 9cbf 6ea5 17bf f1a0 a03f
00000230: 8e92 c2bf eaa0 163f ae39 04bf 6712 113f
00000240: 39b3 3f3f 753c eb3f 846d 62bf 2929 9ebf
00000250: 1b6a 3abe 5f99 88be 51cc 9ebd ae1e 9abf
00000260: 7e70 273f 961d 95be 43ed 0cbf 739f 8d3f
00000270: 27a4 64bf f2b2 92bf 45e8 cb3d 6539 bdbe
00000280: ba11 ecbe bffe 2a3f 1cbf fcbf 672e 7d3f
00000290: 841d 923f e2b6 bcbe cd2f 85bf e850 49be
000002a0: 3f41 5ebe cfb9 413f 3b46 1dbf 5307 373e
000002b0: 95ba 65bf 754c cebf 33fa 96be 2c48 a4bc
000002c0: 742f c03f 945b 233f 5ec4 aabe d97a 433e
000002d0: d1d1 173e e796 cfbe 0e00 69bf 917d b2bf
000002e0: 6d34 09bf 66d1 393f fb1f c53f 3646 8cbf
000002f0: c82f a83d bf05 d73e 341f abbf 9c95 9ebf
00000300: b197 65bf 6274 67bf 385c 853f a7ec 03bf
00000310: 03b6 2e3e efc0 8e3f 3848 33be df58 113f
00000320: 0cdb 96be ed55 21bf 8ecb 40c0 c692 723f
00000330: 3bc4 9bbd 66bf 59bf cc0f 4f3f 350f 733f
00000340: 987d 85be b1b9 0fbe 5f0e 47bf 0aba bebf
00000350: ea0d 873b 9ac5 b13f c319 bb3f e4f0 ce3c
00000360: 2cb9 53bd 97cd ca3f f746 923f be8e 873e
00000370: c804 293f 18e4 bd3f 5f43 fe3e db45 bdbf
00000380: b6e3 b93e 011a f13e e0aa 4abd e6ab a5bf
00000390: 0d65 923e 159c c03e 5704 053e 9b89 8fbf
000003a0: 7022 d23e b6c1 cd3e 8c38 5bbf 617c 71be
000003b0: 71a0 23bf 22cc 803f 2f77 ca3f e02a 8f3f
000003c0: 28e3 e43f 282b 443f 6c23 383f 74e5 c0bf
000003d0: daa9 eabd 88de cd3f 7dcd 003f cc8d 38bf
000003e0: ae57 0cc0 cf76 fd3f aa09 22bc fa0d 833f
000003f0: a43a 99be 3092 8ebf 1ae6 563f b134 90be

attention_head.mask f4 [32, 32]
1.0 0.0 0.0 0.0 0.0 0.0 0.0 0.0
0.0 0.0 0.0 0.0 0.0 0.0 0.0 0.0
0.0 0.0 0.0 0.0 0.0 0.0 0.0 0.0
0.0 0.0 0.0 0.0 0.0 0.0 0.0 0.0
1.0 1.0 0.0 0.0 0.0 0.0 0.0 0.0
0.0 0.0 0.0 0.0 0.0 0.0 0.0 0.0
0.0 0.0 0.0 0.0 0.0 0.0 0.0 0.0
0.0 0.0 0.0 0.0 0.0 0.0 0.0 0.0
1.0 1.0 1.0 0.0 0.0 0.0 0.0 0.0
0.0 0.0 0.0 0.0 0.0 0.0 0.0 0.0
0.0 0.0 0.0 0.0 0.0 0.0 0.0 0.0
0.0 0.0 0.0 0.0 0.0 0.0 0.0 0.0
1.0 1.0 1.0 1.0 0.0 0.0 0.0 0.0
0.0 0.0 0.0 0.0 0.0 0.0 0.0 0.0
0.0 0.0 0.0 0.0 0.0 0.0 0.0 0.0
0.0 0.0 0.0 0.0 0.0 0.0 0.0 0.0
1.0 1.0 1.0 1.0 1.0 0.0 0.0 0.0
0.0 0.0 0.0 0.0 0.0 0.0 0.0 0.0
0.0 0.0 0.0 0.0 0.0 0.0 0.0 0.0
0.0 0.0 0.0 0.0 0.0 0.0 0.0 0.0
1.0 1.0 1.0 1.0 1.0 1.0 0.0 0.0
0.0 0.0 0.0 0.0 0.0 0.0 0.0 0.0
0.0 0.0 0.0 0.0 0.0 0.0 0.0 0.0
0.0 0.0 0.0 0.0 0.0 0.0 0.0 0.0
1.0 1.0 1.0 1.0 1.0 1.0 1.0 0.0
0.0 0.0 0.0 0.0 0.0 0.0 0.0 0.0
0.0 0.0 0.0 0.0 0.0 0.0 0.0 0.0
0.0 0.0 0.0 0.0 0.0 0.0 0.0 0.0
1.0 1.0 1.0 1.0 1.0 1.0 1.0 1.0
0.0 0.0 0.0 0.0 0.0 0.0 0.0 0.0
0.0 0.0 0.0 0.0 0.0 0.0 0.0 0.0
0.0 0.0 0.0 0.0 0.0 0.0 0.0 0.0
00000000: 0000 803f 0000 0000 0000 0000 0000 0000
00000010: 0000 0000 0000 0000 0000 0000 0000 0000
00000020: 0000 0000 0000 0000 0000 0000 0000 0000
00000030: 0000 0000 0000 0000 0000 0000 0000 0000
00000040: 0000 0000 0000 0000 0000 0000 0000 0000
00000050: 0000 0000 0000 0000 0000 0000 0000 0000
00000060: 0000 0000 0000 0000 0000 0000 0000 0000
00000070: 0000 0000 0000 0000 0000 0000 0000 0000
00000080: 0000 803f 0000 803f 0000 0000 0000 0000
00000090: 0000 0000 0000 0000 0000 0000 0000 0000
000000a0: 0000 0000 0000 0000 0000 0000 0000 0000
000000b0: 0000 0000 0000 0000 0000 0000 0000 0000
000000c0: 0000 0000 0000 0000 0000 0000 0000 0000
000000d0: 0000 0000 0000 0000 0000 0000 0000 0000
000000e0: 0000 0000 0000 0000 0000 0000 0000 0000
000000f0: 0000 0000 0000 0000 0000 0000 0000 0000
00000100: 0000 803f 0000 803f 0000 803f 0000 0000
00000110: 0000 0000 0000 0000 0000 0000 0000 0000
00000120: 0000 0000 0000 0000 0000 0000 0000 0000
00000130: 0000 0000 0000 0000 0000 0000 0000 0000
00000140: 0000 0000 0000 0000 0000 0000 0000 0000
00000150: 0000 0000 0000 0000 0000 0000 0000 0000
00000160: 0000 0000 0000 0000 0000 0000 0000 0000
00000170: 0000 0000 0000 0000 0000 0000 0000 0000
00000180: 0000 803f 0000 803f 0000 803f 0000 803f
00000190: 0000 0000 0000 0000 0000 0000 0000 0000
000001a0: 0000 0000 0000 0000 0000 0000 0000 0000
000001b0: 0000 0000 0000 0000 0000 0000 0000 0000
000001c0: 0000 0000 0000 0000 0000 0000 0000 0000
000001d0: 0000 0000 0000 0000 0000 0000 0000 0000
000001e0: 0000 0000 0000 0000 0000 0000 0000 0000
000001f0: 0000 0000 0000 0000 0000 0000 0000 0000
00000200: 0000 803f 0000 803f 0000 803f 0000 803f
00000210: 0000 803f 0000 0000 0000 0000 0000 0000
00000220: 0000 0000 0000 0000 0000 0000 0000 0000
00000230: 0000 0000 0000 0000 0000 0000 0000 0000
00000240: 0000 0000 0000 0000 0000 0000 0000 0000
00000250: 0000 0000 0000 0000 0000 0000 0000 0000
00000260: 0000 0000 0000 0000 0000 0000 0000 0000
00000270: 0000 0000 0000 0000 0000 0000 0000 0000
00000280: 0000 803f 0000 803f 0000 803f 0000 803f
00000290: 0000 803f 0000 803f 0000 0000 0000 0000
000002a0: 0000 0000 0000 0000 0000 0000 0000 0000
000002b0: 0000 0000 0000 0000 0000 0000 0000 0000
000002c0: 0000 0000 0000 0000 0000 0000 0000 0000
000002d0: 0000 0000 0000 0000 0000 0000 0000 0000
000002e0: 0000 0000 0000 0000 0000 0000 0000 0000
000002f0: 0000 0000 0000 0000 0000 0000 0000 0000
00000300: 0000 803f 0000 803f 0000 803f 0000 803f
00000310: 0000 803f 0000 803f 0000 803f 0000 0000
00000320: 0000 0000 0000 0000 0000 0000 0000 0000
00000330: 0000 0000 0000 0000 0000 0000 0000 0000
00000340: 0000 0000 0000 0000 0000 0000 0000 0000
00000350: 0000 0000 0000 0000 0000 0000 0000 0000
00000360: 0000 0000 0000 0000 0000 0000 0000 0000
00000370: 0000 0000 0000 0000 0000 0000 0000 0000
00000380: 0000 803f 0000 803f 0000 803f 0000 803f
00000390: 0000 803f 0000 803f 0000 803f 0000 803f
000003a0: 0000 0000 0000 0000 0000 0000 0000 0000
000003b0: 0000 0000 0000 0000 0000 0000 0000 0000
000003c0: 0000 0000 0000 0000 0000 0000 0000 0000
000003d0: 0000 0000 0000 0000 0000 0000 0000 0000
000003e0: 0000 0000 0000 0000 0000 0000 0000 0000
000003f0: 0000 0000 0000 0000 0000 0000 0000 0000

attention_head.query.weight f4 [64, 64]
-0.088123426 -0.06765014 0.043482848 0.011070322 -0.03882602 0.024874503 0.14631203 -0.05569985
-0.14823824 0.13088907 -0.11953743 -0.08618445 -0.12982778 0.04781268 -0.09043355 0.030896554
0.034353644 0.01721041 0.1922318 -0.22007775 -0.11522579 -0.019431133 0.04682738 -0.026400842
-0.0011723712 -0.14354941 -0.1755872 -0.015028127 0.12860368 -0.19996825 0.103983164 -0.07382653
0.031166827 -0.091283605 0.061369263 0.020666372 -0.023973834 0.06681262 0.02971825 0.031068368
0.13976285 0.03028907 -0.06801286 0.20080699 -0.15245485 -0.14363831 -0.15169625 0.12220468
-0.1437955 -0.23643626 -0.10477111 0.082829095 0.0036215878 0.047845546 0.059692718 -0.07158515
-0.0061316034 0.05235932 0.09586287 0.115120076 0.012372325 -0.0026861096 0.0109351445 -0.058098763
-0.08476707 0.095111996 -0.09323329 -0.04707435 0.008034922 0.14584754 0.0477484 0.024354817
0.1072999 0.00061445904 0.07345246 0.12882671 -0.011659873 0.022861077 0.005725034 0.026806442
0.0624886 -0.3271406 -0.013378724 0.05386367 0.030581392 0.068911925 0.17355281 0.030237135
-0.084968425 0.012133037 0.017555108 -0.1369863 0.07740616 0.14092818 0.008039225 -0.096142665
0.04902602 -0.0023734188 0.0068908343 -0.077722855 0.017849155 -0.10265222 -0.15622532 0.1252944
0.0098847775 0.031688664 -0.19439839 -0.08921718 0.13938273 -0.16838817 -0.1504731 -0.035611592
0.008494998 -0.13006175 -0.078184485 0.046077147 0.1252052 0.204256 -0.19953936 -0.02282796
0.14699687 -0.11987619 -0.020648448 -0.091679454 -0.032663498 -0.1166215 0.14625306 -0.0049152393
-0.017606983 -0.10095248 0.09190586 -0.044061825 -0.0043236385 -0.11791012 0.027826365 -0.10089097
-0.011396662 0.04624629 -0.16061653 0.19261563 -0.0757742 0.14295919 0.018966783 0.03423831
0.043940526 -0.10839081 0.16845258 0.02647246 -0.057566397 -0.016772265 -0.10328589 -0.04397179
0.1987167 -0.101783216 -0.02349941 0.08165242 -0.017600127 0.2030397 0.12214715 0.04458098
-0.1202626 -0.026594674 0.12543908 0.0044141454 0.13994817 0.20770447 -0.0006837287 0.19430226
-0.028929913 -0.09666867 -0.095581144 0.0036058596 0.011567742 -0.027180867 0.01274508 0.089839146
-0.22361289 0.037555657 -0.007274268 0.053779054 -0.1225875 0.07913691 0.07065121 0.15026338
-0.055954114 -0.3243343 -0.032524403 -0.25703576 0.14187999 0.10001473 -0.09734624 0.039935317
0.1207082 0.056137312 0.17750412 0.00018996144 -0.048993636 -0.081612535 0.12273748 -0.25417605
-0.12159593 -0.008760407 -0.17673272 -0.07847175 -0.10508646 0.12930766 -0.17465274 -0.082014605
-0.0362746 -0.055946417 0.17320468 -0.06864311 0.003881002 0.07354319 -0.009986335 -0.23694089
0.008836562 -0.21082607 0.093806 -0.21943177 0.17000566 0.11402055 -0.0196843 0.005267641
-0.2826182 -0.049224403 0.036401447 0.21613388 -0.0075319633 0.014165189 -0.069218434 -0.008286837
-0.041737977 0.1646131 0.15827933 0.15712209 -0.08125618 -0.047472354 0.045850202 -0.15149729
-0.16347513 -0.015922803 0.123246625 -0.16236064 0.051558018 -0.02054837 -0.03804326 -0.035481162
0.03498057 -0.056336194 0.0009574831 0.098609425 -0.016902309 -0.083558425 -0.067249455 -0.1907035
00000000: 0e7a b4bd 288c 8abd 121b 323d 4c60 353c
00000010: 0808 1fbd 9dc5 cb3c d2d2 153e 8725 64bd
00000020: c4cb 17be c907 063e 0ad0 f4bd 7981 b0bd
00000030: 93f1 04be 3bd7 433d 3a35 b9bd c51a fd3c
00000040: 68b6 0c3d d9fc 8c3c 6ad8 443e 105c 61be
00000050: 80fb ebbd 0a2e 9fbc 11ce 3f3d 9446 d8bc
00000060: 40aa 99ba 9efe 12be 22cd 33be 8838 76bc
00000070: afb0 033e 7ac4 4cbe 20f5 d43d 5d32 97bd
00000080: 9351 ff3c e6f2 babd 565e 7b3d 864c a93c
00000090: c664 c4bc 0ed5 883d b073 f33c 1783 fe3c
000000a0: fe1d 0f3e c920 f83c 544a 8bbd 59a0 4d3e
000000b0: 201d 1cbe ec15 13be 4356 1bbe 7346 fa3d
000000c0: 213f 13be 591c 72be 3c92 d6bd 4da2 a93d
000000d0: 2958 6d3b b1f9 433d 5a80 743d 3c9b 92bd
000000e0: 9eeb c8bb ba76 563d c153 c43d 13c4 eb3d
000000f0: 4bb5 4a3c 7109 30bb 5229 333c f8f8 6dbd
00000100: 5c9a adbd 14ca c23d 18f1 bebd 09d1 40bd
00000110: e8a4 033c 0f59 153e d493 433d c183 c73c
00000120: 0dc0 db3d a613 213a 3e6e 963d 26eb 033e
00000130: 0d09 3fbc 2747 bb3c 1199 bb3b 2f99 db3c
00000140: 0cf4 7f3d f97e a7be 7032 5bbc 27a0 5c3d
00000150: d485 fa3c b221 8d3d d4b7 313e deb3 f73c
00000160: ed03 aebd a5c9 463c bbcf 8f3c 2346 0cbe
00000170: 1f87 9e3d 7a4f 103e f4b6 033c 72e6 c4bd
00000180: 82cf 483d 5c8b 1bbb 82cc e13b 292d 9fbd
00000190: 6438 923c 543b d2bd 88f9 1fbe 2d4d 003e
000001a0: c3f3 213c f9cb 013d 5f10 47be 7fb7 b6bd
000001b0: 59ba 0e3e f36d 2cbe 9f15 1abe 76dd 11bd
000001c0: 9b2e 0b3c e82e 05be 301f a0bd 64bb 3c3d
000001d0: cb35 003e 7c28 513e 0c54 4cbe b401 bbbc
000001e0: 5986 163e a681 f5bd ef26 a9bc 70c2 bbbd
000001f0: 29ca 05bd 41d7 eebd 5dc3 153e 0410 a1bb
00000200: 853c 90bc 2dc0 cebd 2439 bc3d 2c7a 34bd
00000210: 4fad 8dbb dc7a f1bd 1ef4 e33c ed9f cebd
00000220: 11b9 3abc c06c 3d3d a978 24be 083d 453e
00000230: 812f 9bbd e563 123e 3a60 9b3c 783d 0c3d
00000240: fbfa 333d 00fc ddbd d57e 2c3e c6dc d83c
00000250: beca 6bbd fd65 89bc 8d87 d3bd c31b 34bd
00000260: 647c 4b3e b873 d0bd d681 c0bc 6239 a73d
00000270: 242e 90bc a4e9 4f3e 4928 fa3d 8c9a 363d
00000280: 3d4c f6bd 13dd d9bc 1a73 003e 89a4 903b
00000290: 934e 0f3e 7bb0 543e 423c 33ba 2cf7 463e
000002a0: 6dfe ecbc 39fa c5bd 0cc0 c3bd 4950 6c3b
000002b0: a086 3d3c 69aa debc bdd0 503c 96fd b73d
000002c0: c7fa 64be f6d3 193d fc5c eebb 6d47 5c3d
000002d0: 280f fbbd 8812 a23d 95b1 903d a5de 193e
000002e0: 2430 65bd 250f a6be 4f38 05bd 319a 83be
000002f0: fd48 113e 86d4 cc3d 775d c7bd 3793 233d
00000300: dc35 f73d 3df0 653d a4c3 353e 6330 4739
00000310: 8dad 48bd 7924 a7bd ca5d fb3d 5d23 82be
00000320: 4907 f9bd cf87 0fbc 6cf9 34be ccb5 a0bd
00000330: 9237 d7bd 3a69 043e 2bd8 32be 46f7 a7bd
00000340: ad94 14bd 1228 65bd 915c 313e c294 8cbd
00000350: 6958 7e3b d09d 963d ba9d 23bc a2a0 72be
00000360: 3ac7 103c cae2 57be 5c1d c03d b9b2 60be
00000370: f715 2e3e 9b83 e93d f840 a1bc 2d9c ac3b
00000380: 55b3 90be 879f 49bd af19 153d 3352 5d3e
00000390: b0ce f6bb 1c15 683c 65c2 8dbd 83c5 07bc
000003a0: 71f5 2abd 5690 283e fa13 223e 9de4 203e
000003b0: a469 a6bd 5f72 42bd 6ccd 3b3d 1b22 1bbe
000003c0: 0666 27be 8a70 82bc ba68 fc3d de41 26be
000003d0: 802e 533d 0e55 a8bc 40d3 1bbd b254 11bd
000003e0: c947 0f3d c8c0 66bd 9aff 7a3a bdf3 c93d
000003f0: b676 8abc ae20 abbd 15ba 89bd c747 43be

attention_head.key.weight f4 [64, 64]
0.06391849 -0.10128508 0.063766755 0.06953011 -0.07284567 0.036054548 0.05545913 0.043833256
-0.18326192 0.035822522 -0.08648387 -0.032832373 -0.2138935 -0.20982787 -0.11615478 -0.06171949
-0.06407242 -0.07455993 -0.08582285 -0.039310537 -0.3006282 -0.06545422 0.10475133 0.028324397
0.012186475 0.10543583 -0.18429078 0.09043409 -0.014023963 0.0062565785 0.0526762 0.009157924
0.12666886 -0.06808147 -0.18939641 -0.14236028 0.1701275 -0.06592477 -0.04797888 -0.15980248
0.1098652 0.08679155 0.03978663 0.09458412 -0.06695087 -0.21224117 0.046720665 0.018694995
0.09234253 -0.004548157 -0.036010634 -0.078216985 0.11213263 -0.0016391721 -0.16699949 0.12167325
0.19314475 0.14431295 -0.07601664 0.13899788 -0.06077073 0.06520892 -0.06203215 -0.116518185
0.2172032 0.23331083 -0.07095402 0.14784746 -0.081039086 -0.06453305 0.08402843 -0.086775325
0.16715153 -0.032466695 0.14970239 0.19156 0.16534351 -0.04272947 -0.046365112 -0.022645729
-0.06527435 0.042277213 0.080524676 0.045275774 0.01796585 0.16586146 0.075655766 0.021179842
-0.12254347 -0.10010299 0.07356424 -0.18398549 0.01870415 -0.05333844 -0.08496214 0.17679907
-0.020650227 0.046727516 -0.04696887 -0.028963195 0.06401558 0.010346039 -0.0039843824 0.07619453
0.14994763 0.079528615 -0.29274905 -0.22811124 0.05335459 -0.025538126 -0.24420665 0.0055455486
-0.2053157 -0.07651694 -0.20565148 0.0913633 -0.040547412 0.06409269 0.06582397 0.09313656
-0.0050664525 -0.013065549 0.082373604 0.10673334 -0.09854533 -0.027561955 0.15739699 0.16140953
-0.029403862 -0.20186447 -0.043195274 0.026723018 -0.18022892 -0.17546113 -0.07496679 0.23876697
-0.09270225 0.087887116 -0.12713538 -0.1305013 0.03958666 0.18355536 -0.10247236 -0.08627921
-0.07251083 0.045029063 -0.006689642 0.0037811967 -0.2098558 0.08470048 0.20288105 0.09341574
0.02022704 -0.12365087 0.097276725 0.054136667 -0.07677817 0.03950321 -0.020723203 0.022224624
0.15438153 -0.1370811 0.034117013 0.20318045 0.06984504 0.12418848 0.11165268 0.029672354
0.14662291 -0.31247908 -0.07933434 0.048430093 -0.097342625 -0.16020454 0.02708125 0.07417549
-0.030561194 0.20436205 0.12793773 -0.06775849 -0.011176589 0.057073057 0.07825489 -0.021878093
0.01691508 0.094326004 -0.1426354 -0.05111796 0.030993855 0.015174972 -0.10365324 -0.15244111
-0.041163463 0.15154876 0.11984029 0.053017672 0.058038525 0.11366361 -0.07052781 0.13460751
-0.2727889 0.1240273 -0.11352612 -0.042563397 -0.17576726 -0.018394014 -0.15954074 -0.14889054
0.03928559 -0.14495075 0.044723768 -0.08540878 0.16753528 0.04812245 0.0768727 0.1617795
-0.2606418 0.029101731 -0.022983307 0.115973234 0.17203665 0.0744227 0.037857052 0.090866625
-0.010792471 -0.009992226 -0.20477256 -0.034417715 0.122958034 0.115375385 -0.13888098 -0.06454276
-0.15359731 0.111040026 0.3391639 0.26911867 -0.019897575 -0.20968387 0.16479951 -0.074132964
0.11892076 0.11300503 -0.06733612 -0.19201995 0.086780414 0.07530166 -0.07548424 0.004103846
0.17146572 0.17210132 0.04031049 0.10510256 0.045629375 -0.068998456 -0.033042222 -0.2705924
00000000: b3e7 823d 8d6e cfbd 2598 823d cd65 8e3d
00000010: 1c30 95bd efad 133d 1d29 633d 808a 333d
00000020: 03a9 3bbe a3ba 123d 751e b1bd 3d7b 06bd
00000030: e606 5bbe 1edd 56be 8fe2 edbd 93cd 7cbd
00000040: 6738 83bd e0b2 98bd e4c3 afbd 1604 21bd
00000050: f0eb 99be dd0c 86bd de87 d63d 9108 e83c
00000060: c8a9 473c beee d73d b9b6 3cbe 8235 b93d
00000070: c4c4 65bc fc03 cd3b 00c3 573d 1e0b 163c
00000080: 7bb5 013e 4c6e 8bbd 22f1 41be e5c6 11be
00000090: e735 2e3e 9103 87bd 8185 44bd 43a3 23be
000000a0: 0201 e13d c5bf b13d 4ef7 223d 52b5 c13d
000000b0: 8a1d 89bd c055 59be 2b5e 3f3d 3f26 993c
000000c0: 151e bd3d b508 95bb e37f 13bd 3a30 a0bd
000000d0: cba5 e53d 7dd9 d6ba ea01 2bbe d32f f93d
000000e0: bdc7 453e c6c6 133e 9dae 9bbd 7655 0e3e
000000f0: bbea 78bd 418c 853d 6c15 7ebd 16a1 eebd
00000100: 846a 5e3e 09e9 6e3e 5750 91bd 5365 173e
00000110: d2f7 a5bd e729 84bd 1917 ac3d 43b7 b1bd
00000120: c529 2b3e ccfb 04bd 954b 193e 4e28 443e
00000130: cf4f 293e 1905 2fbd 58e9 3dbd 8983 b9bc
00000140: 8fae 85bd df2a 2d3d 1fea a43d 1773 393d
00000150: 1e2d 933c 96d7 293e 69f1 9a3d 5981 ad3c
00000160: 12f8 fabd cc02 cdbd d9a8 963d b166 3cbe
00000170: 7239 993c 6879 5abd a100 aebd d10a 353e
00000180: aa2a a9bc 5a65 3f3d 6e62 40bd 3944 edbc
00000190: 9a1a 833d 6f82 293c 6c8f 82bb e10b 9c3d
000001a0: df8b 193e e6df a23d 34e3 95be fe95 69be
000001b0: 588a 5a3d 5535 d1bc 4f11 7abe 6fb7 b53b
000001c0: 473e 52be eab4 9cbd 4d96 52be af1c bb3d
000001d0: 0b15 26bd 0743 833d b8ce 863d 61be be3d
000001e0: 7c04 a6bb e210 56bc 7eb3 a83d 0297 da3d
000001f0: 22d2 c9bd 9cc9 e1bc ad2c 213e 8a48 253e
00000200: 5ee0 f0bc 8fb5 4ebe 87ed 30bd 3bea da3c
00000210: ee8d 38be 15ac 33be 3088 99bd 547f 743e
00000220: adda bdbd 29fe b33d c72f 02be 22a2 05be
00000230: 9f25 223d f0f5 3b3e 07dd d1bd 28b3 b0bd
00000240: 8f80 94bd 6570 383d c934 dbbb f4cd 773b
00000250: 70e4 56be 7277 ad3d 0dc0 4f3e c050 bf3d
00000260: 2db3 a53c ab3c fdbd 0539 c73d 69be 5d3d
00000270: e03d 9dbd 1ece 213d b5c3 a9bc 6a10 b63c
00000280: 3116 1e3e fd5e 0cbe 48be 0b3d 890e 503e
00000290: eb0a 8f3d 8856 fe3d 29aa e43d 7013 f33c
000002a0: 5124 163e 42fd 9fbe 0b7a a2bd a25e 463d
000002b0: 925b c7bd a90c 24be 7fd9 dd3c 52e9 973d
000002c0: 785b fabc 4944 513e 1c02 033e f7c4 8abd
000002d0: 031e 37bc 70c5 693d 1a44 a03d b039 b3bc
000002e0: 7e91 8a3c fe2d c13d 040f 12be 1161 51bd
000002f0: d3e6 fd3c 72a0 783c 2648 d4bd 8619 1cbe
00000300: 059b 28bd 992f 1b3e d36e f53d 0f29 593d
00000310: ceb9 6d3d 77c8 e83d e270 90bd 8dd6 093e
00000320: fdaa 8bbe 0602 fe3d 6280 e8bd f556 2ebd
00000330: 55fc 33be 0baf 96bc a65e 23be c376 18be
00000340: ede9 203d f86d 14be 4530 373d ccea aebd
00000350: 5e8e 2b3e 0c1c 453d 6f6f 9d3d 86a9 253e
00000360: d872 85be c166 ee3c 7d47 bcbc 6083 ed3d
00000370: 602a 303e ee6a 983d ff0f 1b3d 4818 ba3d
00000380: e7d2 30bc 6fb6 23bc e6af 51be 97f9 0cbd
00000390: 6cd1 fb3d ee49 ec3d d136 0ebe ff2e 84bd
000003a0: 9d48 1dbe f468 e33d e4a6 ad3e ecc9 893e
000003b0: 3d00 a3bc 5eb7 56be 34c1 283e 06d3 97bd
000003c0: ba8c f33d 2e6f e73d 85e7 89bd e1a0 44be
000003d0: eeb9 b13d c237 9a3d 7b97 9abd 8e79 863b
000003e0: b694 2f3e 543b 303e 9d1c 253d 0340 d73d
000003f0: dee5 3a3d 104f 8dbd 4857 07bd 168b 8abe

attention_head.value.weight f4 [64, 64]
0.22247434 -0.05912127 0.23715328 0.18263316 -0.12681279 -0.15679719 -0.21823075 0.04301304
-0.3196548 -0.07344861 0.18954314 0.059768084 0.082782745 0.024898482 -0.0113112 0.04574223
-0.15039189 0.20447855 -0.04775598 -0.047012232 -0.059110433 -0.16833463 -0.17587638 0.0051564043
0.021033503 -0.107041016 -0.22258483 0.06423072 0.05341764 0.09576873 -0.014141437 -0.047037266
-0.15813719 0.23795532 -0.13090578 -0.2548175 0.066655375 0.101984054 0.2875168 0.27239054
0.19832347 0.114567846 -0.22835103 0.06927715 -0.3712339 0.17440012 -0.038419634 0.06275082
0.08932922 -0.33629495 0.008352937 -0.042744104 -0.33083144 0.044582017 -0.056244273 0.03519402
0.098768294 0.107211344 0.13062951 -0.13224836 0.0037256868 -0.052940264 0.04816965 0.16183586
0.12995508 -0.13209629 0.06509141 -0.41684705 -0.0949895 -0.05552452 0.03963897 0.079401284
0.28766054 -0.19766316 0.0730424 -0.04379978 0.18849428 -0.025000222 -0.097743556 -0.28492928
0.19241792 -0.2543511 0.10380217 0.09424518 -0.14821053 -0.022340054 0.088261865 -0.072825015
0.1447521 0.06136105 0.18375264 -0.17292455 -0.09121387 0.22134373 0.108391866 -0.03738231
-0.34054923 0.08013344 -0.22829239 0.10731179 0.28466827 -0.2687301 -0.27210757 -0.020433443
-0.28737962 0.029384544 -0.18011798 0.28204972 0.35839173 0.11739053 0.2310508 0.07439515
0.03529883 -0.03676571 -0.103243716 0.047376886 0.19060019 -0.07465135 0.06794561 0.10347747
-0.1985756 0.14219208 -0.067393966 -0.20565806 -0.2712136 0.17548758 0.12995172 0.02973559
-0.15297145 -0.07933143 -0.2109932 -0.012873056 -0.09242646 -0.04269256 -0.19775483 0.39441445
0.21590729 0.07450888 -0.10862649 -0.12915516 0.33395493 0.10986433 0.24185234 -0.12702392
0.3182772 -0.06029252 -0.11219172 0.23367135 0.23930414 0.2546703 -0.31670538 -0.09915756
-0.13724636 0.08986128 0.1642883 0.17712827 0.25655204 0.08477416 -0.022706559 -0.15980464
-0.582234 0.030043967 0.14167552 0.20572756 -0.081215225 -0.35115656 -0.20071337 0.21379362
-0.24383092 -0.08612566 -0.022814596 -0.14226882 0.18670955 0.31403702 0.07111952 0.31286278
0.11772469 0.1656648 -0.42117897 -0.32163355 0.0376593 -0.12698008 0.047838513 -0.017097702
-0.21637861 -0.3390689 0.20935158 -0.16900313 0.26575226 -0.05847108 -0.030005736 -0.1756539
0.05504954 0.061855495 0.2544728 -0.18871619 0.28264883 -0.13913833 0.1963675 -0.26481882
0.25348446 -0.14880477 0.16254364 -0.27357212 -0.17522597 -0.044386383 0.2639193 0.04561847
0.042198706 0.35514876 0.11535786 -0.021693613 -0.4319157 0.36115092 -0.08502385 0.26124048
0.23199053 0.10336652 -0.24365531 0.008118832 0.053469326 0.045220807 -0.25698972 0.02224268
0.09149162 0.062314227 -0.080526434 -0.20663047 0.15230021 -0.10831207 -0.25712246 0.24293798
0.2697287 -0.21257006 0.2432828 0.16536154 0.12489466 -0.008988358 0.15151523 0.010860258
0.060913414 0.06480641 -0.0482659 0.19372675 0.0031172442 0.20754316 -0.11171516 0.31395832
-0.12273419 -0.1915487 -0.23878458 0.048359416 -0.066787176 0.10708192 0.2814313 -0.3053082
00000000: 50d0 633e 2529 72bd 4fd8 723e 3004 3b3e
00000010: 36db 01be 718f 20be e277 5fbe 712e 303d
00000020: cba9 a3be 3a6c 96bd 9917 423e 61cf 743d
00000030: 008a a93d e7f7 cb3c 9d52 39bc 345c 3b3d
00000040: 5500 1abe d362 513e c69b 43bd e68f 40bd
00000050: c81d 72bd ea5f 2cbe f018 34be 0ef7 a83b
00000060: 744e ac3c 5238 dbbd 47ed 63be 658b 833d
00000070: 75cc 5a3d 6522 c43d 7cb1 67bc 26aa 40bd
00000080: b7ee 21be 8faa 733e 2a0c 06be 7077 82be
00000090: 9d82 883d 04dd d03d 6735 933e c676 8b3e
000000a0: 4f15 4b3e 8ca2 ea3d dad4 69be 2ee1 8d3d
000000b0: 5f12 bebe f295 323e e85d 1dbd 8083 803d
000000c0: 3df2 b63d da2e acbe c2da 083c 7114 2fbd
000000d0: bd62 a9be a29b 363d 6560 66bd 9b27 103d
000000e0: 0847 ca3d 9f91 db3d bec3 053e 1d6c 07be
000000f0: a72a 743b e4d7 58bd 8a4d 453d 4db8 253e
00000100: f212 053e 4044 07be a54e 853d fa6c d5be
00000110: db89 c2bd ae6d 63bd 795c 223d 249d a23d
00000120: 3e48 933e 3668 4abe 4197 953d 6667 33bd
00000130: a504 413e 44cd ccbc c62d c8bd 40e2 91be
00000140: 3409 453e 4f3a 82be 3b96 d43d 9e03 c13d
00000150: 80c4 17be 7d02 b7bc a3c2 b43d 4825 95bd
00000160: e539 143e b955 7b3d a729 3c3e 2213 31be
00000170: 56ce babd eea7 623e 8efc dd3d 311e 19bd
00000180: 785c aebe 001d a43d 7bc5 69be 49c6 db3d
00000190: 0ac0 913e fe96 89be af51 8bbe 0964 a7bc
000001a0: 6c23 93be dbb7 f03c d970 38be d268 903e
000001b0: 1f7f b73e 726a f03d 9598 6c3e 7c5c 983d
000001c0: 8295 103d a497 16bd 7171 d3bd 440e 423d
000001d0: b22c 433e cfe2 98bd 1127 8b3d ffeb d33d
000001e0: 6757 4bbe cd9a 113e d905 8abd 0798 52be
000001f0: 82dc 8abe 04b3 333e 1012 053e 0d98 f33c
00000200: 8ca4 1cbe 8478 a2bd 9a0e 58be 83e9 52bc
00000210: 154a bdbd 65de 2ebd 3e80 4abe b1f0 c93e
00000220: cd16 5d3e 1d98 983d 9177 debd 4041 04be
00000230: 24fc aa3e 8d00 e13d 24a8 773e 8f12 02be
00000240: 3bf5 a23e 4af5 76bd c6c4 e5bd 8b47 6f3e
00000250: 250c 753e 2564 823e 3527 a2be 1e13 cbbd
00000260: 4f8a 0cbe 3109 b83d 313b 283e 1d61 353e
00000270: ca5a 833e 139e ad3d 1b03 babc d4a3 23be
00000280: 4a0d 15bf c41e f63c 6313 113e 3faa 523e
00000290: 2b54 a6bd cbca b3be ce87 4dbe b7ec 5a3e
000002a0: d0ae 79be a662 b0bd ade5 babc ebae 11be
000002b0: ca30 3f3e 76c9 a03e 1ca7 913d 8d2f a03e
000002c0: a419 f13d 09a4 293e c5a4 d7be 27ad a4be
000002d0: a340 1a3d 1107 02be 51f2 433d 7b10 8cbc
000002e0: 5b92 5dbe 709a adbe 4360 563e 280f 2dbe
000002f0: ae10 883e 5f7f 6fbd 97ce f5bc 9ede 33be
00000300: a07b 613d 305c 7d3d 424a 823e d13e 41be
00000310: 59b7 903e 477a 0ebe 9014 493e 5596 87be
00000320: b7c8 813e 4760 18be d771 263e a511 8cbe
00000330: 706e 33be 7fce 35bd 6e20 873e 6fda 3a3d
00000340: 8dd8 2c3d 0fd6 b53e be40 ec3d ceb6 b1bc
00000350: 0e24 ddbe c6e8 b83e fc20 aebd 50c1 853e
00000360: ed8e 6d3e d3b1 d33d c780 79be d904 053c
00000370: a702 5b3d 7439 393d 2894 83be 4836 b63c
00000380: f55f bb3d 343d 7f3d 0beb a4bd f096 53be
00000390: 96f4 1b3e b8d2 ddbd 8ea5 83be bcc4 783e
000003a0: e119 8a3e f7ab 59be 201f 793e 8954 293e
000003b0: c6c8 ff3d e843 13bc cf26 1b3e 39ef 313c
000003c0: 5880 793d 39b9 843d 77b2 45bd 4e60 463e
000003d0: ae4a 4c3b 3286 543e ebca e4bd 25bf a03e
000003e0: 105c fbbd 5825 44be f283 74be 8614 463d
000003f0: b7c7 88bd c44d db3d c317 903e 5b51 9cbe

linear_layer.weight f4 [93, 64]
0.040483333 -0.00095473323 0.037981097 -0.06513913 -0.22662582 -0.1045592 -0.16116096 -0.18981788
-0.4424675 -0.028847842 -0.01898782 -0.03737881 -0.0080496725 -0.32960644 -0.26062608 0.19353454
0.045998715 0.2636206 -0.24259733 -0.14871614 0.06402822 -0.090789124 0.19613108 0.13986193
0.17843825 0.04691743 -0.1270723 -0.06968367 -0.34789443 0.12120481 0.26899493 0.36266327
-0.1602058 0.100299016 0.15400277 0.1037995 0.14280128 0.631091 0.0849382 0.30584493
0.08499722 0.074162476 0.078867674 -0.17633697 -0.11614757 0.07653073 0.27229223 0.11251942
0.06714999 -0.23188104 0.032266412 -0.14653018 0.0407268 0.0673911 -0.092208 -0.21597156
-0.44183114 -0.18712258 0.106643304 -0.18456204 -0.22402927 0.16648825 -0.01234733 0.07472248
0.23945752 0.15405957 0.11188246 -0.18270485 -0.09137723 -0.06881888 -0.29085153 0.2412096
-0.24104485 -0.24132532 -0.08685793 -0.22572908 0.08246954 -0.10036906 -0.5263775 0.3008055
0.19917352 0.18547484 0.067377076 -0.29816678 -0.055464927 -0.21230169 0.26232693 0.18731065
-0.18673846 0.038344678 0.08210492 -0.17875026 -0.43953422 -0.0146980025 -0.03439211 0.23310815
-0.15198748 -0.036410257 0.30290687 0.1357494 0.03446275 0.42083788 -0.16373247 -0.08463773
-0.14567623 0.06695583 -0.2441219 -0.04736839 0.21145196 -0.12450773 0.2747302 -0.19489911
-0.2304767 -0.22206931 -0.06328273 -0.3507179 -0.038858566 -0.2123208 -0.09294695 -0.025795115
0.06282584 -0.034836497 -0.16521803 -0.107786 -0.035937108 -0.03321639 0.4155207 -0.09020335
0.14024219 -0.34597883 -0.013989811 0.14182553 0.20148785 0.17511046 -0.07030424 -0.09642457
-0.42647645 -0.20098306 0.16775015 0.00078913325 0.024720877 -0.17713198 -0.024040649 0.050453756
0.023991978 -0.028612543 0.16857532 0.03811799 -0.060685832 0.08289967 -0.36636984 -0.10429492
-0.23505323 -0.09292284 0.14817615 0.21862003 0.12510481 -0.10095025 -0.06310068 -0.13302566
0.0911055 -0.16979197 -0.1060564 -0.14797522 0.13229246 0.65317374 0.3717265 -0.63566977
-0.18366653 -0.23707823 -0.15319422 0.24621566 0.13055713 -0.23985618 -0.19409981 -0.103670545
-0.19869617 0.15530297 0.27735874 -0.0939848 0.016275266 -0.20926087 0.23522414 0.21967854
-0.18093511 -0.12229809 0.023802213 0.25424373 -0.06378531 -0.15022536 0.12806581 -0.029729966
0.26453346 -0.2764615 0.04515116 0.28624368 0.26704553 0.3857901 -0.24446268 -0.11884944
-0.46916708 -0.10693828 0.13887681 -0.047346987 0.14511015 -0.21782632 0.04431323 -0.0045962767
-0.0035434638 -0.18379936 0.14082204 0.14759605 -0.1809083 0.072344005 -0.23357256 -0.16245456
-0.33691797 -0.01980954 0.12799916 0.18030263 0.024894025 -0.26968792 -0.013574386 -0.103903815
0.13769566 -0.2418133 -0.11015344 -0.35600373 0.06429088 0.38953367 0.37908274 -0.608527
-0.067704916 -0.23907842 -0.15140998 0.19444941 0.20830901 -0.2317673 -0.08981258 0.023868224
-0.090254255 0.05509712 0.26935327 -0.25202128 0.19443929 -0.08190603 0.12463631 0.23124523
-0.21082865 0.0022569513 0.01897079 0.17656358 -0.044396542 -0.15852988 0.2686076 -0.03901253
00000000: dad1 253d 1047 7aba 1192 1b3d aa67 85bd
00000010: 9910 68be 2223 d6bd 6107 25be 9e5f 42be
00000020: 1a8b e2be 4f52 ecbc 588c 9bbc 861a 19bd
00000030: c6e2 03bc 2dc2 a8be c870 85be eb2d 463e
00000040: 2669 3c3d 47f9 863e 6f6b 78be 0b49 18be
00000050: 3a21 833d a6ef b9bd 96d6 483e f737 0f3e
00000060: 84b8 363e 7e2c 403d 3e1f 02be 50b6 8ebd
00000070: 381f b2be 3a3a f83d b4b9 893e 00af b93e
00000080: fd0c 24be 9269 cd3d e7b2 1d3e d594 d43d
00000090: 803a 123e 2e8f 213f 14f4 ad3d b597 9c3e
000000a0: 0613 ae3d 7fe2 973d 6085 a13d ae91 34be
000000b0: c7de edbd 25bc 9c3d e369 8b3e 9570 e63d
000000c0: ef85 893d 3972 6dbe c929 043d 020c 16be
000000d0: 25d1 263d 5804 8a3d 8cd7 bcbd a627 5dbe
000000e0: b137 e2be 109d 3fbe ce67 da3d d5fd 3cbe
000000f0: ee67 65be e57b 2a3e 754c 4abc 1908 993d
00000100: 5a34 753e cbc1 1d3e a222 e53d fb16 3bbe
00000110: fc23 bbbd eaf0 8cbd 7eea 94be a6ff 763e
00000120: 76d4 76be fc1d 77be 92e2 b1bd 8625 67be
00000130: cae5 a83d 4b8e cdbd adc0 06bf 2e03 9a3e
00000140: 25f4 4b3e 1eed 3d3e fefc 893d 51a9 98be
00000150: 312f 63bd 9d65 59be b74f 863e 5dce 3f3e
00000160: 5e38 3fbe 4f0f 1d3d a026 a83d 4f0a 37be
00000170: a10a e1be e4cf 70bc bede 0cbd e7b3 6e3e
00000180: 9ba2 1bbe ec22 15bd 9c16 9b3e e401 0b3e
00000190: d028 0d3d 1078 d73e 7ca9 27be 8c56 adbd
000001a0: 262c 15be 2320 893d 17fb 79be 5b05 42bd
000001b0: dd86 583e e9fd febd 70a9 8c3e a293 47be
000001c0: 1602 6cbe 2366 63be 609a 81bd 4c91 b3be
000001d0: 292a 1fbd a06a 59be f85a bebd 4750 d3bc
000001e0: d6aa 803d b7b0 0ebd ea2e 29be e8be dcbd
000001f0: ca32 13bd e90d 08bd 21bf d43e 89bc b8bd
00000200: a69b 0f3e 2324 b1be 8535 65bc b63a 113e
00000210: d552 4e3e 2850 333e abfb 8fbd 3f7a c5bd
00000220: 1f5b dabe 81ce 4dbe b2c6 2b3e d6dd 4e3a
00000230: 7083 ca3c 1662 35be e5f0 c4bc 99a8 4e3d
00000240: d38a c43c da64 eabc 029f 2c3e 9c21 1c3d
00000250: b591 78bd 4dc7 a93d d494 bbbe 9398 d5bd
00000260: cbb1 70be 544e bebd 7dbb 173e eedd 5f3e
00000270: 7a1b 003e 01bf cebd ee3a 81bd e137 08be
00000280: 8595 ba3d f2dd 2dbe 1934 d9bd d186 17be
00000290: ad77 073e 6536 273f f052 be3e 41bb 22bf
000002a0: 1413 3cbe a3c4 72be f2de 1cbe f51f 7c3e
000002b0: c5b0 053e dc9c 75be 1ac2 46be 3951 d4bd
000002c0: 0277 4bbe be07 1f3e f701 8e3e 1a7b c0bd
000002d0: b553 853c 7b48 56be 99de 703e 69f3 603e
000002e0: 0e47 39be 6c77 fabd dcfc c23c 3c2c 823e
000002f0: dfa1 82bd add4 19be af23 033e 428c f3bc
00000300: ee70 873e 5d8c 8dbe 6cf0 383d 888e 923e
00000310: 31ba 883e 4886 c53e 6d54 7abe 5667 f3bd
00000320: ab36 f0be 7502 dbbd b935 0e3e eaee 41bd
00000330: c197 143e dd0d 5fbe ca81 353d 5d9c 96bb
00000340: 7539 68bb e635 3cbe a733 103e 6b23 173e
00000350: 0740 39be 1829 943d a52d 6fbe 7d5a 26be
00000360: 8380 acbe 9e47 a2bc 3612 033e 41a1 383e
00000370: 8eee cb3c 8914 8abe 1a67 5ebc 86cb d4bd
00000380: 1700 0d3e e89d 77be 2098 e1bd 1f46 b6be
00000390: f0aa 833d f570 c73e 2217 c23e 6dc8 1bbf
000003a0: e0a8 8abd f9d0 74be 380b 1bbe bf1d 473e
000003b0: f54e 553e 6854 6dbe a8ef b7bd 4b87 c33c
000003c0: 39d7 b8bd 85ad 613d ace8 893e ef08 81be
000003d0: 181b 473e 59be a7bd 5241 ff3d 8dcb 6c3e
000003e0: 77e3 57be 5ce9 133b a168 9b3c 15cd 343e
000003f0: 26d9 35bd a855 22be ef86 893e 9acb 1fbd

linear_layer.bias f4 [93]
0.057294026 -0.069901116 -0.114701636 -0.06913778 -0.2239317 -0.22425692 -0.13654217 -0.22429729
0.008323498 -0.2093301 -0.07292653 -0.21215147 0.048087433 -0.004663685 -0.091903515 -0.23961368
-0.03867547 -0.16118631 -0.16014081 -0.18993042 0.10374239 -0.29547083 -0.16674967 0.06857338
-0.022240497 -0.072153635 -0.028342655 -0.13438189 -0.26096305 0.05953357 0.031249134 0.07369252
0.09471793 -0.24747927 0.08704685 -0.02685119 -0.055523526 -0.053092405 0.24794473 -0.038467597
0.05523867 0.059575636 0.054191124 -0.04356742 -0.14280035 0.059056778 0.07317331 -0.3125256
-0.043794278 0.24615712 0.02784294 -0.008479828 0.12008425 -0.050986454 -0.18840387 0.01750321
0.088181555 0.1533917 0.122084424 -0.08981534 -0.06446687 0.012162306 0.092892125 -0.11988326
-0.22623126 -0.20056336 -0.01380295 0.016912967 -0.18638219 -0.20847213 -0.28993845 -0.08945874
-0.1821468 -0.111038335 -0.053207766 -0.24511409 -0.030267248 -0.28093496 -0.20616436 0.29802024
-0.3773487 -0.29113716 -0.06623011 -0.16518918 -0.15380418 -0.08672055 -0.23375832 -0.20388544
-0.03782306 -0.14561827 -0.1759386 -0.06548199 -0.19937024
00000000: 24ad 6a3d 5128 8fbd b1e8 eabd 1c98 8dbd
00000010: 5a4e 65be 9ba3 65be b6d1 0bbe 30ae 65be
00000020: 485f 083c a15a 56be 815a 95bd 3c3e 59be
00000030: 54f7 443d d3d1 98bb e937 bcbd 4a5d 75be
00000040: 2b6a 1ebd 060e 25be f4fb 23be 1f7d 42be
00000050: e476 d43d f447 97be 6dc0 2abe 3370 8c3d
00000060: b431 b6bc 49c5 93bd db2e e8bc 689b 09be
00000070: f39c 85be 79d9 733d 2ffe ff3c 1bec 963d
00000080: 79fb c13d 356b 7dbe 9e45 b23d 07f7 dbbc
00000090: a36c 63bd 6c77 59bd 39e5 7d3e 3390 1dbd
000000a0: f241 623d 9505 743d 83f7 5d3d c073 32bd
000000b0: 413a 12be 85e5 713d e3db 953d 5b03 a0be
000000c0: a161 33bd 9d10 7c3e e116 e43c faee 0abc
000000d0: bbee f53d 2cd7 50bd f2ec 40be e462 8f3c
000000e0: 8898 b43d b712 1d3e 6607 fa3d 1bf1 b7bd
000000f0: 3507 84bd 6944 473c 3a3e be3d 5b85 f5bd
00000100: 2ba9 67be 7b60 4dbe c525 62bc 108d 8a3c
00000110: f9da 3ebe b879 55be d072 94be 2536 b7bd
00000120: b184 3abe 1168 e3bd 63f0 59bd 30ff 7abe
00000130: 05f3 f7bc b5d6 8fbe c01c 53be 1c96 983e
00000140: d933 c1be ee0f 95be a7a3 87bd 5a27 29be
00000150: d87e 1dbe 8b9a b1bd 575e 6fbe 58c7 50be
00000160: 5aec 1abd f51c 15be 4029 34be 6c1b 86bd
00000170: b627 4cbe
