models/checkpoints/bigram/Shakespeare-Bigram.pth (torch, 192730 bytes, 3 tensors)

tok_embedding.weight f4 [93, 256]
00000000: f47d 44be d744 13bf 1054 403e 05da 61bf
00000010: 49e0 b53d 7023 383f 66fc 8bbc e1a9 d2be
00000020: 5fd4 8bbe 8136 6e3f 0b97 3cbf e390 ddbe
00000030: a0ac 82be 3d1b b7bf f85d bb3e 08cd 89bf
00000040: 36ba 593f d704 06be ac64 34bf 6372 cebf
00000050: e9c6 b23e 1736 033f 6c6b abbe da29 2abf
00000060: 884c 0dbe babd c2bf b8c1 f93d f988 8a3e
00000070: 1654 b2bf 0c37 3f3f ca77 21bf 5742 9a3f
00000080: 7cdf c6bf 80a0 563f a60b a2bf 4a6d 7bbf
00000090: 6ef6 27bf 41fc a3be e143 10c0 0a1b c83e
000000a0: 957f 663f aab7 a6bd 5111 99be c3de 92bf
000000b0: c6b7 f73f 07f8 87bf 567a a13f 5725 543e
000000c0: a513 d83f feea 4bbe 8166 bcbf f938 03c0
000000d0: 1781 bcbf 3f57 e43e f4a7 a4bf 6028 183f
000000e0: 1dd3 b73f 4fae f13f 11a2 403f 7702 2e3f
000000f0: e349 863d 1119 dbbf 6529 febf 648f 2b3f
00000100: 2f86 743f 7a9e 823f 8f62 153e b909 f4bd
00000110: 28ab a63e 411e 8bbf 080e 143e 0483 333f
00000120: d1c7 633b 4ec4 debe 1dd4 f0bf 3445 683f
00000130: 0c4a 3d3f 4180 e9bd fe12 7fbf 0d3e 4a3f
00000140: 80ae c13d a582 3bbf dfc2 29bf 92b9 42bf
00000150: a5bf ae3e f78f b83e ea7d 97be feb5 3f3e
00000160: d18f 633f 2983 aebf 1901 f7bd ad7e 5bbf
00000170: 7b49 9f3e 674f 2940 797d e2bf 2786 5f3e
00000180: c93f 473f a375 c33f 6723 8fbe a4ad 30be
00000190: 7382 b73f dd30 d13f f992 93bf 1824 98be
000001a0: 360b 37bf 6060 77bd f0e7 dabf 807c 963f
000001b0: e58f 2d3f a1cf cf3c fea4 503c a66b 673f
000001c0: 7f8d 6b3f 03a0 01bf ce19 3140 e074 1040
000001d0: 9f9c 5ebf 1005 27bf 7f38 b93f 6abb 8a3f
000001e0: 25ae 6c3e 1df9 6ebf ec0d eabe 07a7 de3f
000001f0: 5d3f 3d3f 18fc 31bf dc3e 713f 3850 043f
00000200: b790 5ebe 9286 f9be 5a49 e1bf f351 5d3f
00000210: 731c a93f bda2 ac3e 3a6e 1dbf f691 ccbf
00000220: 3ca9 05c0 0ead 283f 9591 3cbf fd34 51bf
00000230: 1dd4 1d3f a76f 0fbf 4288 4f3f d206 873f
00000240: ae7b 25bf 7f06 313e 00e6 023f 5b34 e7bf
00000250: 179f a6bf 35fa 3fbf c79e 673f 8bb1 e43e
00000260: f2dd c9bf 838f b0be 1ce1 833f b280 0ec0
00000270: c9c2 50bf 9209 e2be 7dad 72be 76f6 08c0
00000280: 890c 14be 1ce3 84bf 6786 85bf 648b 443f
00000290: 5330 d23e 8ecb 453e 978d bb3d eca8 143f
000002a0: 526b f7bf e5d7 b1bf e2e2 a33f c8b1 463f
000002b0: 6fda 8bbc 475c 9ebe cd5c 2ebf 4bc1 bd3b
000002c0: d9f2 b53d 2290 27bf abce 35bf 66eb 5dbf
000002d0: 410b c23e f235 87be eea7 36bf 91c6 6e3f
000002e0: 81b7 433f c05c 693e 7e6b 94be ad5e 693f
000002f0: f5fe 60bc 3bb2 0b40 7145 87bf 7859 be3f
00000300: a3a1 61bf 46a6 373f 56e4 bcbe 4db1 df3f
00000310: 519a bd3f ff99 203f 423b 2b3e 303c 62bf
00000320: 61e7 453f 3776 44bf b9e3 d33f 9f63 8abf
00000330: b46a a63c 50d6 6cbf 3232 73bf 0a81 04c0
00000340: b105 363e b34a 93bf 3d0b a1bf 3f2f 55bf
00000350: e4b3 77bf 3597 5c3f 76bf 8ebe a041 663e
00000360: aa76 3b3f a461 fdbe 482c 643f 1973 38bf
00000370: fde9 723f f98a ce3f 1887 b1bd cc4f 82be
00000380: fb95 163f 02c4 533e e85a edbd 1fe6 4640
00000390: a631 9f3e ab96 90be 83dd 8a3f d3aa eb3d
000003a0: 5ebd cd3e 8de6 1ac0 f249 bebf 5b9e 6e3f
000003b0: 16d9 81be 4d1b 0a3e 64ce 94bf 5a63 233e
000003c0: ccfb 9abe 2bbf 073f f2c9 273d 3859 663d
000003d0: e8c4 b53e d11d 333f 4db4 08bf 485e 86bf
000003e0: 5d8f 163d 5ff5 803c d07b 86bf 5ad2 c43d
000003f0: 801d 90bf 4bf3 81be 1309 6d3f d987 d5be
-0.19188672 -0.57526916 0.18782067 -0.88223296 0.088806696 0.71929073 -0.017088126 -0.41145232
-0.27310464 0.93051916 -0.73667973 -0.43274602 -0.25522327 -1.4305187 0.3659513 -1.0765696
0.8504976 -0.13087784 -0.70466113 -1.6128658 0.3491738 0.5125441 -0.33480394 -0.6647011
-0.13798726 -1.521415 0.12195152 0.27057627 -1.3931911 0.7469337 -0.6307341 1.2051495
-1.5536952 0.83838654 -1.2659805 -0.98213637 -0.65610397 -0.32028392 -2.254143 0.3908313
0.90038425 -0.081405 -0.29896024 -1.1474231 1.9352958 -1.0622567 1.2615459 0.20717369
1.6880995 -0.19913861 -1.4718782 -2.0503523 -1.4726895 0.44597813 -1.2863755 0.5943661
1.4361302 1.888132 0.75247294 0.6797251 0.065570615 -1.7117025 -1.9856383 0.6701567
0.9551725 1.0204613 0.14588378 -0.11915917 0.32552457 -1.0868608 0.14458477 0.7012179
0.003475655 -0.43509144 -1.8814732 0.90730596 0.7394111 -0.114014156 -0.99638355 0.7900093
0.09457111 -0.7324622 -0.66312975 -0.7606441 0.34130588 0.36047336 -0.29588252 0.18721768
0.8889132 -1.3633777 -0.12060756 -0.85740167 0.3111075 2.6454713 -1.7694541 0.21828519
0.77831703 1.5270275 -0.27956697 -0.17253739 1.4336685 1.6343037 -1.1529227 -0.29715037
-0.7150148 -0.060394645 -1.7102032 1.1756744 0.6779769 0.02536756 0.01273465 0.90398633
0.9201278 -0.50634784 2.7672 2.2571335 -0.86957735 -0.652421 1.4470366 1.0838444
0.23113306 -0.93348867 -0.45713747 1.7394723 0.7392481 -0.6952529 0.9423654 0.51684904
-0.21734892 -0.48735482 -1.760051 0.8645317 1.3211807 0.3371791 -0.6149632 -1.5982044
-2.0884542 0.6588906 -0.7365964 -0.8172148 0.61651784 -0.5602974 0.8106729 1.0548956
-0.64641845 0.17287634 0.511322 -1.8062853 -1.30173 -0.7499116 0.9047665 0.44666705
-1.5770857 -0.3448449 1.0303073 -2.226605 -0.8154722 -0.44147927 -0.23698993 -2.1400428
-0.14457907 -1.0381808 -1.0431641 0.76775193 0.41052493 0.19315931 0.091578655 0.58070254
-1.9329627 -1.3894011 1.2803614 0.7761502 -0.01707193 -0.30929777 -0.6811035 0.0057908646
0.0888421 -0.65454304 -0.71018475 -0.86687315 0.3789921 -0.26408345 -0.7134999 0.9327174
0.7645188 0.22789288 -0.2898826 0.9116009 -0.0137326615 2.1827533 -1.0568067 1.4871054
-0.88137263 0.7173809 -0.36892956 1.7475983 1.4812719 0.6273498 0.16721824 -0.8837309
0.7730618 -0.7674288 1.655387 -1.0811652 0.020314552 -0.92514515 -0.94998467 -2.070376
0.17775609 -1.1507171 -1.2581555 -0.83275217 -0.96758866 0.86168224 -0.27880448 0.22485971
0.7322794 -0.49488556 0.8913007 -0.72050625 0.9488829 1.6136161 -0.08668345 -0.25451505
0.588226 0.2068024 -0.115896046 3.1077955 0.31092566 -0.2823995 1.084885 0.115071915
0.40183538 -2.4203217 -1.4866316 0.9321038 -0.25360936 0.13486977 -1.1625485 0.15955868
-0.3027023 0.53026074 0.040964074 0.05623743 0.3550179 0.6996737 -0.5340012 -1.0497522
0.036757816 0.015742002 -1.0506535 0.09610434 -1.1259003 -0.2538093 0.9259197 -0.41705206

linear_layer.weight f4 [93, 256]
00000000: 9431 0ebe f2df 8e3d ccb9 bf3d ec2a 723d
00000010: aed5 74bd c320 b53d 5e12 003e c777 d63d
00000020: 24d2 2d3e c9cb cb3c 23a0 9bbd 510f 99bd
00000030: bd94 613c faf5 433e 7e76 233e 692d 963d
00000040: f9b7 003e cf2a 5dbd 8444 543c 0bc5 fabd
00000050: 1049 043d 582c 203e 44c5 193e d6e1 0a3d
00000060: d128 ad3d 011d dd3d 3a0e 2b3d e69a ba3d
00000070: 125d 38bc ffcc e7bd 988d ca3d 8def c3bd
00000080: 1cd6 ba3c 4172 8abd dd11 2cbd 43fa f2bd
00000090: 390a 943d 8037 7e3d 0945 723c b75e 703d
000000a0: ce2b b6bd 5645 a13c b0a3 48bb f024 a3bd
000000b0: f000 7ebd 6862 8d3d 25f5 093e 4e69 a1bd
000000c0: c923 653d 43c4 813c 184c d53d b6a4 9cbd
000000d0: d152 cebd 6eee dc3d 5f7c 263d b6ac 1d3e
000000e0: 1a12 f2bd 086e 5cbc 02d8 0a3d 129e 93bd
000000f0: 192c 023e a770 1d3c a5bb 063e ff27 cc3b
00000100: 0711 86bd 525c c53c 0608 fe3c 23c8 c1bc
00000110: d172 c73d a4cc d6bd c363 0cbd ec1f dfbd
00000120: 06ab 9f3d 38df c23d 7ad3 a63d 592b f23d
00000130: caeb 013e cfe1 abbd 3eac f6bc e8d3 bbbd
00000140: 1eaf ee3a 6b2f a2bd acab d03c 3059 28be
00000150: d8a8 cfbc adb6 ff3c 0676 7bbd 3650 a83d
00000160: c74c 12bd dc9d 9f3d a4a2 4ebe 5ae4 0e3d
00000170: 3017 47bc f101 223d 2c98 0f3e 81d7 c33d
00000180: 95d1 a33d bb8a 463d 990f 60bc a48a 21be
00000190: adc8 20be 663b 713d 4f64 9c3d 0651 9fbc
000001a0: 84c9 18be 9dca a83d c3e9 ccbd 4e3f 93bd
000001b0: 219b 88bd 83d4 c0bd 67e4 053d 6887 12be
000001c0: 2358 a53d 449f c13d 2647 02bd 3c3c 0bbe
000001d0: a13f cfbd 0c1d 473d 8e6c 443d e7d7 fbbd
000001e0: 58d1 b23d 3fb0 e4bd b21c 193e 9549 5abd
000001f0: 757b 203d 6f86 ba3d 7bab 88be dfd2 e5bd
00000200: f0df a93d 03fb b53d ff80 203e d3c3 b9bd
00000210: a85f 64bd 6378 993d 484e cc3d 385a 21bd
00000220: 5ae5 14bc 0ad0 08be 68ea 18bd fab7 043e
00000230: 0fc3 4abd 6766 cabc f97c 033e 5d5a b6bd
00000240: 1626 08be bf2a e1bd a42b abbd 0e48 433d
00000250: a1a5 babb af53 fa3c 6986 a6ba 6102 ccbc
00000260: 2d3a 11ba 0d61 6e3e 4b14 a4bd 6591 c93b
00000270: cae6 d9bd 8445 c2bd 8ca1 eb3d d56b fcbc
00000280: be69 d03d d334 9e3c efa5 51bd c171 89bd
00000290: ee36 4cbc 7ee7 463e 4ed1 1fbe bbc0 0abe
000002a0: 575e 7fbd 4b45 1e3b 0c57 8f3c 50c5 e13d
000002b0: 2168 6e3d b6b3 1fbe fe98 063e 1f42 40bd
000002c0: ed7e 76be 7ca8 26bd 7972 313d 56bd 483d
000002d0: ddc6 e73b ce5b 40bc 53a4 39bd 3374 823d
000002e0: 8e6b 5a3d b73c 23bc 483e 9b3d e1b8 573d
000002f0: b84f 06be 7a7c 093d c507 803c 36e9 353d
00000300: cd5e c2bd 35e2 8fbd 0534 67bd 0612 493d
00000310: 1856 ab3d 29c0 a43c ffa1 4fbd 78a6 9dbd
00000320: 779f f23d d57f c23d d028 9fbb 3726 a33d
00000330: 940e 5cbc c34b b3bd 26e5 08be a625 493e
00000340: 1f3b 75bd 7d4d 96bd cccb 053e 92f4 0abd
00000350: 0dbe d73d 1084 eb3d 98eb 0cbe f286 02be
00000360: a39d 28be 5084 10bd 0557 a03d 4f5e 183e
00000370: 33ee 10bc 677a 61be 81f3 64bd 76ae 2a3e
00000380: e66f 9c3d 9c27 473c a924 c03c e4ba 95bc
00000390: 6f90 3fbd f0d6 043e e414 45bd 3a40 313d
000003a0: dda4 1f3d dae2 df3c 2520 913d 24fc ad3d
000003b0: 1ae6 a2bd 6fca eb3c acc5 90bd 4661 9a3c
000003c0: 18f9 41bd be4c 833d 5bf7 c43d ae8a 0a3e
000003d0: 0e48 9dbd 8603 11bd f17f 3c3c 11b6 1bbd
000003e0: 92ce 4d3d 2e96 79bc b9c8 26bd 50bc 22bd
000003f0: c136 cb3d e0cf 33bd fb76 49bc af9d 083e
-0.138861 0.06976308 0.0936161 0.059122965 -0.059774093 0.088441394 0.12507007 0.104720645
0.16974694 0.024877446 -0.07598903 -0.074736245 0.013768372 0.19136801 0.1596317 0.0733288
0.1257018 -0.053995904 0.0129557885 -0.12244614 0.03229624 0.15641916 0.15016657 0.03390678
0.08455051 0.10796548 0.041761614 0.09111576 -0.011252658 -0.11318397 0.09890288 -0.09567175
0.022807173 -0.067600735 -0.042009223 -0.1186414 0.07228512 0.062064648 0.014786967 0.058684077
-0.08895074 0.019686382 -0.0030615143 -0.0796603 -0.062012613 0.06903535 0.13472421 -0.078814134
0.05594233 0.015840655 0.10414904 -0.076486036 -0.1007439 0.10787664 0.040645953 0.15397915
-0.11819859 -0.013453968 0.033897407 -0.07207884 0.12712134 0.009609378 0.13157518 0.006230354
-0.065462165 0.024091873 0.031009685 -0.023655003 0.09738696 -0.10488251 -0.034274828 -0.108947605
0.07796292 0.09515232 0.08145805 0.11824674 0.12687603 -0.08392679 -0.030111428 -0.09171277
0.0018210148 -0.079192005 0.025472485 -0.16440272 -0.025349066 0.031215036 -0.061391853 0.08218424
-0.03571775 0.07793781 -0.2017923 0.03488574 -0.012151524 0.039552633 0.14022893 0.095625885
0.07998959 0.048472147 -0.013675594 -0.15775543 -0.15701552 0.058894537 0.0763632 -0.019447815
-0.14920622 0.082417704 -0.10005524 -0.07189809 -0.066702135 -0.094155334 0.032688525 -0.14309466
0.08073451 0.09454206 -0.031806134 -0.13597196 -0.10119558 0.048611686 0.04795509 -0.122970395
0.087313354 -0.11166429 0.14952353 -0.05329283 0.039180238 0.091076724 -0.2669333 -0.11221861
0.08294666 0.08885767 0.15674208 -0.09070554 -0.055755287 0.07493665 0.099758685 -0.03939268
-0.009087885 -0.1336061 -0.037332922 0.12960806 -0.04950243 -0.024707032 0.12840642 -0.08903954
-0.13295779 -0.10994481 -0.08357933 0.04767614 -0.005696014 0.030557482 -0.0012704852 -0.024903478
-0.000553998 0.2327921 -0.08011683 0.0061513656 -0.10639723 -0.09485915 0.11505422 -0.030813137
0.10176419 0.019312298 -0.051183637 -0.0671115 -0.012464268 0.19424245 -0.15607187 -0.13550083
-0.06234583 0.0024150189 0.017497562 0.110239625 0.058204774 -0.15595898 0.131443 -0.046938058
-0.24071856 -0.040688023 0.04332206 0.04900869 0.007073267 -0.011740638 -0.045322727 0.063698195
0.05332523 -0.009963206 0.075802386 0.05266655 -0.13116348 0.033565976 0.015628705 0.04441186
-0.09490738 -0.070255674 -0.056446094 0.049089454 0.083660305 0.02011116 -0.0506916 -0.07697767
0.11846822 0.09497038 -0.00485716 0.07966273 -0.01343121 -0.08754685 -0.13368663 0.19643268
-0.059870835 -0.073389985 0.13066024 -0.033924647 0.10534296 0.11499798 -0.13761747 -0.1274679
-0.16466384 -0.035282433 0.07829098 0.14879726 -0.008845854 -0.22019349 -0.055896286 0.16668114
0.076385304 0.01215544 0.02345498 -0.018277593 -0.046768602 0.12972617 -0.048115626 0.04327414
0.038975585 0.027329851 0.07086209 0.08495358 -0.07954045 0.028783051 -0.07068953 0.018845212
-0.047356695 0.06411122 0.09617492 0.13529465 -0.07679759 -0.03540375 0.011505113 -0.03801543
0.05024583 -0.0152335595 -0.040718768 -0.03973037 0.09922553 -0.043899417 -0.012296434 0.13341402

linear_layer.bias f4 [93]
00000000: c9e0 e83d f4b1 a93d 95b2 68bd b096 24be
00000010: 6bd0 29be 4d7a 02be a25c 80bd 8ecf 22be
00000020: aa74 47bd d0e3 eebd 6872 24be d2fe eebd
00000030: 8225 d8bd 1798 cabd f963 18be bc64 86bd
00000040: f8c7 ba3b 252f 4bbd 9710 04bd 59e8 e1bd
00000050: d908 27bd 426c 04be ec56 bdbd cc55 93bd
00000060: f543 efbc 3ad8 bebd a149 3b3c a700 71bd
00000070: 1d09 d8bd 096d d0bd b44e bdbc 2597 b9bd
00000080: e721 d4bd 8e08 6cbd ab02 70bd 1a45 6dbd
00000090: 7386 07be 4aa0 5ebd 6bed a83d 19ab 303b
000000a0: 07df 84bd 4b79 873d a3e7 be3d b095 a83c
000000b0: f59e cbbd dd29 a53c bcb6 ee3d ee6f 9dbd
000000c0: d4f1 c9bc b7fa b13d cd36 6abd 7de3 f23b
000000d0: d660 c93d d8fa b2bd f1a4 f0bd 625a cf3c
000000e0: 3ce0 063c 61bf 493d c961 ef3d 45ed 90bd
000000f0: 38fa 49bd 7cda 80bd 1a0b d83d 05da 38bd
00000100: e302 0fba 85cf 50bd 7bb4 c3bd d8eb 02be
00000110: d7ed 20be 2708 aebd f3ff 273d edc7 bcbd
00000120: 0c73 edbd d0f1 00be a9a3 5cbd 7dee a13d
00000130: 6920 933c bc0d bcbc f307 93bd 510a a73d
00000140: be90 dabd cd86 54bd fa6a dfbd 88f0 21be
00000150: eb43 27be 4214 ccbd 87f4 1abe fb95 92bd
00000160: bb58 17be 71b1 afbd 2603 a3bd d7bc cebd
00000170: bf19 8abd
0.11370999 0.08285895 -0.056810934 -0.16073108 -0.16583411 -0.12741967 -0.06267668 -0.15899488
-0.048695244 -0.116645455 -0.16059268 -0.11669697 -0.10554029 -0.0989229 -0.14881887 -0.06562182
0.0057001077 -0.049605507 -0.032242384 -0.11030645 -0.040779922 -0.12931922 -0.09245095 -0.07194099
-0.02920721 -0.09318586 0.011431129 -0.058838513 -0.10548613 -0.10177047 -0.023108818 -0.09062032
-0.10358029 -0.057625346 -0.058596294 -0.05792723 -0.13234882 -0.054352082 0.08248409 0.002695745
-0.064878516 0.06614932 0.09321525 0.020579189 -0.09942428 0.020161564 0.116559476 -0.076873645
-0.024651445 0.08690398 -0.05718117 0.0074123726 0.09832923 -0.08739251 -0.1175021 0.025311653
0.008232173 0.04925478 0.11688573 -0.070765056 -0.049310893 -0.062916726 0.105489925 -0.045129795
-0.0005455447 -0.050979156 -0.09555908 -0.1278528 -0.15715729 -0.08497649 0.041015577 -0.0921782
-0.11594209 -0.12592244 -0.053867016 0.07906816 0.01795979 -0.022955768 -0.071792506 0.081562646
-0.10672139 -0.05188637 -0.10909076 -0.15814412 -0.16334502 -0.09964801 -0.15132342 -0.07157513
-0.14779942 -0.08578766 -0.07959585 -0.10094612 -0.06743192
