models/checkpoints/bigram/shakespeare_model.pth (torch, 112888 bytes, 8 tensors)

tok_embedding.weight f4 [93, 64]
000000 f3 22 b3 bf 9b 7e 7b bf 2b de 85 bf cd 7a d2 3f
       -1.3995041 -0.9824006 -1.0458425 1.6443726
000010 0e e8 02 c0 73 ea 47 be 77 5e 73 bd ae bb 20 3f
       -2.0454135 -0.19523029 -0.05941626 0.62786376
000020 96 9d 73 bf c4 9c 3f 3d 0d ec 83 bf df 44 cc 3b
       -0.9516233 0.046780363 -1.0306412 0.006233796
000030 10 20 70 bf 88 f4 16 3f da 53 5c be 91 16 27 3f
       -0.93798923 0.58966875 -0.21516362 0.6526881
000040 66 f5 91 bf f9 e4 76 bf c6 7d 14 3f 39 c7 92 bf
       -1.1403015 -0.96443135 0.58004415 -1.1467048
000050 67 35 7a bf 22 48 a8 3f ed dc 9a bf 44 3c 85 bd
       -0.97737736 1.3147013 -1.2098671 -0.065056354
000060 8d 55 de be 50 35 06 3f 86 c3 e2 3f 81 2d e2 bf
       -0.43424645 0.524251 1.7715919 -1.7670137
000070 a3 b0 bf bf 10 59 32 bf 1c 85 5c bf 5b fb d7 be
       -1.497578 -0.6966715 -0.8614061 -0.42183957
000080 b1 b5 5f bf c2 da e2 be 17 a0 1c bf 39 7b 3e 3f
       -0.87386614 -0.44307524 -0.6118178 0.7440677
000090 d4 41 f5 3d 11 95 fb 3f ff 1f 03 bd 03 74 b0 3e
       0.11975446 1.9654866 -0.032012936 0.3446351
0000a0 b3 77 bd 3e 42 bb 40 be 53 0a c6 3e 92 cc 06 40
       0.37005386 -0.18821433 0.38679752 2.106236
0000b0 fb 94 cf 3f 1e 95 74 3d 06 3d c1 be 0c c6 83 be
       1.621734 0.05971252 -0.3774187 -0.25737035
0000c0 bc 64 a2 bf da 5f 9e bf fc ec 8a bf 2e 58 90 3f
       -1.2686992 -1.2373002 -1.0853572 1.127691
0000d0 94 d7 27 3f 98 c9 2c 3f e0 e4 fd be 5f 4b c8 3f
       0.6556332 0.6749511 -0.4958868 1.5648001
0000e0 b1 53 17 3d 67 ff 26 bf 87 6a 00 3e 80 5f 98 3d
       0.03694505 -0.65233463 0.12540637 0.0744009
0000f0 c7 c7 53 bf 4b 77 34 3e a2 14 ea 3f e4 39 c7 bf
       -0.8272671 0.17623632 1.8287547 -1.5564542
000100 88 0d 3b bf 85 cf 2a c0 fb 54 2c 3f 30 24 00 bf
       -0.7306752 -2.668916 0.6731717 -0.5005522
000110 3a 7e e8 be 20 35 e3 be f3 19 32 3f 1b 5f 34 bf
       -0.45408803 -0.4437647 0.69570845 -0.7045762
000120 1d cb b0 3f 6d 65 16 3e 93 9b 95 3e 3e a3 f1 3f
       1.3811985 0.14687128 0.29220256 1.8877943
000130 ac 9a 01 3f 7f 80 77 3f 28 18 00 bf 5e b4 3f 3f
       0.50626636 0.96680444 -0.5003686 0.74884593
000140 04 0b d3 3e 43 0f 2e bf 8b 31 2f bf 81 44 ce bf
       0.41219342 -0.6799204 -0.6843497 -1.6114656
000150 e1 aa 1d bf b6 c9 ac 3f a4 81 89 3f a5 cc f3 3e
       -0.61588866 1.3499057 1.0742688 0.4761707
000160 3c 39 99 be 6b a4 92 3f 7e 3a b8 3e 3d 43 16 bf
       -0.2992648 1.1456426 0.35982126 -0.5869635
000170 7e 85 f2 be ff cb 0b bd 1a a5 85 3f c4 ad 15 bf
       -0.4736747 -0.034130093 1.044101 -0.5846827
000180 81 d3 9c bf a4 fa 0b 3f ab 41 1f bf a7 48 d8 3e
       -1.2252046 0.5467932 -0.62209576 0.4224293
000190 b9 6d 06 3f ea df 39 3f 57 98 9c bf 5b a8 8c 3e
       0.52511173 0.7260729 -1.223399 0.27472195
0001a0 e0 e8 54 3f e2 e8 5d 3f 2d 60 b0 bf 40 e5 a1 3f
       0.8316784 0.86683476 -1.377935 1.2648087
0001b0 c3 42 a6 bd 00 16 35 3f 76 a5 9e 3e 27 5b 02 40
       -0.081182025 0.70736694 0.30985612 2.0368135
0001c0 b8 65 99 be b7 e6 fb bf e8 15 cf be 23 a0 b1 3e
       -0.29960418 -1.9679784 -0.404464 0.34692487
0001d0 38 01 62 bf ea b2 84 bf 80 6f e9 bf 71 0f 08 40
       -0.8828311 -1.03671 -1.8237152 2.1259425
0001e0 44 7e f6 3e d3 a7 b7 3f 47 b8 32 3f be 61 e3 3f
       0.48143208 1.4348091 0.69812435 1.7764204
0001f0 03 99 d5 bf dd 23 06 3f 92 68 1b 3f 27 b9 cb 3f
       -1.668732 0.52398473 0.60706437 1.5915879
000200 b2 ec 68 bf 1f 7d 2d 3f 79 e1 81 bf fe ff 1d 3f
       -0.9098617 0.67769045 -1.0146934 0.6171874
000210 ac 5c 53 bf 66 51 96 3c a4 40 2c 3f 23 c5 18 3f
       -0.8256328 0.01834936 0.67286134 0.59675807
000220 90 f4 1d c0 71 31 ef 3e 32 28 80 bf 8f 13 42 3f
       -2.468052 0.46717408 -1.0012267 0.75811094
000230 d0 3a 3e 3e c1 1c 0b be 74 8a b0 bf c2 19 82 bf
       0.18577123 -0.13585187 -1.3792253 -1.0164111
000240 4f 32 55 bf 16 cc 2c 3e 4a f4 56 bf 8e 3d 81 bf
       -0.8327989 0.16874728 -0.83966506 -1.009691
000250 73 56 57 bf 38 c5 2a bf 8d a7 68 bf b5 20 48 be
       -0.84116286 -0.6670718 -0.9088066 -0.19543727
000260 e7 9f 8e 3f 62 48 3e 3f 61 51 86 3d 3c e5 be bf
       1.1142548 0.743292 0.065584905 -1.4913707
000270 51 48 86 be db 99 4e 3f b4 21 11 bf 8a c0 58 3e
       -0.26227048 0.80703515 -0.5669205 0.21167198
000280 a4 55 68 3e 36 35 d2 bf 47 7f ff be a2 28 75 bf
       0.2268892 -1.6422489 -0.49901792 -0.95765126
000290 44 1f 03 3f 65 02 95 3e c4 db 3e be 69 f7 82 3e
       0.5121958 0.2910339 -0.18638521 0.25579384
0002a0 44 0c b7 be 7a a9 de 3d 60 5b 22 c0 b9 bb 8c 3e
       -0.35751545 0.10872169 -2.536827 0.2748697
0002b0 6c af ff be 6a aa 8a 3f 33 9d 82 3f 15 eb 35 3f
       -0.49938524 1.0833256 1.0204223 0.7106183
0002c0 65 6f d5 bd a5 0f 1a 3f e5 64 f7 3d 5e c8 ec 3f
       -0.104216374 0.6018012 0.12079791 1.8498647
0002d0 c7 d8 29 3f ce 12 e8 be 97 7f 1a c0 f2 18 35 bf
       0.663464 -0.45326847 -2.4140375 -0.7074119
0002e0 85 0b 8c bf cb 26 f0 be 5c 0b e9 3f 7e 59 05 3d
       -1.0941015 -0.46904597 1.8206592 0.03255605
0002f0 92 42 b4 3f 80 80 b2 be a4 e3 da 3f 3f 17 de be
       1.4082816 -0.34863663 1.710072 -0.4337711
000300 f7 df 13 3f a9 28 5b 3f 8a 72 2b 3f cf 6b 16 3f
       0.5776362 0.8560892 0.6697165 0.5875825
000310 c1 de 86 3e 21 d2 a9 be 09 d3 bf bf c0 e2 2d be
       0.26341823 -0.33168128 -1.4986278 -0.1698103
000320 37 2f 95 3f ee af 3a bf 23 57 a3 bf 8f 95 5a 3f
       1.1655034 -0.729247 -1.2760967 0.8538446
000330 34 58 7c 3f 3e 33 0d 3f f5 f4 b6 bf 46 a2 21 40
       0.9857209 0.55156314 -1.4293505 2.5255294
000340 d8 6e 54 3f ea b0 61 be d0 1e c5 bf bb 35 91 bd
       0.82981634 -0.22040144 -1.5400028 -0.070903264
000350 67 f1 da 3f 40 35 bf 3e 13 51 0b 3d 43 a4 00 c0
       1.710492 0.37345314 0.034012865 -2.0100257
000360 bd dc 92 3f c0 cb a0 3f 0e f3 63 3e fe cb 4e 3f
       1.1473614 1.256218 0.22260687 0.8078002
000370 4b ff 00 3f 96 2a d6 be ab 48 54 3f 06 d8 3d 3f
       0.50389546 -0.41829365 0.8292338 0.7415775
000380 a6 da c1 3f 26 e3 0e 3f 63 2f 75 bf 86 b2 7b bf
       1.5144851 0.5581535 -0.9577543 -0.9831928
000390 39 78 27 bf da e5 7f be 52 a9 05 be b1 7b 0e bf
       -0.6541782 -0.24990025 -0.13052872 -0.5565749
0003a0 57 b7 e2 be 45 8e 0c 3f 51 94 f8 be c7 7c 9e 3f
       -0.44280502 0.54904586 -0.48550656 1.2381829
0003b0 3e f9 f8 be 44 c2 20 3f 92 f5 e0 be c8 ed 95 3f
       -0.48627657 0.62796426 -0.43937355 1.171319
0003c0 d5 58 cc bf ec fa 1d 3f d5 5d 9c 3f 19 51 c8 be
       -1.5964609 0.61711 1.2216135 -0.39124373
0003d0 ce be 3f 3f 3f ee 05 3f 6e b7 91 bf 8e 4f 3c 3f
       0.7490052 0.5231666 -1.1384103 0.7355889
0003e0 75 49 be 3f 4d b0 61 3d 95 76 03 bf 60 5d e3 3d
       1.4866167 0.055099774 -0.51352817 0.11101794
0003f0 bf eb 1d bf 2f 2c db be 2f 85 52 3f 9f 84 d2 be
       -0.61687845 -0.42807147 0.8223447 -0.41116807

pos_embedding.weight f4 [32, 64]
000000 34 ee c2 bf 29 9a 98 bf 9c a4 bc bf 6f 92 3d bf
       -1.5228944 -1.1922046 -1.4737735 -0.74051565
000010 a7 7b d9 bf c5 79 6a 3f ee bb 98 3e c9 cc d7 3f
       -1.6990861 0.91592056 0.2983088 1.685937
000020 3d 83 66 bf 2c a0 fa 3d 2a 2b 50 3f d6 cc e4 be
       -0.90044004 0.122375816 0.81315863 -0.44687527
000030 20 37 e6 3e 7a 53 e4 3e c1 fa 10 3f 18 89 03 3e
       0.44963932 0.44594938 0.5663262 0.12845266
000040 41 97 14 3e 71 c8 88 bf 41 9e e5 bf da fa 28 bf
       0.14510824 -1.068617 -1.793892 -0.6600777
000050 e8 43 2c 3f b1 f9 28 3f 60 cf f9 3e 6d 60 20 3f
       0.67291117 0.66006 0.48791027 0.62647134
000060 a5 08 23 3f d6 3a 5b 3f 24 17 96 be 8d c5 15 bf
       0.63685066 0.8563665 -0.2931453 -0.58504564
000070 cf 7f 44 3f 66 e0 95 3e 28 30 eb 3f f0 1c 09 c0
       0.7675752 0.29272765 1.8374071 -2.1423912
000080 e4 bd 20 3f a0 e2 b1 be ff f8 c8 bf 6e 7c 6b bf
       0.6278975 -0.34743214 -1.5700988 -0.9198674
000090 be a2 30 3e 0f 2d df 3e 96 e7 ab bf 7f 1d 09 3f
       0.17249581 0.43589064 -1.343005 0.5356063
0000a0 48 4b d3 3c 98 53 49 bf 24 15 e7 3d 79 4d ab 3e
       0.025792733 -0.7864318 0.11283329 0.33457544
0000b0 e9 5d 74 bf 48 13 54 3f 1b 70 c3 3f c8 98 91 bf
       -0.95455796 0.8284192 1.5268587 -1.137475
0000c0 d8 e1 a3 3e d6 12 f3 3f 14 97 e8 3e 91 57 78 be
       0.32008243 1.8990123 0.45427763 -0.24252154
0000d0 0d a8 c7 3e 0b 70 99 bd 8b bb 53 bf 18 71 94 be
       0.389954 -0.074920736 -0.8270804 -0.28992534
0000e0 02 19 15 40 30 ed 8b bf 34 5e 20 c0 8e 32 31 3e
       2.3296514 -1.0931759 -2.5057497 0.17304441
0000f0 f8 a6 02 3f 5b 11 b3 bf 12 9e 39 bd 8b 8f 9f 3e
       0.51036024 -1.3989671 -0.045316763 0.31164202
000100 3b fb 5f 3f 5f b2 2b bf 65 47 73 3d 33 93 81 be
       0.8749272 -0.6706905 0.05939426 -0.25307617
000110 c6 16 64 be 45 29 8d be cc 6c 93 3e 4f ad bd 3f
       -0.22274312 -0.2757055 0.28793943 1.4818515
000120 d2 50 70 bc 33 69 5c 3e e5 e8 b8 bf de e0 95 3e
       -0.014667707 0.21524505 -1.4446074 0.29273123
000130 93 14 0a 3e 5d 63 11 bf 93 4e ca bd 10 15 0c 40
       0.13484411 -0.5679224 -0.09878268 2.1887856
000140 1a 6a 3d 3f 20 b4 82 bf 90 ef 11 bf 34 d8 3c bf
       0.73990023 -1.021122 -0.5700617 -0.737674
000150 2e f9 2b bf ad d2 2b 3f c1 15 90 bf 0a 55 b2 3e
       -0.67177093 0.6711834 -1.1256639 0.34830505
000160 53 64 b5 3f 15 cc c8 3f c2 d4 c8 3e 2a 9a bd bf
       1.4171242 1.5687281 0.3922482 -1.4812672
000170 9e 11 6d 3e 33 d6 96 bf 1c 7b 82 3f 42 23 a1 bf
       0.23151252 -1.1784118 1.019382 -1.2588885
000180 a3 3c f2 3c fe d8 34 bf d1 14 74 bf 09 66 83 3f
       0.02956993 -0.70643604 -0.95344263 1.0265514
000190 04 4c e9 3f 09 49 31 3f 1d c2 a3 3f c3 f7 06 bf
       1.8226323 0.6925207 1.2793614 -0.52721804
0001a0 ba 0a d3 3e 95 de ae be c4 97 0b 40 cc ae 8e 3f
       0.4121912 -0.34154192 2.181138 1.1147094
0001b0 52 b6 cc bf 05 cd ab 3e 5f e7 1e bf 98 ac 2c 3f
       -1.599314 0.33554855 -0.62071794 0.6745086
0001c0 88 d1 da 3f ed 45 e2 3f 4a 16 72 bf 7e d3 15 bf
       1.7095194 1.767759 -0.9456526 -0.58525836
0001d0 a4 22 1e 3f 7a f4 8b 3e 91 df c3 3d c5 8d 6e bf
       0.6177161 0.27334958 0.09564126 -0.93185073
0001e0 ab 1d d9 3c 12 29 44 3f 35 a7 cd 3d 51 4e cb bf
       0.026503405 0.7662517 0.10041658 -1.5883275
0001f0 0f 63 1d bf 72 4f 41 bf ab f7 00 c0 12 8a 28 3d
       -0.61479276 -0.7551185 -2.0151165 0.0411473
000200 de 61 a7 bf 44 c1 2c bf 0a ab b1 bf be 7a b9 bf
       -1.3076742 -0.674824 -1.3880322 -1.4490583
000210 90 3b 8b 3e 10 29 e9 be a7 91 8d be d1 07 f9 3e
       0.2719388 -0.4553914 -0.27650186 0.48638776
000220 0c 0d d5 3e 32 db 8c bf 84 d2 1f bf 37 bf a0 3f
       0.41611516 -1.1004393 -0.62430596 1.2558354
000230 e2 d8 c4 bf ac 5c 18 3f 82 6c 05 bf f5 f6 18 3f
       -1.5378687 0.59516406 -0.52118695 0.59751827
000240 71 e7 3a 3f 11 f6 df 3f cc ed 68 bf 1e b6 99 bf
       0.730094 1.7496969 -0.9098785 -1.2008703
000250 da 7a 63 be 1c 03 8f be 3d c0 4d bb d2 7b 8d bf
       -0.22214833 -0.2793206 -0.00313951 -1.1053412
000260 c4 da 27 3f 30 88 28 be a2 e4 23 bf 2f 64 8d 3f
       0.65568185 -0.16458201 -0.6402074 1.1046199
000270 d7 f0 65 bf 55 4d 93 bf 63 15 fe 3d b2 7e dd be
       -0.8982062 -1.1507975 0.12406423 -0.43260723
000280 06 16 e0 be df b3 23 3f 84 e0 fb bf 0e 29 7b 3f
       -0.43766803 0.63946337 -1.9677892 0.9810952
000290 a5 22 90 3f 41 1b c1 be 95 e7 84 bf 0e f0 4b be
       1.1260573 -0.37716106 -1.0383173 -0.19915792
0002a0 0c 9a 52 be 4b 78 28 3f d3 dc 1b bf c3 0a 25 3e
       -0.20566577 0.6580855 -0.60883826 0.16117387
0002b0 24 93 6a bf f8 16 d0 bf 5c 6e 88 be 3c a1 22 be
       -0.9163077 -1.625701 -0.26646698 -0.15881819
0002c0 94 08 c3 3f 69 fb 2f 3f 30 0e b8 be 24 89 2c 3d
       1.5236993 0.68742996 -0.35948324 0.042122975
0002d0 f2 a9 03 3e 0f 9d b5 be dc 1e 7b bf 8f 17 b2 bf
       0.12857798 -0.3547139 -0.9809396 -1.391344
0002e0 16 03 09 bf ac f1 39 3f bd 26 bc 3f c5 fc 84 bf
       -0.53520334 0.72634387 1.4699322 -1.0389639
0002f0 27 11 9c 3d ce 84 c8 3e 9b 05 a9 bf f3 75 9e bf
       0.07620459 0.39163822 -1.3204836 -1.2379745
000300 13 b5 65 bf 3f 9a 60 bf 6d 57 86 3f 50 b3 05 bf
       -0.8972942 -0.8773536 1.049543 -0.52226734
000310 4c 27 18 3e 3a dd 83 3f 0f 91 2a be f4 ed 21 3f
       0.1485874 1.0301888 -0.16656898 0.6325371
000320 20 25 b4 be ac 1a 17 bf 9b 29 3a c0 76 98 68 3f
       -0.35184574 -0.59025073 -2.9087894 0.90857637
000330 f5 c6 28 be 6c a0 56 bf a5 59 4b 3f 52 fb 7a 3f
       -0.16482146 -0.83838534 0.7943366 0.98039734
000340 d4 cb 67 be 5b c8 66 be f2 ce 41 bf 0c 6c be bf
       -0.22636348 -0.22537367 -0.757064 -1.4876723
000350 4d 75 1e 3b db 48 a7 3f 52 8d b3 3f 14 45 f3 3d
       0.0024178803 1.3069109 1.4027503 0.1187841
000360 26 02 31 bd fb 1f d1 3f 39 9c 91 3f 2e 8a a4 3e
       -0.04321494 1.6337885 1.13758 0.32136673
000370 67 ec 1c 3f 23 19 c1 3f b8 f3 00 3f f8 38 c2 bf
       0.6129822 1.5085796 0.50371885 -1.5173635
000380 f4 89 ca 3e a6 9c fc 3e b0 dd 98 bd 3c d8 a0 bf
       0.39558375 0.49338263 -0.074641585 -1.256599
000390 09 3f bb 3e 3d e7 c0 3e e4 91 1a bc 05 97 8e bf
       0.3657153 0.3767642 -0.009434197 -1.1139838
0003a0 a3 7a ac 3e c2 2f a1 3e 85 7e 48 bf 6a d9 65 be
       0.33687314 0.3148175 -0.78318053 -0.22446218
0003b0 c6 46 2b bf cc 8e 61 3f ee 8b c3 3f 94 7c 75 3f
       -0.66904867 0.88108516 1.5277078 0.95893216
0003c0 dd d1 ea 3f 6a 68 4a 3f fa 17 2c 3f aa bf cb bf
       1.8345295 0.79065573 0.67224085 -1.5917866
0003d0 b0 48 bb bd 8b 94 cd 3f 3b b9 da 3e 43 a2 1d bf
       -0.091447234 1.6060957 0.42719445 -0.61575717
0003e0 55 1e 06 c0 00 f5 fa 3f ca 09 6c bd bb a8 77 3f
       -2.0956013 1.9606018 -0.057626523 0.9674184
0003f0 8b d6 a8 be ef c1 8d bf 2e 6e 4e 3f ef e8 98 be
       -0.32976183 -1.1074809 0.8063687 -0.29865214

attention_head.mask f4 [32, 32]
000000 00 00 80 3f 00 00 00 00 00 00 00 00 00 00 00 00
       1.0 0.0 0.0 0.0
000010 00 00 00 00 00 00 00 00 00 00 00 00 00 00 00 00
       0.0 0.0 0.0 0.0
000020 00 00 00 00 00 00 00 00 00 00 00 00 00 00 00 00
       0.0 0.0 0.0 0.0
000030 00 00 00 00 00 00 00 00 00 00 00 00 00 00 00 00
       0.0 0.0 0.0 0.0
000040 00 00 00 00 00 00 00 00 00 00 00 00 00 00 00 00
       0.0 0.0 0.0 0.0
000050 00 00 00 00 00 00 00 00 00 00 00 00 00 00 00 00
       0.0 0.0 0.0 0.0
000060 00 00 00 00 00 00 00 00 00 00 00 00 00 00 00 00
       0.0 0.0 0.0 0.0
000070 00 00 00 00 00 00 00 00 00 00 00 00 00 00 00 00
       0.0 0.0 0.0 0.0
000080 00 00 80 3f 00 00 80 3f 00 00 00 00 00 00 00 00
       1.0 1.0 0.0 0.0
000090 00 00 00 00 00 00 00 00 00 00 00 00 00 00 00 00
       0.0 0.0 0.0 0.0
0000a0 00 00 00 00 00 00 00 00 00 00 00 00 00 00 00 00
       0.0 0.0 0.0 0.0
0000b0 00 00 00 00 00 00 00 00 00 00 00 00 00 00 00 00
       0.0 0.0 0.0 0.0
0000c0 00 00 00 00 00 00 00 00 00 00 00 00 00 00 00 00
       0.0 0.0 0.0 0.0
0000d0 00 00 00 00 00 00 00 00 00 00 00 00 00 00 00 00
       0.0 0.0 0.0 0.0
0000e0 00 00 00 00 00 00 00 00 00 00 00 00 00 00 00 00
       0.0 0.0 0.0 0.0
0000f0 00 00 00 00 00 00 00 00 00 00 00 00 00 00 00 00
       0.0 0.0 0.0 0.0
000100 00 00 80 3f 00 00 80 3f 00 00 80 3f 00 00 00 00
       1.0 1.0 1.0 0.0
000110 00 00 00 00 00 00 00 00 00 00 00 00 00 00 00 00
       0.0 0.0 0.0 0.0
000120 00 00 00 00 00 00 00 00 00 00 00 00 00 00 00 00
       0.0 0.0 0.0 0.0
000130 00 00 00 00 00 00 00 00 00 00 00 00 00 00 00 00
       0.0 0.0 0.0 0.0
000140 00 00 00 00 00 00 00 00 00 00 00 00 00 00 00 00
       0.0 0.0 0.0 0.0
000150 00 00 00 00 00 00 00 00 00 00 00 00 00 00 00 00
       0.0 0.0 0.0 0.0
000160 00 00 00 00 00 00 00 00 00 00 00 00 00 00 00 00
       0.0 0.0 0.0 0.0
000170 00 00 00 00 00 00 00 00 00 00 00 00 00 00 00 00
       0.0 0.0 0.0 0.0
000180 00 00 80 3f 00 00 80 3f 00 00 80 3f 00 00 80 3f
       1.0 1.0 1.0 1.0
000190 00 00 00 00 00 00 00 00 00 00 00 00 00 00 00 00
       0.0 0.0 0.0 0.0
0001a0 00 00 00 00 00 00 00 00 00 00 00 00 00 00 00 00
       0.0 0.0 0.0 0.0
0001b0 00 00 00 00 00 00 00 00 00 00 00 00 00 00 00 00
       0.0 0.0 0.0 0.0
0001c0 00 00 00 00 00 00 00 00 00 00 00 00 00 00 00 00
       0.0 0.0 0.0 0.0
0001d0 00 00 00 00 00 00 00 00 00 00 00 00 00 00 00 00
       0.0 0.0 0.0 0.0
0001e0 00 00 00 00 00 00 00 00 00 00 00 00 00 00 00 00
       0.0 0.0 0.0 0.0
0001f0 00 00 00 00 00 00 00 00 00 00 00 00 00 00 00 00
       0.0 0.0 0.0 0.0
000200 00 00 80 3f 00 00 80 3f 00 00 80 3f 00 00 80 3f
       1.0 1.0 1.0 1.0
000210 00 00 80 3f 00 00 00 00 00 00 00 00 00 00 00 00
       1.0 0.0 0.0 0.0
000220 00 00 00 00 00 00 00 00 00 00 00 00 00 00 00 00
       0.0 0.0 0.0 0.0
000230 00 00 00 00 00 00 00 00 00 00 00 00 00 00 00 00
       0.0 0.0 0.0 0.0
000240 00 00 00 00 00 00 00 00 00 00 00 00 00 00 00 00
       0.0 0.0 0.0 0.0
000250 00 00 00 00 00 00 00 00 00 00 00 00 00 00 00 00
       0.0 0.0 0.0 0.0
000260 00 00 00 00 00 00 00 00 00 00 00 00 00 00 00 00
       0.0 0.0 0.0 0.0
000270 00 00 00 00 00 00 00 00 00 00 00 00 00 00 00 00
       0.0 0.0 0.0 0.0
000280 00 00 80 3f 00 00 80 3f 00 00 80 3f 00 00 80 3f
       1.0 1.0 1.0 1.0
000290 00 00 80 3f 00 00 80 3f 00 00 00 00 00 00 00 00
       1.0 1.0 0.0 0.0
0002a0 00 00 00 00 00 00 00 00 00 00 00 00 00 00 00 00
       0.0 0.0 0.0 0.0
0002b0 00 00 00 00 00 00 00 00 00 00 00 00 00 00 00 00
       0.0 0.0 0.0 0.0
0002c0 00 00 00 00 00 00 00 00 00 00 00 00 00 00 00 00
       0.0 0.0 0.0 0.0
0002d0 00 00 00 00 00 00 00 00 00 00 00 00 00 00 00 00
       0.0 0.0 0.0 0.0
0002e0 00 00 00 00 00 00 00 00 00 00 00 00 00 00 00 00
       0.0 0.0 0.0 0.0
0002f0 00 00 00 00 00 00 00 00 00 00 00 00 00 00 00 00
       0.0 0.0 0.0 0.0
000300 00 00 80 3f 00 00 80 3f 00 00 80 3f 00 00 80 3f
       1.0 1.0 1.0 1.0
000310 00 00 80 3f 00 00 80 3f 00 00 80 3f 00 00 00 00
       1.0 1.0 1.0 0.0
000320 00 00 00 00 00 00 00 00 00 00 00 00 00 00 00 00
       0.0 0.0 0.0 0.0
000330 00 00 00 00 00 00 00 00 00 00 00 00 00 00 00 00
       0.0 0.0 0.0 0.0
000340 00 00 00 00 00 00 00 00 00 00 00 00 00 00 00 00
       0.0 0.0 0.0 0.0
000350 00 00 00 00 00 00 00 00 00 00 00 00 00 00 00 00
       0.0 0.0 0.0 0.0
000360 00 00 00 00 00 00 00 00 00 00 00 00 00 00 00 00
       0.0 0.0 0.0 0.0
000370 00 00 00 00 00 00 00 00 00 00 00 00 00 00 00 00
       0.0 0.0 0.0 0.0
000380 00 00 80 3f 00 00 80 3f 00 00 80 3f 00 00 80 3f
       1.0 1.0 1.0 1.0
000390 00 00 80 3f 00 00 80 3f 00 00 80 3f 00 00 80 3f
       1.0 1.0 1.0 1.0
0003a0 00 00 00 00 00 00 00 00 00 00 00 00 00 00 00 00
       0.0 0.0 0.0 0.0
0003b0 00 00 00 00 00 00 00 00 00 00 00 00 00 00 00 00
       0.0 0.0 0.0 0.0
0003c0 00 00 00 00 00 00 00 00 00 00 00 00 00 00 00 00
       0.0 0.0 0.0 0.0
0003d0 00 00 00 00 00 00 00 00 00 00 00 00 00 00 00 00
       0.0 0.0 0.0 0.0
0003e0 00 00 00 00 00 00 00 00 00 00 00 00 00 00 00 00
       0.0 0.0 0.0 0.0
0003f0 00 00 00 00 00 00 00 00 00 00 00 00 00 00 00 00
       0.0 0.0 0.0 0.0

attention_head.query.weight f4 [64, 64]
000000 7a 60 23 bd c7 2c a3 bd 13 b8 08 3d fc 9c 17 3b
       -0.03988693 -0.07967525 0.03337867 0.0023134341
000010 4a e0 39 bd 10 5a 65 3d db f9 0f 3e 74 db c5 bd
       -0.045379914 0.055994093 0.14060156 -0.09660998
000020 32 f9 4d be 36 96 0b 3e 8e 33 0a be fc 39 e2 bd
       -0.20114592 0.1363152 -0.13496229 -0.11046216
000030 e4 47 81 bd 89 5d 9b 3d a4 39 c4 bd 96 9f 89 bc
       -0.0631254 0.075862 -0.095813066 -0.01679973
000040 f4 a3 3e 3d bd 7f 18 3c f0 e7 60 3e 73 4d 71 be
       0.046543077 0.009307799 0.21963477 -0.23564701
000050 da 12 b8 bd 4a 15 e3 bb 35 92 ce 3d c3 1d 7b bd
       -0.08987971 -0.006930028 0.100864805 -0.06130768
000060 7b b2 58 3c 68 43 48 be 1b 4e 45 be 64 15 96 bc
       0.013226147 -0.19556963 -0.19268076 -0.018320747
000070 ef 51 e6 3d 49 71 4a be cb a1 05 3e 8f cb ff bb
       0.11246096 -0.19769777 0.1305 -0.0078062485
000080 01 ad aa 3c 78 01 b4 bd 23 aa 83 3d 47 43 1b 3d
       0.020834448 -0.08789343 0.064289354 0.037905958
000090 2f 95 a5 bc b1 c9 9d 3d 9d 52 12 3d 9a 1e 0a 3d
       -0.020212738 0.07704485 0.035723317 0.03372059
0000a0 c4 52 10 3e a4 d0 db 3c f4 71 e2 bd 11 f3 41 3e
       0.14094073 0.026832886 -0.11056891 0.18940379
0000b0 de 52 46 be 44 89 ba bd 11 93 4a be 85 3b 30 3e
       -0.19367549 -0.091082126 -0.19782664 0.17210205
0000c0 0f cc 1d be 27 62 69 be 79 71 d7 bd a7 2c ce 3d
       -0.15409873 -0.22791348 -0.1051969 0.100671105
0000d0 84 9e ea 3b 73 98 ac 3d 42 ae 7e 3d 48 09 88 bd
       0.00716001 0.08427515 0.062177904 -0.06642395
0000e0 3a 25 1a 3d 6b 48 a3 3d db e5 b6 3d 7d 4f e4 3d
       0.03763316 0.07972797 0.0893056 0.11147974
0000f0 9a 2f 7e 3d a4 fb 7e 39 51 55 4a 3b e8 c6 12 bd
       0.062057115 0.00024317071 0.0030873606 -0.035834223
000100 dc d7 d2 bd 91 bf 9a 3d 66 5c c8 bd ae ed d0 bc
       -0.10295078 0.0755607 -0.097832486 -0.02550396
000110 bc 3a ac bc 02 d5 1b 3e f5 0c 8d 3d fe 30 a0 3c
       -0.0210241 0.15217975 0.06887237 0.019554611
000120 b2 b8 18 3e ce 4a 48 3d 8d 29 69 3d aa 9f 07 3e
       0.14914206 0.048899464 0.05692439 0.13244501
000130 1c 04 e0 3a 8a 77 bc 3c 38 02 e5 3c f3 4b e8 3d
       0.0017091068 0.02300622 0.02795516 0.11342611
000140 59 bf 9a 3c 57 88 c6 be 9e c9 6c bd dc 5b 22 ba
       0.01889007 -0.38775894 -0.057809465 -0.00061934977
000150 36 bc 16 39 b2 80 cb 3d 99 ac df 3d 5e d4 98 bc
       0.00014375229 0.09936656 0.10921592 -0.018655952
000160 67 28 a8 bd f1 1b 23 3c c2 f6 6c 3b c4 73 f8 bd
       -0.08210831 0.009955392 0.0036157821 -0.121314555
000170 39 c8 3c 3d fe 9a 0a 3e 6a bd b2 bb 60 69 9e bd
       0.046089385 0.13535687 -0.005454709 -0.077349424
000180 b1 ab 87 3d 7e b6 31 bc 1b 7d ac 3d 31 23 97 bd
       0.066245444 -0.010846732 0.084222995 -0.07379759
000190 4e 6a 86 3d 17 73 bf bd 35 17 02 be b4 87 b8 3d
       0.06563245 -0.093481235 -0.12704165 0.09010258
0001a0 ae 89 9d 3c 94 77 90 3c 4f f0 4a be 9f c6 0a be
       0.01923069 0.017635144 -0.19818233 -0.1355233
0001b0 d8 6f db 3d 25 23 66 be 89 c2 be bd 92 b3 0d bd
       0.10714692 -0.22474344 -0.093144484 -0.03459508
0001c0 0b 0c fb bc bd 1f d6 bd a7 9e db bd 42 6d 32 3d
       -0.030645391 -0.10455272 -0.1072362 0.043561228
0001d0 81 97 fe 3d 61 00 25 3e 6c fd 70 be 15 8f 18 3d
       0.12431241 0.16113426 -0.23534173 0.03724583
0001e0 45 72 19 3e d8 d2 2f be 1a fd 93 bb 1a 0b b1 bd
       0.14984997 -0.17170274 -0.004516256 -0.086446956
0001f0 d6 75 d1 bc 42 5c 04 be 9f 96 08 3e 4f 70 f6 bb
       -0.025568884 -0.12925819 0.13338707 -0.0075207124
000200 1a 09 a0 3c 1a f7 0d be f8 dc 94 3d dc d2 28 bd
       0.01953559 -0.13863793 0.07268709 -0.041216716
000210 51 79 02 bc 03 73 e2 bd 67 c4 9b 3d 4c 4d 14 be
       -0.007963494 -0.11057093 0.0760582 -0.14482611
000220 b3 aa 46 bd 8a d0 7c 3d 13 54 28 be 5f 13 88 3e
       -0.048502635 0.061722316 -0.16438322 0.2657728
000230 65 b8 8d bd 25 e8 3a 3e 5f 71 1f 3d 7c 2c 68 3d
       -0.06919936 0.18252619 0.03892648 0.05668305
000240 5d 6a cb bb ee 08 06 be ea 1f f9 3d 31 36 bd 3b
       -0.006207748 -0.13089344 0.1216429 0.0057742824
000250 f1 35 66 bd d6 4b 08 bd e9 8d 0b be da 40 08 bd
       -0.056203786 -0.033275448 -0.13628353 -0.033264972
000260 ad a0 5a 3e 09 2a 83 bd a5 4b 8a bb 88 4e bc 3d
       0.21350355 -0.06404502 -0.0042204433 0.09194666
000270 d5 42 92 bd a8 d6 5c 3e 0a d1 98 3d ff b6 fd 3c
       -0.071416534 0.2156626 0.07461746 0.030971048
000280 de 38 b5 bd 8e ff f6 bc 1a d5 0a 3e 14 f9 0f bc
       -0.08848737 -0.030151155 0.13557854 -0.008787412
000290 10 d3 0f 3e dd 6c 4f 3e 9f a7 15 3d 7b 28 25 3e
       0.14045358 0.20256372 0.03653681 0.16128723
0002a0 05 5f 73 bd d1 0c 80 bd 58 ff 1a be f1 83 8d bc
       -0.05941679 -0.062524445 -0.15136468 -0.017274829
0002b0 b6 20 49 3b 66 4e b5 bd 20 0f d8 b6 23 51 e3 3d
       0.0030689663 -0.08852844 -6.4390624e-06 0.1109946
0002c0 67 6b 81 be d8 f0 e6 3c 4a 0f 8b bd 83 4a f1 3c
       -0.25277254 0.028191015 -0.067900255 0.029454475
0002d0 56 20 33 be e1 6b 27 3d ff 2a 8e 3d 56 d2 29 3e
       -0.17492804 0.040874366 0.069417946 0.16584143
0002e0 18 b5 34 bd 9d 91 cb be 88 53 bb 3c 6d 0e 80 be
       -0.044118017 -0.39759532 0.02286698 -0.25011006
0002f0 fd 7d 23 3e 89 e9 76 3d e3 58 f0 bd da 70 02 3d
       0.1596603 0.06028131 -0.11735704 0.031845905
000300 7c 77 19 3e fe a1 79 3d 4d 7e 68 3e f5 a9 1a 3c
       0.14986986 0.060945503 0.2270443 0.009439935
000310 ce e5 2c bd 15 9c 47 bd bd 1d d1 3d 86 9c 8d be
       -0.042211346 -0.048732836 0.1021075 -0.2765848
000320 82 aa cd bd 93 99 f6 3c 63 8b 1d be 85 dc 25 bd
       -0.100422874 0.030102527 -0.15385203 -0.040493507
000330 49 42 ff bc 67 0f ff 3d 08 37 2b be ac 0b e5 bd
       -0.031159537 0.1245411 -0.16720212 -0.11183867
000340 d4 cf 3c bd 17 ac 49 bc 54 c7 ed 3d 79 61 03 bd
       -0.046096638 -0.012309096 0.116102844 -0.03207538
000350 aa 23 27 3d 85 a4 32 3d 73 e1 70 bd 09 4d 83 be
       0.040805496 0.04361393 -0.058808755 -0.2564471
000360 d0 e0 e5 3c 39 f5 5d be a8 08 21 3e 41 b2 4c be
       0.0280613 -0.21675576 0.15725958 -0.19989873
000370 31 fd 22 3e 22 08 0f 3e c7 35 18 3b 11 9f 06 3d
       0.15916897 0.13967946 0.0023225413 0.03286654
000380 81 0b a1 be 88 24 21 bc 7c 8c ae ba d0 a9 68 3e
       -0.3145409 -0.00983537 -0.0013317014 0.22721028
000390 5f 82 bd 3c fe 09 e6 bb c5 22 69 bd 09 ca 0c bc
       0.023133455 -0.007020234 -0.056917924 -0.008593091
0003a0 d3 9e 93 bc e9 25 39 3e 6c 08 0d 3e b9 93 ec 3d
       -0.01802007 0.18080868 0.13772744 0.11551613
0003b0 87 4c b1 bd 43 32 a2 bd 3e 7b 63 bd ac d0 f4 bd
       -0.086571746 -0.07919743 -0.055537455 -0.119538635
0003c0 ff c1 0e be 4f 2f a4 bc 40 a9 47 3e b9 0f 4d be
       -0.13941191 -0.02004209 0.19498158 -0.20025529
0003d0 82 e8 13 3d 14 cb a0 3c 3c b7 9f bc e3 c5 c1 bd
       0.03611041 0.019628085 -0.019496553 -0.09461572
0003e0 d7 7b ef 3c c2 03 77 bd 14 12 72 3d e8 0f 2a 3d
       0.029233856 -0.060306318 0.059099272 0.041519076
0003f0 10 a1 ed bc 4d 27 c6 bd 03 84 a5 bd 57 73 34 be
       -0.029007465 -0.09675465 -0.0808182 -0.17622124

attention_head.key.weight f4 [64, 64]
000000 a6 48 e2 3b 3c c8 b8 bd 20 a1 96 3d a7 c4 84 3d
       0.006905633 -0.09022567 0.07354951 0.06482821
000010 0f fb 96 bd 69 9f 81 3d a4 bc 19 3d 9f 9d 6a 3d
       -0.073721044 0.06329233 0.037533417 0.057279225
000020 74 3a 4e be 15 a4 95 3d 16 28 82 bd 97 83 9f bd
       -0.20139486 0.07306687 -0.06355302 -0.07788771
000030 26 e9 81 be c9 da 71 be 57 53 d3 bd 90 b2 d2 bc
       -0.2537319 -0.23618616 -0.1031863 -0.02571991
000040 de 0c e2 bd 34 20 9e bd 9f 44 d8 bd 57 e2 63 bd
       -0.110376105 -0.07720986 -0.105599634 -0.055635776
000050 f6 32 a0 be d6 f6 e6 bd cf 4c e0 3d f2 a8 88 3d
       -0.3128888 -0.11277549 0.1095215 0.06672849
000060 6e e8 f4 3b 5e 22 22 3e 6c 11 52 be 1c ca 63 3d
       0.007473997 0.15833423 -0.20514458 0.05561267
000070 ed 29 2a bd e7 c2 18 bd a2 61 35 3d 69 fd ff bc
       -0.04154389 -0.03729525 0.044282563 -0.031248765
000080 77 0d 2c 3e 4f 50 69 bd 3b 99 53 be 56 e6 11 be
       0.16802011 -0.056961354 -0.20663922 -0.14248022
000090 eb 01 0d 3e b9 69 a7 bd e5 94 68 bd cb 7e 2c be
       0.13770263 -0.08174462 -0.056782622 -0.16845243
0000a0 cc 7a e4 3d a9 17 ad 3d b0 ad b4 3c ac 99 d2 3d
       0.11156234 0.084517784 0.022055477 0.10283217
0000b0 d7 f5 f4 bd c6 5a 64 be db 5a 18 3d 9a d3 25 3d
       -0.11960953 -0.22300252 0.03719602 0.040485002
0000c0 4f 76 0a 3e 48 b1 58 bc 30 3d 3f bb 1e 64 eb bd
       0.13521694 -0.013225861 -0.0029180758 -0.11493705
0000d0 43 5d b1 3d d0 08 04 bd f6 c9 54 be 4b 51 0d 3e
       0.086603664 -0.032234967 -0.20780167 0.13800542
0000e0 30 a0 30 3e fc 4d 00 3e 68 10 ad bd 67 56 19 3e
       0.17248607 0.12529749 -0.08450395 0.14974366
0000f0 d5 54 ab bd 81 6b 7f 3d 41 20 5d bd dd 7a 25 be
       -0.0836579 0.062358383 -0.053985838 -0.1616015
000100 22 1a 96 3e bd 1e 70 3e b6 c5 b2 bd f8 96 30 3e
       0.29316813 0.23449226 -0.087291166 0.1724509
000110 ec c5 74 bd dd ba a7 bd 34 03 76 3d c9 0e a1 bd
       -0.059759066 -0.08189938 0.06006165 -0.07864148
000120 2e 64 3f 3e c6 fd 91 bd 35 4c 2d 3e c9 94 60 3e
       0.1869056 -0.071284816 0.16923602 0.21931757
000130 d6 b0 2a 3e e1 11 30 3b 45 02 a7 bb 7c 4b b8 bc
       0.1666902 0.0026866125 -0.005096706 -0.022496931
000140 c2 bf 70 bd dc 5c ab 3b 02 47 ae 3d d3 91 37 3d
       -0.058776625 0.0052295756 0.085096374 0.044816803
000150 c3 a1 6b 3d 7d 70 60 3e 68 2f 41 3d fc f7 01 3d
       0.057527315 0.21917911 0.04716435 0.031730637
000160 85 37 04 be ed 1b 1f be d6 f0 b0 3d be bb 34 be
       -0.12911804 -0.15537997 0.08639686 -0.17649743
000170 4d e9 a5 3c e4 51 aa bc 99 b6 d8 bd 4c ad 82 3e
       0.020252848 -0.020791002 -0.10581703 0.2552284
000180 3f e6 07 bd 4f 20 e5 3c 9e 8e 0e bd a2 f8 62 bd
       -0.033178564 0.027969508 -0.03480398 -0.055412896
000190 53 ee 25 3d 88 4f 12 bc b0 41 53 3d 2c 11 8c 3d
       0.040510487 -0.008930095 0.051576316 0.06839213
0001a0 1c d7 06 3e 90 d1 d5 3d b2 b0 a4 be f1 a5 80 be
       0.13167995 0.104403615 -0.32166058 -0.25126603
0001b0 40 3a ca 3d fb 69 93 bd f8 e7 7e be d3 34 76 3c
       0.098743916 -0.071979485 -0.24893177 0.015027243
0001c0 3a 66 81 be 05 de d7 bd 07 81 71 be 21 6d fd 3d
       -0.25273305 -0.10540394 -0.23584376 0.1237433
0001d0 f7 26 93 39 5d ab 89 3d 5b 26 0a 3e b4 37 95 3d
       0.00028067056 0.06722138 0.13491194 0.07286015
0001e0 14 53 1f bd 7c ae 13 bd a9 b2 a8 3d 65 64 c1 3d
       -0.03889759 -0.036055073 0.08237202 0.09442977
0001f0 66 6d 9c bd 22 a8 6d bc 80 a5 1d 3e 1f 03 3e 3e
       -0.076380536 -0.014505418 0.15395164 0.18555878
000200 d4 aa 94 3c 75 b5 3b be 7c a9 50 bd ef 6b 64 3d
       0.018147863 -0.18330939 -0.050942883 0.055766996
000210 51 a6 11 be 6e 8a 43 be a4 ef 0e be d6 5d 88 3e
       -0.14223601 -0.19095775 -0.13958603 0.2663409
000220 e9 a9 c1 bd 75 59 ae 3d b7 f8 f6 bd 82 bd a6 bd
       -0.09456236 0.08513156 -0.12059157 -0.081416145
000230 5c da ee 3c 92 96 63 3e af 8a 0c be b8 90 b7 bd
       0.029156856 0.22225407 -0.13724779 -0.0896315
000240 51 35 b5 bd 1f dc 06 3d 56 95 26 bd d1 4a 14 3b
       -0.0884806 0.032924768 -0.04066976 0.0022627602
000250 72 d8 54 be 7b a8 ff 3d 92 d5 35 3e d3 5d 26 3e
       -0.20785692 0.12483307 0.17757252 0.16246729
000260 b8 df 19 3c a7 13 b8 bd d8 1d 8d 3d 1b 62 8d 3d
       0.009391718 -0.089881234 0.06890458 0.06903478
000270 e4 b9 16 be e8 ae 9d 3b dd 67 19 3c b1 91 5e 3d
       -0.14719349 0.00481211 0.009363142 0.05433816
000280 5b 60 24 3e 80 ab fc bd f9 97 ee 3c ea b0 34 3e
       0.16052382 -0.123373985 0.0291252 0.17645612
000290 ba 19 92 3d 2b 5e 10 3e de 35 22 3e aa 94 66 3c
       0.07133813 0.14098422 0.15840861 0.01407353
0002a0 a4 fa 93 3d e7 58 a7 be 1d bd 00 be c5 a4 97 3d
       0.0722554 -0.32685015 -0.12572141 0.07404474
0002b0 e3 1a 99 bd 5d b6 3c be af aa 3d 3d cc c1 dd 3d
       -0.07475831 -0.18428941 0.046305355 0.108279794
0002c0 67 d2 1d bd c3 69 81 3e 74 92 3e 3e c6 36 3a bd
       -0.038530733 0.25276002 0.18610555 -0.045462392
0002d0 9e 75 df ba f6 b3 3e 3d 90 64 1c 3e a7 44 95 3c
       -0.0017048602 0.046558343 0.15272737 0.018221213
0002e0 d3 be 5c 3d a9 16 c3 3d ed 20 2e be 85 50 4d bc
       0.05389292 0.095258065 -0.17004748 -0.012531404
0002f0 e6 61 52 bc 91 8d 63 bc e7 0a 16 be 1d 08 26 be
       -0.012840724 -0.0138887325 -0.14652596 -0.16214032
000300 32 86 ff bc db c0 f4 3d e8 d5 e4 3d b0 e8 bf 3c
       -0.031191919 0.11950847 0.11173612 0.023426384
000310 fc 73 aa 3d 32 8a ba 3d a6 02 c2 bc 43 8a 1a 3e
       0.083229035 0.0910839 -0.023682903 0.15091805
000320 38 a4 99 be 2c 05 11 3e 0e 69 2e be b9 56 15 bd
       -0.300081 0.14162129 -0.17032263 -0.03645966
000330 e4 26 5e be 5c de 35 bd 24 62 44 be 29 7d 29 be
       -0.21694523 -0.04440151 -0.19178063 -0.16551651
000340 a2 dd 7b 3d c0 b5 47 be 4f 10 48 3d 4d d9 c7 bd
       0.061490662 -0.19502926 0.048843678 -0.09758244
000350 d1 61 06 3e 16 1e 74 3d cd 08 94 3d 0b 22 f8 3d
       0.13123251 0.059599005 0.07228241 0.12115868
000360 97 52 5b be e4 2c 16 3d 2a 66 c6 bc 11 ad d0 3d
       -0.21418224 0.036663905 -0.024218637 0.1018926
000370 aa 53 39 3e 42 c6 d8 3d 5f ff 62 3d b4 30 89 3d
       0.18098322 0.1058469 0.055419322 0.066987425
000380 81 2c 4f 3c 35 a8 e9 bc b8 3e 53 be 4e 16 2d bb
       0.012644888 -0.02852259 -0.20629394 -0.0026411
000390 d1 73 0e 3e ab 29 bd 3d cb 50 1a be 41 dc 17 bd
       0.13911368 0.09236463 -0.15069883 -0.037075285
0003a0 84 a4 0d be 82 52 54 3e 5a 11 b3 3e 2b 1d 81 3e
       -0.13832289 0.20734599 0.34974176 0.25217566
0003b0 c1 5c 5c bd c4 95 88 be 37 27 17 3e e1 48 b8 bd
       -0.053799395 -0.26676762 0.14761053 -0.089982755
0003c0 4b c9 13 3e 93 12 e0 3d ab af 67 bd 83 bb 74 be
       0.14432256 0.10941043 -0.056564014 -0.23899655
0003d0 a0 a8 93 3d 82 1b 62 3d 65 7c d8 bd 35 fa a4 bc
       0.07209897 0.055202015 -0.105706014 -0.02013884
0003e0 af e8 85 3e 5b 94 15 3e 18 ee 6e bc a2 aa b6 3d
       0.26154086 0.14607374 -0.014583133 0.089192644
0003f0 ba 94 2f 3d 43 3a a3 bd 29 7a 35 bd 80 50 a5 be
       0.042866446 -0.07970097 -0.044305954 -0.3228798

attention_head.value.weight f4 [64, 64]
000000 7a e6 77 3e fd 08 b1 bd 53 fb 8c 3e 1d 5d 6e 3e
       0.24209014 -0.086442925 0.27535495 0.23277707
000010 f9 4e 33 be c5 1b 28 be 0d be 84 be 5e d9 6e 3d
       -0.17510594 -0.16416843 -0.25926247 0.058312766
000020 44 62 b9 be 04 21 9e bd 98 9c 5b 3e 31 db d6 3d
       -0.36207783 -0.07721141 0.21446455 0.10491026
000030 53 43 63 3d e4 24 4a 3c 8d eb db bc d2 79 6f 3d
       0.055484127 0.012337897 -0.026845718 0.058465786
000040 04 33 3e be 4d 28 5b 3e ab 46 33 bd 37 00 2b bd
       -0.18574148 0.21402092 -0.043768566 -0.04174825
000050 9c 13 11 bd 1e dc 31 be ad 36 41 be d7 1c ed 3b
       -0.03541909 -0.17369124 -0.18868513 0.007236104
000060 76 36 0e 3c 38 65 ce bd 20 0e 68 be ed f0 65 3d
       0.008679977 -0.100779 -0.22661638 0.056137968
000070 36 2f ff 3d 8f 10 ba 3d 68 d3 b8 bc ec 83 b4 bd
       0.12460177 0.090851896 -0.022561744 -0.088142246
000080 06 a1 55 be 6c af 6e 3e c8 d0 2d be dd c5 95 be
       -0.20862207 0.23309106 -0.16974175 -0.2925252
000090 52 5b 0a 3d 13 3e 01 3e 13 5a 8e 3e de b3 a9 3e
       0.033778496 0.12621336 0.27803096 0.3314504
0000a0 92 7b 7d 3e e9 4c d1 3d 6b e1 94 be bf e9 84 3d
       0.2475417 0.102197476 -0.2907823 0.06489896
0000b0 d8 5e c4 be 22 c9 40 3e ae 65 6e bd 7f fd 9b 3d
       -0.3835361 0.18826726 -0.058202438 0.0761671
0000c0 a6 a6 a6 3d 34 1c ca be 36 44 36 bd 61 aa 26 bc
       0.081372544 -0.39474642 -0.044498645 -0.010172457
0000d0 61 0c be be 59 ed 35 3d 3c 58 4a bd 9b f6 32 3d
       -0.3711882 0.044415805 -0.049400553 0.043692213
0000e0 94 2a cb 3d ee af fe 3d e8 cc 03 3e 0e 5f 33 be
       0.099202305 0.124359 0.12871134 -0.17516729
0000f0 60 db 12 3c 58 12 3e bd 1b 9f 24 3d 1a 31 13 3e
       0.008963436 -0.046404213 0.040190797 0.143742
000100 41 53 3f 3e 20 e5 1c be 7b cb e6 3d 27 3f e8 be
       0.18684103 -0.15321779 0.112692796 -0.4536068
000110 0b c5 de bd ea cc af bd ed c1 d1 3c 90 2e ba 3d
       -0.10877427 -0.08584006 0.025605166 0.09090912
000120 cb 1d a3 3e 17 e9 3a be ba 5b da 3d 29 87 28 bd
       0.31858668 -0.18252979 0.10662027 -0.041144524
000130 85 80 4a 3e 2a fb 5b bd c2 8b 00 be 13 7c 83 be
       0.19775589 -0.053706326 -0.12553313 -0.256806
000140 70 5a 5f 3e 8f 41 82 be 4b 6d 03 3e 75 aa f7 3d
       0.21811843 -0.25440642 0.1283466 0.12093059
000150 e8 f3 07 be ad db 2a bc 41 3d 9d 3d 6f d5 a6 bd
       -0.13276637 -0.010428351 0.07677699 -0.08146178
000160 a3 70 2b 3e 54 13 bf 3c 1b 40 68 3e 6e 62 0a be
       0.16742186 0.023324646 0.22680704 -0.1351411
000170 70 19 62 bd 73 b2 86 3e f3 6c 00 3e 58 c7 41 bd
       -0.05520004 0.2630802 0.12541561 -0.04730925
000180 6a 9c c1 be 8b fd 26 3e 8c 14 80 be 14 bc c0 3d
       -0.37814647 0.16307656 -0.25015676 0.09410873
000190 19 a2 87 3e 58 43 96 be 8c 06 91 be cf 55 52 bd
       0.26490858 -0.29348254 -0.28325307 -0.051351365
0001a0 b2 fd 93 be ce 4f aa 3c 22 a3 24 be 41 dc 7a 3e
       -0.28904492 0.020790007 -0.16077855 0.24498083
0001b0 dd 7c cc 3e 33 d8 f2 3d 0b 2d 55 3e 4d 66 d3 3d
       0.39939013 0.11857643 0.20817964 0.10322247
0001c0 d7 dd 6b 3d 0e 4e 4d bd b8 ad e0 bd 17 1e 03 3d
       0.05758461 -0.050123267 -0.10970634 0.032011118
0001d0 b0 9c 30 3e c6 6e 09 be a3 eb 78 3d 6c f9 8f 3d
       0.17247272 -0.13421163 0.060771596 0.07029995
0001e0 25 57 1a be e8 b2 42 3e 2b 7b e2 bd e0 77 60 be
       -0.15072306 0.1901356 -0.11058649 -0.21920729
0001f0 86 a7 81 be 3a a7 52 3e 92 65 0b 3e 55 4e 85 3b
       -0.25323123 0.20571604 0.13612965 0.004068176
000200 8b 89 35 be b7 fc b2 bd 64 5b 69 be 29 30 c0 3c
       -0.1772825 -0.08739608 -0.22788769 0.023460465
000210 44 c4 33 bd e6 b9 54 bd 5f 86 60 be 99 91 f6 3e
       -0.043888345 -0.0519351 -0.21926259 0.48157957
000220 97 a5 91 3e 5a a3 84 3d 6c 3d aa bd 8f 17 e6 bd
       0.28446648 0.06476469 -0.083124965 -0.11234962
000230 df de c7 3e 0b 54 75 3d b1 3d 92 3e 76 1c 01 be
       0.39037225 0.059894603 0.28562692 -0.12608513
000240 59 4d c0 3e d0 ce dd bc d6 8f 2a be 19 8c 70 3e
       0.37559012 -0.027076155 -0.16656432 0.23490943
000250 0e 3b 93 3e f7 78 83 3e bf f4 b8 be 74 77 fb bd
       0.28755993 0.25678226 -0.36124226 -0.12278643
000260 4c 37 2b be e6 7b da 3d df 81 4b 3e 72 f3 0e 3e
       -0.16720313 0.10668163 0.1987376 0.13960055
000270 f0 a8 86 3e 0c e9 1e 3d 29 e8 2f bd 62 36 38 be
       0.26300764 0.03879647 -0.042946015 -0.17989495
000280 d6 f9 2f bf 90 c0 cd 3d 7a e6 23 3e 56 4f 4d 3e
       -0.68740594 0.10046494 0.16005889 0.20049796
000290 0a 32 0d be 81 88 c6 be ae 22 07 be 1a cd 5e 3e
       -0.1378862 -0.3877602 -0.13196823 0.21757928
0002a0 4d 27 b3 be 23 c8 f8 bd 95 6d 20 bb 62 0e f9 bd
       -0.34990922 -0.12147548 -0.0024479378 -0.121609464
0002b0 62 9e 53 3e 90 2a cf 3e bf 17 d0 3d 79 53 cb 3e
       0.20665887 0.4046216 0.10160779 0.39712122
0002c0 e1 7f 36 3e d3 a9 f8 3d 56 3a f8 be b4 c5 c4 be
       0.1782222 0.121417664 -0.48482007 -0.38432086
0002d0 83 38 b3 3d 91 2a 2c be 5a b4 5a 3b 80 be f8 bc
       0.08751013 -0.16813113 0.0033371658 -0.030364275
0002e0 66 38 8a be 35 f5 cf be 22 b3 69 3e 9f 5b eb bd
       -0.26996154 -0.40616766 0.2282224 -0.11492085
0002f0 95 22 8f 3e aa 90 8a bc 7a d5 a9 bc 37 25 7c be
       0.27956071 -0.016914684 -0.020731676 -0.24623571
000300 8f dc 94 3d d7 d5 8f 3d 6e 05 93 3e 50 b9 49 be
       0.07268631 0.070232086 0.2871508 -0.19699597
000310 2f d1 9c 3e e6 36 25 be 7f aa 6e 3e a0 74 97 be
       0.30628344 -0.16134223 0.23307227 -0.29581165
000320 9c 18 8e 3e b9 e5 41 be 09 ab 3e 3e bd 61 96 be
       0.2775315 -0.18935288 0.18619932 -0.29371443
000330 77 f5 49 be 15 4d 60 bd 5a 5d 87 3e 1c 50 02 3e
       -0.19722544 -0.05476101 0.2643841 0.12725872
000340 55 21 0f bb 27 c9 c0 3e 98 bf c6 3d 5c 7b 81 bc
       -0.0021839936 0.37653467 0.09704512 -0.015805893
000350 1e dd ee be 61 40 d4 3e 00 58 d9 bd d7 dd 90 3e
       -0.46653074 0.41455367 -0.10612488 0.2829425
000360 68 aa 85 3e de 3f b3 3d 28 20 96 be a3 da 51 3d
       0.26106572 0.08752416 -0.29321408 0.0512339
000370 b5 da db 3d 67 60 27 3d de e9 96 be 10 b4 23 3d
       0.107350744 0.04086342 -0.29475302 0.039966643
000380 ef b7 14 3e 1c 8b 96 3c 2c cc d9 bd 63 23 70 be
       0.1452329 0.01837688 -0.10634646 -0.23450999
000390 90 24 24 3e fa c3 b9 bd c7 d3 a7 be 1f 09 83 3e
       0.16029572 -0.09070583 -0.3277876 0.25592896
0003a0 f2 b6 98 3e e2 fb 33 be 71 c0 8f 3e 62 1a 48 3e
       0.29827076 -0.17576554 0.2807651 0.19541314
0003b0 ab a7 f6 3d 68 fa 0e bd 09 a5 02 3e 81 a8 02 bb
       0.12043699 -0.034906775 0.12758268 -0.0019936862
0003c0 8a 46 94 3d 21 7c 88 3d e6 f5 af bd 60 1f 47 3e
       0.07240017 0.06664301 -0.08591823 0.19445562
0003d0 9f 41 49 3c ca 21 8e 3e 04 64 d0 bd a9 28 91 3e
       0.012283712 0.27760154 -0.101753265 0.28351334
0003e0 37 60 91 bd 47 cf 35 be 87 05 92 be a1 6e cd 3c
       -0.0709843 -0.17754851 -0.28519842 0.025077166
0003f0 db bd b0 bd 9a 7e b1 3d 12 a1 95 3e 13 00 a0 be
       -0.08629962 0.086667255 0.2922445 -0.31250057

linear_layer.weight f4 [93, 64]
000000 f8 af 1e 3d 32 71 16 3a e3 79 26 3d 70 e1 a8 bd
       0.038742036 0.00057389133 0.040643584 -0.08246124
000010 a0 ec 4b be 23 5a af bd 77 5b 26 be 32 fb 4e be
       -0.19914484 -0.08562114 -0.16245829 -0.20213011
000020 3f 9b 0f bf fa 1c 92 bb ef 2f 23 bd f0 8d 3d bd
       -0.5609626 -0.0044590207 -0.039840635 -0.04627794
000030 f0 8a 2e bc d3 26 ca be 6f 4a 80 be c9 86 43 3e
       -0.0106532425 -0.39482746 -0.25056788 0.19094385
000040 49 f3 72 3d 68 3b 7f 3e 2d 73 70 be c5 78 2a be
       0.059314046 0.24925005 -0.23481436 -0.16647632
000050 8a 2c 90 3d a7 ec a4 bd e9 50 37 3e 06 45 08 3e
       0.07039745 -0.0805295 0.17901959 0.1330758
000060 6f 8d 29 3e 83 cc 34 3d db 6e e8 bd 93 21 98 bd
       0.16557859 0.04414035 -0.11349269 -0.07428279
000070 59 1d c1 be 38 d5 10 3e 28 65 96 3e 26 64 ce 3e
       -0.37717703 0.14143836 0.2937405 0.40310782
000080 c7 b2 24 be a6 d2 ee 3d 98 0b 1c 3e 94 5a a9 3d
       -0.16083823 0.11661272 0.15238798 0.082692295
000090 c0 34 fc 3d c1 40 57 3f 88 e9 85 3d 0d e4 9e 3e
       0.12314749 0.8408318 0.06538683 0.31033364
0000a0 45 3a bc 3d d5 b9 94 3d 41 24 a2 3d e2 02 44 be
       0.091908015 0.07262007 0.07917071 -0.19141725
0000b0 d2 86 02 be ae 7d ac 3d da 9b 8d 3e b9 0b 94 3d
       -0.12746742 0.08422409 0.27657968 0.072287984
0000c0 35 ea b6 3d bc 01 73 be f2 e0 73 3b 71 ba 21 be
       0.0893139 -0.2373113 0.0037212935 -0.15793778
0000d0 7b ac 0c 3d ce 2b aa 3d 3d 1c bd bd 5e 4f 61 be
       0.034344178 0.08309136 -0.09233902 -0.22002932
0000e0 53 b2 f6 be ce 57 4d be 72 f4 f1 3d c6 06 40 be
       -0.48182926 -0.20053026 0.11814202 -0.18752584
0000f0 1b dc 7a be 00 bb 29 3e 3b 4b 01 bd 2c b1 ad 3d
       -0.24498026 0.16575241 -0.031565886 0.084810585
000100 69 65 8f 3e c6 6b 27 3e d0 32 08 3e c1 8b 4d be
       0.28007057 0.16349706 0.13300633 -0.20072843
000110 a3 a6 5e bd 0f 51 62 bd 0b f4 a5 be 55 1f 86 3e
       -0.054358136 -0.055253085 -0.32412753 0.2619578
000120 55 4f a7 be 8e 68 b0 be 42 80 33 bd b4 2b 85 be
       -0.32677713 -0.3445477 -0.043823488 -0.26009905
000130 29 f7 22 3d a6 5a 14 be 60 7a 13 bf 6d c0 b4 3e
       0.03978649 -0.14487705 -0.57608604 0.3530306
000140 57 fd 80 3e 18 18 37 3e b9 26 89 3d 83 e1 9c be
       0.25193283 0.17880285 0.06696839 -0.30640802
000150 fb 54 ba bd 84 2d 62 be d7 d7 93 3e b2 01 34 3e
       -0.0909824 -0.22087675 0.2887561 0.17578772
000160 f4 32 72 be c3 5c 9a 3d 95 d0 9b 3d 80 6a 47 be
       -0.2365225 0.07537224 0.07608143 -0.1947422
000170 ad 27 ff be a6 8a 02 3d 56 ea 2b bd ae 45 92 3e
       -0.49834958 0.031870507 -0.041971527 0.28568786
000180 37 fa 3d be c3 de 09 bd b6 54 9d 3e 78 17 13 3e
       -0.1855248 -0.033659708 0.30728692 0.14364421
000190 f3 81 ef 3d 1a 7c 20 3f 3e bb 3d be 65 9e 1d be
       0.11694708 0.62689364 -0.18528458 -0.15392454
0001a0 c6 a3 18 be 85 e0 98 3d e7 0d 8f be c1 20 56 bd
       -0.14906225 0.07464699 -0.27940294 -0.05227733
0001b0 58 31 6f 3e 2e da 12 be 56 57 93 3e aa 0d 61 be
       0.23358667 -0.14341041 0.2877757 -0.21977869
0001c0 27 48 8d be 52 eb 74 be 30 bc 96 bd e7 ee ea be
       -0.2759411 -0.23917893 -0.07360113 -0.45885393
0001d0 dd 70 18 bd dd 75 7a be 96 b6 df bd 7d 83 57 bc
       -0.03721701 -0.24459024 -0.109234974 -0.013153908
0001e0 b9 79 6a 3d 2a 85 91 bc 37 95 5e be 5b 31 e2 bd
       0.05724499 -0.017763693 -0.21736608 -0.1104457
0001f0 a4 71 31 bd 16 c1 27 bd 3d 5a f0 3e 3e 59 91 bd
       -0.043321267 -0.040955625 0.46943846 -0.070971
000200 b5 fd a2 3e c4 c4 19 bf d7 92 b8 3c f3 64 d0 3e
       0.31834188 -0.60065866 0.022530956 0.40702018
000210 b6 d4 9b 3e 73 ed aa 3e 83 a3 5b be 99 c1 ee 3b
       0.30435723 0.33384284 -0.21449094 0.007286262
000220 a9 97 41 bf 69 b5 a5 bd fd 40 c1 3e b4 bc 77 bd
       -0.7562204 -0.08091242 0.37744895 -0.060482696
000230 4e b2 63 bd 2c 48 c3 be 28 02 e7 bc 0f 58 53 bd
       -0.055589966 -0.38141 -0.02819927 -0.05159765
000240 fc 75 91 3d a5 f6 8a be 6c 6e aa 3e c6 7e 28 3e
       0.07102582 -0.271413 0.3328737 0.1645461
000250 1c 6e c6 be 84 23 c0 3e 9c f4 12 bf aa 52 94 be
       -0.38755882 0.37527096 -0.57404494 -0.28969318
000260 9d d2 d8 be 33 41 1e be 7c b7 72 3e 45 c3 ae 3e
       -0.42348185 -0.15454559 0.23702806 0.34133354
000270 94 14 08 3e c3 ad 26 be c6 3b 18 be a9 73 d3 be
       0.132891 -0.16277222 -0.14866552 -0.4129918
000280 55 72 75 3e 43 33 b2 be 31 4a 9a be dd 6a 97 be
       0.23969395 -0.34804735 -0.3013473 -0.29573718
000290 a1 68 78 3e 80 09 88 3f 88 a6 1e 3f c6 e1 6b bf
       0.24258663 1.0627899 0.61972857 -0.9214138
0002a0 05 84 90 be 04 15 c4 be 95 5a 86 be a7 d0 a3 3e
       -0.28225723 -0.38297284 -0.26240984 0.31995127
0002b0 35 b8 a3 3e 93 40 df be 0a e9 88 be 39 fb fd bd
       0.31976476 -0.43603954 -0.26740295 -0.124014325
0002c0 cf cb be be bc f3 05 3e 38 a5 ac 3e bc ac ac be
       -0.3726487 0.13081259 0.33719802 -0.33725536
0002d0 a1 80 16 3e f7 a9 ba be db f7 01 3f 0f b0 08 3f
       0.14697506 -0.36457798 0.5076882 0.53393644
0002e0 0e 5b c7 be 5d 56 ff bd ac a8 67 3e 37 97 05 3f
       -0.38936657 -0.12467644 0.22622937 0.5218386
0002f0 3f d0 87 be 39 22 8c be ab 73 a5 3e 71 2e f8 bd
       -0.26526067 -0.2736986 0.3231481 -0.12118233
000300 ec a2 d3 3e 3b 96 07 bf b8 51 94 3d 70 0d 09 3f
       0.41335237 -0.5296361 0.07242149 0.5353613
000310 09 3d cb 3e 8e b7 0a 3f 4b 77 b6 be 3f 5d d8 bc
       0.39695004 0.5418633 -0.35637888 -0.02641165
000320 1f 5c 4f bf 00 16 16 bd e5 5e bd 3e b4 b7 cb bd
       -0.8099994 -0.036642075 0.3698646 -0.09947148
000330 6f 6f 24 3d f4 73 e2 be 57 16 3a 3d e6 7c de bd
       0.040145334 -0.4422909 0.04543146 -0.10863666
000340 bc f9 8c 3d 70 d6 cd be 34 3b 9d 3e de 27 89 3e
       0.068835706 -0.40202665 0.3070923 0.2678823
000350 e8 89 ff be 6f 30 b8 3e 4b 9e e3 be 9f ec aa be
       -0.49909902 0.35974452 -0.44456705 -0.33383653
000360 1d c7 02 bf 6a 2c c7 bd 84 11 7d 3e f1 30 a0 3e
       -0.5108507 -0.09725268 0.24713713 0.3128734
000370 31 36 32 3d 94 6f a0 be 89 04 dd bd 71 1d c3 be
       0.043508712 -0.31335127 -0.10791881 -0.381084
000380 84 63 9c 3e 35 a3 d2 be d7 e2 a1 be bc aa fd be
       0.30544674 -0.41140142 -0.31618378 -0.49544322
000390 7d c9 40 3e c9 10 4d 3f c7 68 21 3f 63 5d 69 bf
       0.18826862 0.8010374 0.630505 -0.9115812
0003a0 16 28 37 be 1f b6 c1 be d9 02 71 be 1f 7b 8c 3e
       -0.17886385 -0.3783426 -0.23536243 0.27437684
0003b0 75 91 c2 3e 96 57 e2 be b0 79 f0 bd 5c ec 77 bc
       0.380016 -0.44207448 -0.1174196 -0.015132036
0003c0 07 66 84 be 9e a4 8b 3d 3d 85 a4 3e 3e 33 eb be
       -0.2585909 0.068185076 0.32132903 -0.45937532
0003d0 0b 3b 95 3e bf f9 85 be 59 7e c6 3e 7f fe 0b 3f
       0.2914661 -0.26167104 0.3876827 0.54685205
0003e0 4f cc d6 be 5c c1 1c bd ae 25 59 3e d9 ef e0 3e
       -0.4195275 -0.03827034 0.2120578 0.4393299
0003f0 ae 0d 76 be b1 fa 98 be f2 5c ea 3e 23 b9 14 be
       -0.24028656 -0.29878762 0.45774037 -0.14523749

linear_layer.bias f4 [93]
000000 98 e0 a3 3d 99 f0 08 be 21 39 e0 be 11 4a c6 be
       0.08001822 -0.1337303 -0.43793586 -0.38728383
000010 c3 6f 07 bf fe 2b 94 be 05 04 ea be 60 87 04 bf
       -0.5290491 -0.28939813 -0.45706192 -0.51769066
000020 3a 9c 9f be ba 04 07 bf 1f f4 c3 be d2 66 05 bf
       -0.3117388 -0.5274159 -0.38272187 -0.52110016
000030 a8 d9 ec 3a 96 b4 09 3c 68 c8 15 be 59 9a 8c be
       0.0018070238 0.008404871 -0.1462723 -0.27461508
000040 92 22 83 bd 2a 71 29 be 79 ff 41 be 57 e3 7e be
       -0.06403078 -0.16547075 -0.18945111 -0.24891411
000050 1f f6 02 3e 0d 8f c2 be 9e fb a0 be a8 fb 48 3d
       0.127892 -0.37999764 -0.3144197 0.049068123
000060 55 73 e4 bc 11 d5 b6 bd 6c 22 50 bd d7 fb 35 be
       -0.027887026 -0.08927358 -0.050814077 -0.1777185
000070 61 4f b8 be 13 94 99 3c ee 06 4b bc 30 5d d7 3d
       -0.3599806 0.018747365 -0.012391789 0.10515821
000080 89 28 67 3d 08 30 cd be 0b ec ab 3d 9a e3 97 bd
       0.05643514 -0.40075707 0.08394631 -0.074164584
000090 57 6a 65 be a0 08 c1 bd 83 10 8e 3e 3e 57 4f bd
       -0.22403847 -0.09425473 0.27746972 -0.05062031
0000a0 70 d8 bf 3d 42 cb aa 3d 34 3e ab 3d 02 0e 67 bd
       0.09367454 0.083395496 0.08361474 -0.056409843
0000b0 37 8c 01 be 91 f5 de 3c e9 2c f9 3d 6a c7 a9 be
       -0.12651144 0.027216705 0.12166769 -0.33159953
0000c0 fe 10 4c 3d fb 93 89 3e 3a 2e 67 3d 2f b6 a6 bb
       0.049820893 0.26870713 0.05644057 -0.005087636
0000d0 58 ea 43 3e ec 09 ac bd 84 da 6e be 09 6f 2a 3d
       0.19132364 -0.0840033 -0.23325545 0.041609798
0000e0 a0 4c 09 3e 6d 56 37 3e 4b 5b d0 3d c4 3a b4 bd
       0.13408136 0.17904063 0.10173663 -0.08800271
0000f0 94 a2 7c bd 18 9a fb bc 29 8b 76 3d 3b ca e1 bd
       -0.061678484 -0.030713126 0.060191307 -0.110249005
000100 e4 3b 8e be ef c8 02 bf 88 8c a3 be 43 01 cc bc
       -0.27780068 -0.5108785 -0.31943154 -0.024902945
000110 48 46 f5 be bb 96 95 be 62 c2 bd be c5 87 c8 be
       -0.47905183 -0.2921656 -0.37062365 -0.39166084
000120 4c cb fd be 79 13 d8 be 12 f6 b7 be 16 7a 91 be
       -0.49569166 -0.42202356 -0.35929924 -0.28413457
000130 9e 44 62 ba 81 7c b4 be 88 3f 02 bf bd 8a 85 3e
       -0.00086314406 -0.3525124 -0.5087819 0.2608241
000140 ae 11 e4 be a5 ab b5 be 86 ee cc be c5 22 f2 be
       -0.4454474 -0.35482517 -0.4002573 -0.47292152
000150 90 43 ec be c9 09 d3 be b0 3e 0f bf cd 5b 02 bf
       -0.46145296 -0.41218403 -0.5595503 -0.50921327
000160 a3 fb b7 be df 6c e8 be a2 41 f9 be d9 47 ca be
       -0.3593417 -0.45395562 -0.48682886 -0.3950794
000170 d3 d5 01 bf
       -0.50716895
